model_zoo/common_model_270/we0_actor_final.pth (torch, 19536 bytes, 4 tensors)

0.weight f4 [64, 2]
00000000: b090 db3e dd8d 9c3f d868 813e 10db d03f
00000010: ef3c b9be 6d9f 5740 b1ea c93e 027a ed3f
00000020: 5278 0ebe 125d 94c0 51e3 d83e d4c0 e33e
00000030: b463 ccbe 1ae0 efbf 76cd c73d 2cb4 f4bf
00000040: 1bb1 d63f d9c0 813f a741 9a3e a0f2 d53e
00000050: c921 b33e b2ad 90bd 0840 a83e 1266 1bc0
00000060: e3c8 4ebe 8460 733f dcce 8ebc 88bd cc3f
00000070: b95f 553e 6a9b 60be 9099 aabf 8d33 10bf
00000080: 7cfa f73d c227 4440 00c4 883e 59d5 9d3f
00000090: 0370 80bd aace a440 474b 2ebe 3ddc 95c0
000000a0: a3e8 dbbe bb18 10c0 ae06 c73e 605a d23f
000000b0: 66e7 9a3e aea7 a93f eba4 dcbe 1165 0dbf
000000c0: c56d 78be a380 8dbf 7cd0 e53b 9614 c1c0
000000d0: 4fea 793e 0240 58bd d246 2e3f fead b7be
000000e0: f727 3a3e 3b54 6740 8c41 be3e f4cf 74bf
000000f0: a288 d8ba 66d5 0c3f 839b bf3f 1353 7c3f
00000100: baeb 073c 5723 e4c0 905a 91be e8dc 9bbf
00000110: 993d 663d 2cc2 9ac0 f75f bd3e db65 09c0
00000120: 171c b5bc ff4b e740 d661 e6be b83c 80bf
00000130: 58d7 9dbe efe8 d1bf d575 9c3e 45fb 8c3f
00000140: 2e7a 0fbd 9829 a040 1ab2 c0be e025 333f
00000150: 4fb7 35bf de7a 223e 0eba 61be aab9 65bf
00000160: e383 b6bc f836 fc40 bffb 123e c4a0 06c0
00000170: 5fc3 973e 24ea fabf 2cee c4be 6dac 5ebf
00000180: e1dd dcbe 00f1 7b3f 7041 15bf 5a9e a9bf
00000190: 67b5 64bd d856 aac0 bb27 123d 0f36 b0c0
000001a0: 40bd 9ebd 4c58 8c40 28ee ddbc b223 9740
000001b0: 0e04 8a3e f7fc 18bf 7c73 07be 1215 f8be
000001c0: 78b1 60be 51a1 4cbe a978 443e 4fbe 1440
000001d0: cadf c9be 79ce 0fc0 336b 8bbe 4fe9 e2bf
000001e0: f623 823c 02ab 953f fd6b d73e 5075 f5bf
000001f0: d7f9 733e d1cf 18bd efea 90be a65c d7be
0.42883825 1.2230793 0.25275302 1.6316853 -0.361793 3.3691056 0.39436868 1.8552859
-0.13913086 -4.636361 0.4236093 0.44483054 -0.39919817 -1.8740265 0.097559854 -1.9117484
1.6772798 1.0136977 0.30128214 0.4178667 0.34986714 -0.0706438 0.32861352 -2.4281049
-0.2019382 0.95069146 -0.017432623 1.599534 0.20837297 -0.21934286 -1.3328114 -0.5632866
0.12108323 3.0649266 0.26712036 1.2330734 -0.062713645 5.1502275 -0.17020904 -4.6831346
-0.42950925 -2.2515094 0.38872284 1.643383 0.30254668 1.3254297 -0.43094572 -0.5523234
-0.24260624 -1.1054882 0.0070133787 -6.033763 0.24405788 -0.052795418 0.68076813 -0.35874933
0.18179308 3.614516 0.37159383 -0.9562981 -0.0016520212 0.5501312 1.4969333 0.9856426
0.008295948 -7.129314 -0.28389406 -1.217679 0.056211088 -4.8362026 0.36987278 -2.1468418
-0.02210812 7.228027 -0.44996518 -1.001853 -0.30828357 -1.6399211 0.3055865 1.1014181
-0.03502863 5.0050774 -0.3763588 0.6997967 -0.7098283 0.15867183 -0.2204363 -0.89736426
-0.022279685 7.88171 0.14353846 -2.1035624 0.29641244 -1.9602704 -0.3846296 -0.8698185
-0.4313803 0.9841461 -0.58302975 -1.325145 -0.05583706 -5.323101 0.03568242 -5.506599
-0.0775094 4.3857784 -0.0270911 4.7231073 0.26956218 -0.59760994 -0.13227648 -0.48453575
-0.21942699 -0.19983412 0.19186653 2.3241155 -0.3942855 -2.246977 -0.27230224 -1.772745
0.015886288 1.1692812 0.42074576 -1.9176426 0.23825775 -0.037307564 -0.2830424 -0.42062873

0.bias f4 [64]
00000000: 19a6 38bd ded8 693f 1800 ee3e 5a42 2bbd
00000010: 66dd f7be cd12 8d3e 7fae 563e 245c ef3e
00000020: 49a6 37bf 7213 543f 9dcf edbe 1200 0abf
00000030: 31f1 a13f 7a4b 30be 41a5 d43e 41ca 013e
00000040: c958 cf3e e164 683f 6c7b 5ebe ba55 e3be
00000050: b7c9 52be 66bb ccbd 8263 7dbd 03cb 243f
00000060: bac7 29bf 6620 43be be2e 603f 450d 023f
00000070: 8d8f b73e 0512 0a40 18c9 acbc 1b8b 95bd
00000080: 5170 c4bd 9768 a7bf 0275 1b3e fbc8 08bf
00000090: 76e1 5a3d 86a5 2ebd c5c5 9fbf 0114 a73f
000000a0: 95f9 0d3d c51d 6c3e c845 95be 9a28 23bf
000000b0: c32c f13c 8240 073f 702e 86bf c0b4 d63e
000000c0: 9fce 7d3f 1bfa 24bf b057 44be 3fe1 dc3d
000000d0: e48c bfbe ec0f a53b 7249 b03f e04c d73f
000000e0: 76be 57bf c388 ef3e e200 53be bc0a 6fbf
000000f0: 9715 b53d c578 25bf 13b0 6f3f 6f28 a5bf
-0.045080278 0.9134654 0.46484447 -0.041811325 -0.484111 0.27553406 0.20965002 0.46749985
-0.71738106 0.8284217 -0.4644746 -0.5390636 1.2651731 -0.17216292 0.4153233 0.1267481
0.40497425 0.9077893 -0.21726769 -0.44401342 -0.2058476 -0.09996681 -0.061862476 0.6437227
-0.66320384 -0.19055328 0.8757132 0.508015 0.35851708 2.1573498 -0.021091983 -0.07301923
-0.09591735 -1.3078793 0.15181354 -0.5343167 0.053437673 -0.042638324 -1.248223 1.305298
0.034661848 0.23058231 -0.291548 -0.6373383 0.02944029 0.52832806 -1.0482922 0.41934776
0.99143404 -0.6444413 -0.19174075 0.1078515 -0.3741218 0.0050372984 1.3772414 1.6820335
-0.84274995 0.46784028 -0.20605806 -0.93375754 0.088420086 -0.64637405 0.9362804 -1.2902964

2.weight f4 [64, 64]
00000000: dbdd 833e 6a33 ddbe 68af afbe 4020 073d
00000010: 59a0 0f3f 3476 a5be f793 86be 63e7 c9be
00000020: e64b 203f d90f ecbe bf0a 633e fbba 9c3e
00000030: 8358 1cbf ea79 cebb 856b 6d3e bf2c 4cbf
00000040: 1859 6bbd 6465 0dbe b907 4f3d ddb7 873e
00000050: f81b b13d 5bc9 efbd 5e00 9d3e 09e1 b2be
00000060: 4400 d63e 2d46 d53e b739 e3be c3f7 e8be
00000070: ef8e c1be a1c3 86be a86e 47be 3ef5 353f
00000080: b7be ff3d a252 d53e 4260 e43e 95ac a53e
00000090: f61f 8abe 3d08 58bd 9c85 073f 173f 31bf
000000a0: 75aa 8cbe e5cd 9abe 91b9 04bf a540 b73e
000000b0: 52f2 d9be 1eb0 d3be bbf3 1b3f 2118 c3be
000000c0: 9448 12bf ff8e 903e 8da4 853c f701 273e
000000d0: 0c34 a23d 6be6 72be e61a 0fbf 3f65 d9be
000000e0: 899d ec3e a4d8 553c f47d ee3d 0513 d13e
000000f0: d597 293d d261 1f3f eb19 0bbf 1177 e13e
00000100: acce c43e 2fc9 a4be 6656 a4bf 7854 8a3e
00000110: 0ceb 313f defe f33d 763a fbbe 13f8 373e
00000120: a45a 143f a24e ab3e 8396 253f b014 8a3f
00000130: 6168 f0bc 0ae5 663d 4467 df3e 4a6d afbe
00000140: 3929 ebbe d9ec 8f3e c745 78bf 4122 c83e
00000150: 4d3e 6fbe 7bf3 923e 2be2 893e 4025 47bf
00000160: 2798 4c3d 87d9 493f c98f bf3e 46e8 2a3e
00000170: 8c96 163d 5ab4 c93b 70b8 efbd 7451 d13e
00000180: 81d4 163f 6381 eb3e ea3b d53e eb9d 8f3f
00000190: 237a 0fbf 9295 b8be a570 86bd 957f bdbe
000001a0: d45e 3abf 9c51 09bf 7de0 9fbe bd2f 62be
000001b0: b2b9 12bf 3201 973e 844c 2c3f 03a2 8fbe
000001c0: 6e7a 86be 5224 58bb 58bc 053e e1be 9a3e
000001d0: 775b 03bf 785c 00bf f599 21be 6e23 d6be
000001e0: 08f9 463d 29ce e13d b686 68bb 02ea 0fbd
000001f0: c71b 6bbe 96f4 453f b488 883e 33a6 593e
00000200: 736a 113f ba03 323e 02ad 7f3e 9466 bc3e
00000210: ab33 e4bc 4aea 763e 9a73 f6be d005 30be
00000220: 8ccc ed3f 1fa4 b33e 63b0 0a3e 399b 64be
00000230: 063a 263e 69cc 8f3e e4ac 463f 4222 94bf
00000240: 80e1 d33e 34ad cd3e 4e97 183e 4e9d 86bd
00000250: c8c6 00bf 0ae0 d53e e1b0 e93d 52ac b9be
00000260: 884a 6dbe 6dc2 eebe 575e 9c3e 0b05 003e
00000270: d49b 5b3e 479b d6be 5b07 8f3b b06d 8b3f
00000280: 1530 b9be 1e37 a13d c30c 88be ad28 62be
00000290: 38ac c23e 4081 3ebe 1f8e e1be 0936 5c3d
000002a0: bdcc a9bd 9b24 afbe 5450 8fbf 043f 8dbe
000002b0: 116f 253f 9dda e43c 6e65 8fbe 7e26 bdbe
000002c0: 0077 333e 7c7b aebe 5933 a3be ed6d 23bf
000002d0: ae5c 56bd 4714 153e cdeb 92bd 5cb3 14be
000002e0: bfcf fa3c 4c2d 373e 591e ffbe 8158 acbe
000002f0: ba81 f53d bb39 313e f44f 403e a1ea 02bd
00000300: 4ae7 893e f149 a4be e875 0ebf 975f 253f
00000310: 7fe1 e13e b3de 2f3e bc40 0abf 2566 24be
00000320: 3636 ad3e 05bd fe3d 07ed e43e be08 443e
00000330: 13b8 a23e 5e7b b53e 1f3b a63e ad22 f4be
00000340: 4770 d5be 307e 843e 97dc 09be 7881 fc3e
00000350: 6f77 febd 73d9 ed3e ab1d e93e e783 09bf
00000360: 034a c6bd c013 2a3e 70dd 9f3e e320 3a3e
00000370: b558 ca3e a1ef 43bd 103b 4abe 09c4 9f3e
00000380: d5f7 e3be 65a1 b83e d927 c83d c203 c63e
00000390: 43ef e93d 11f0 99bd cbd7 a5bd 4dd7 fdbe
000003a0: 91d9 93be d9a9 d5bd f023 9dbe 3b07 62be
000003b0: 7000 e93d 06dd ee3d ebe2 9e3e 1f09 d0be
000003c0: 27dc 08bd 466e 42be 020b 81bd 6c0b c3bc
000003d0: 34ba 853e 52c6 283d 7ce0 fcbe 80e7 c4be
000003e0: f788 713e db31 963d ae9f 3dbe 2a62 1cbe
000003f0: 9fdf 52be 966e ef3e 7c29 843e be03 953e
0.257552 -0.43203288 -0.34313512 0.03298974 0.56104046 -0.32316744 -0.26284763 -0.39434347
0.6261581 -0.4610584 0.22172068 0.30611405 -0.6107256 -0.0063011544 0.23185547 -0.7975578
-0.057458013 -0.13808209 0.050544474 0.26507464 0.08647913 -0.117083274 0.30664343 -0.34937313
0.41797078 0.41655102 -0.4437997 -0.45501527 -0.37804362 -0.26321128 -0.19475806 0.71077335
0.12487548 0.41664606 0.4460469 0.32358232 -0.2697751 -0.05274223 0.52938247 -0.6923689
-0.27473798 -0.3023521 -0.5184565 0.35791507 -0.42567688 -0.41345304 0.6091878 -0.38104346
-0.57141995 0.28234097 0.016313815 0.16309343 0.079200834 -0.2372071 -0.5590042 -0.42460057
0.4621394 0.013052139 0.116451174 0.40834823 0.041404564 0.62258637 -0.5433642 0.44036153
0.38438928 -0.3218474 -1.2838867 0.2701757 0.6949928 0.119138464 -0.4906804 0.17965727
0.57950807 0.3345843 0.6468279 1.0787563 -0.029346647 0.056370772 0.43633473 -0.34263068
-0.45929888 0.28110388 -0.9698147 0.39088634 -0.2336361 0.28701386 0.26930365 -0.77791214
0.04994979 0.78847545 0.37414387 0.16690168 0.036764666 0.006155533 -0.117051005 0.40882456
0.58918005 0.45997152 0.41647273 1.1220068 -0.5604574 -0.36051613 -0.06564454 -0.370114
-0.72800946 -0.5364015 -0.31225958 -0.22088523 -0.573146 0.294931 0.67304254 -0.28053293
-0.2626528 -0.0032980633 0.13060129 0.30223754 -0.5131144 -0.50141096 -0.15781386 -0.41823906
0.04857734 0.1102565 -0.0035480685 -0.035135277 -0.22959815 0.77326334 0.26666796 0.21254806
0.56803054 0.17384234 0.24968341 0.3679701 -0.027856668 0.24112812 -0.48135072 -0.17189717
1.8578048 0.35086152 0.13543849 -0.22324838 0.16233072 0.2808564 0.7760756 -1.1572955
0.4138298 0.40171206 0.14901468 -0.06572972 -0.50303316 0.4177249 0.1141069 -0.36264282
-0.23172963 -0.4663271 0.30540726 0.12501924 0.21446162 -0.41915342 0.0043648905 1.0892849
-0.36169496 0.07871841 -0.26572236 -0.22085829 0.38022017 -0.18603992 -0.44053742 0.05376247
-0.08291004 -0.34207615 -1.1196389 -0.2758714 0.646226 0.027936274 -0.28007072 -0.3694343
0.17525864 -0.34078586 -0.31875113 -0.6383961 -0.05233448 0.14558516 -0.07173882 -0.14521545
0.03061664 0.17888373 -0.4982784 -0.33661273 0.11987634 0.17307179 0.187805 -0.03196204
0.26934272 -0.32087663 -0.5564866 0.64598984 0.44117352 0.17174797 -0.54005027 -0.1605459
0.33830422 0.12438396 0.44712088 0.1914396 0.31781062 0.35445684 0.3246698 -0.47682706
-0.41687223 0.25877523 -0.13463055 0.49317527 -0.12425124 0.46454963 0.45530447 -0.5371689
-0.09682085 0.16609097 0.3122363 0.18176608 0.39520803 -0.04783595 -0.19749093 0.3120425
-0.44525018 0.36060634 0.09773225 0.38674742 0.11422589 -0.07516492 -0.080978 -0.49578324
-0.28876927 -0.104327865 -0.3069148 -0.2207307 0.113770366 0.116632506 0.310325 -0.4063196
-0.03341308 -0.18987378 -0.06300928 -0.023809157 0.26118624 0.041204758 -0.49390018 -0.3845787
0.23587404 0.07333728 -0.18517944 -0.15271822 -0.20593117 0.46764058 0.258129 0.29104418

2.bias f4 [64]
00000000: f15e 31bf c15a f2be a1f2 4ebf 98b1 5fbe
00000010: 314b a0be 6067 913e 8254 9e3e b345 9b3e
00000020: cff7 253f 8dc9 02bf b15f 1cbf 1aa1 8bbe
00000030: 8fb9 d7bd 27d4 ac3e 2548 133f 6547 15be
00000040: 6c64 e0be deaa 3f3f 0c48 67bf 58c5 413f
00000050: 2551 3dbf 7042 03bf 853a 14bf d1b5 e83e
00000060: 1344 513e d316 cebe f229 c13e 1a3a 733f
00000070: 9412 0a3f f816 1bbd 4273 0e3f 4dfe 5f3f
00000080: d64b 213e 2bea 98bc c827 e0be 97fe 3cbf
00000090: 3edc 32bf c72c 8ebe 5590 4bbf 60b3 40bf
000000a0: 68b8 5b3f 81b0 0fbf 5596 193e 8aff 1cbf
000000b0: 43bc 333f b89e cdbe 4e2a 3d3a 3d83 f23e
000000c0: c794 d33e f84e 8a3f 6063 fcbe a6ec 353f
000000d0: 3ad9 bf3e 21c0 6abe a523 163f 9723 3abd
000000e0: b189 fb3d 0dda 8dbf fa60 1cbf fe06 83bf
000000f0: f0ee 103f 29b3 debd 85de f1be f713 10be
-0.69285494 -0.47334865 -0.8083897 -0.2184509 -0.31307366 0.2839918 0.3092385 0.30326614
0.6483125 -0.5108879 -0.61083513 -0.27271348 -0.10533439 0.3375561 0.5753196 -0.14578016
-0.43826616 0.748701 -0.9034431 0.7569175 -0.7395194 -0.5127325 -0.57901794 0.45451215
0.20436125 -0.40251788 0.37727314 0.9501053 0.539346 -0.0378637 0.5564462 0.8749741
0.15751585 -0.018666347 -0.4378035 -0.73825973 -0.6986731 -0.27768537 -0.7951711 -0.75273705
0.85828257 -0.561287 0.14998753 -0.6132742 0.7020914 -0.40160155 0.0007216082 0.47365752
0.41324446 1.0805349 -0.49294567 0.7106422 0.37470418 -0.22924854 0.5864814 -0.045444097
0.12282122 -1.1082169 -0.61085474 -1.0236509 0.5661459 -0.10874016 -0.4724008 -0.14070116
