dir_save_test_BC/we0_critic_pre_train.pth (torch, 19576 bytes, 4 tensors)

0.weight f4 [64, 2]
0.85065657 0.5257218 0.9999975 -0.0022755389 0.9572102 0.28939384 0.94990903 -0.31252676
-0.4546196 0.8906856 -0.96764904 0.25230005 -0.6152506 0.7883316 0.97865456 0.20551269
0.8288235 -0.5595102 -0.8910431 0.45391878 0.40782487 0.9130601 0.8895393 -0.45685863
-0.15959139 0.98718315 -0.910737 -0.41298673 0.57570803 0.81765527 0.3710644 -0.92860717
-0.9621602 0.27248442 -0.8600319 -0.5102402 -0.82991767 0.5578858 0.89806455 -0.43986374
-0.8914559 -0.45310757 -0.06909259 -0.9976102 0.41293898 -0.9107587 0.036934584 0.99931765
0.09892747 0.99509466 0.89378786 0.44848987 -0.32740068 0.94488555 0.52459097 0.8513545
-0.21189503 0.9772925 -0.9920618 -0.12575132 -0.3881856 0.92158127 0.889073 0.45776552
-0.6697818 -0.74255794 -0.7544232 -0.65638834 0.55737054 0.8302639 0.74626076 0.66565377
-0.45968676 0.8880811 -0.9807409 0.19531319 -0.26413745 0.96448505 -0.3426471 -0.93946415
0.17374387 0.984791 0.25089076 0.9680154 0.2322172 0.972664 0.7849452 0.6195651
-0.3445701 0.9387605 0.8932234 -0.44961315 -0.9566551 -0.29122335 -0.81168157 0.58410007
0.90617234 -0.4229087 -0.82859576 0.5598475 -0.3734622 0.9276453 -0.91227955 -0.40956825
0.35479692 0.9349435 -0.99782306 -0.06594884 -0.54671246 -0.8373204 -0.95298654 0.30301294
-0.2434567 0.9699118 -0.00036719439 1.0 0.9921935 0.12470748 0.8595343 -0.511078
0.43391243 0.900955 0.8772884 -0.47996372 -0.4725888 0.88128304 -0.649404 0.7604436
00000000: a1c4 593f b495 063f d6ff 7f3f 3521 15bb
00000010: ba0b 753f 6e2b 943e 3d2d 733f 8203 a0be
00000020: e6c3 e8be f903 643f d9b7 77bf 792d 813e
00000030: 1081 1dbf 1ad0 493f 1b89 7a3f eb71 523e
00000040: c72d 543f 0f3c 0fbf 671b 64bf 0b68 e83e
00000050: 6cce d03e 4fbe 693f d9b8 633f 60e9 e9be
00000060: ed6b 23be 09b8 7c3f 0f26 69bf ff72 d3be
00000070: 9a61 133f db51 513f 27fc bd3e 33b9 6dbf
00000080: 2250 76bf 1483 8b3e 0d2b 5cbf 1a9f 02bf
00000090: 7c75 54bf 9bd1 0e3f 8fe7 653f d235 e1be
000000a0: 7436 64bf b7fd e7be 6a80 8dbd 6263 7fbf
000000b0: bd6c d33e 7b27 69bf b848 173d 48d3 7f3f
000000c0: 7c9a ca3d 86be 7e3f 48cf 643f 77a0 e53e
000000d0: 10a1 a7be 05e4 713f 984b 063f 5ef2 593f
000000e0: 03fb 58be d72f 7a3f c3f7 7dbf f4c4 00be
000000f0: 43c0 c6be c0ec 6b3f 4a9a 633f 3e60 ea3e
00000100: d276 2bbf 4718 3ebf e121 41bf 1109 28bf
00000110: d6af 0e3f 2d8c 543f f20a 3f3f 4968 2a3f
00000120: 105c ebbe 4859 633f d611 7bbf 2e00 483e
00000130: 063d 87be 7ee8 763f 716f afbe b980 70bf
00000140: eae9 313e 431b 7c3f c174 803e dbcf 773f
00000150: 58ca 6d3e 8200 793f 2bf2 483f d29b 1e3f
00000160: 7e6b b0be 9c52 703f 4aaa 643f b233 e6be
00000170: 59e7 74bf 3a1b 95be 5dca 4fbf 9587 153f
00000180: e9fa 673f 7d87 d8be da1e 54bf 2a52 0f3f
00000190: 7036 bfbe 2a7a 6d3f 278b 69bf eeb2 d1be
000001a0: f1a7 b53e 7558 6f3f 5571 7fbf 2f10 87bd
000001b0: 59f5 0bbf a15a 56bf edf6 73bf 8324 9b3e
000001c0: b74c 79be 244c 783f ff83 c0b9 0000 803f
000001d0: 6500 7e3f a366 ff3d 710a 5c3f 02d6 02bf
000001e0: c529 de3e fda4 663f f995 603f cebd f5be
000001f0: 29f7 f1be c49b 613f 573f 26bf 6fac 423f

0.bias f4 [64]
0.0 0.0 0.0 0.0 0.0 0.0 0.0 0.0
0.0 0.0 0.0 0.0 0.0 0.0 0.0 0.0
0.0 0.0 0.0 0.0 0.0 0.0 0.0 0.0
0.0 0.0 0.0 0.0 0.0 0.0 0.0 0.0
0.0 0.0 0.0 0.0 0.0 0.0 0.0 0.0
0.0 0.0 0.0 0.0 0.0 0.0 0.0 0.0
0.0 0.0 0.0 0.0 0.0 0.0 0.0 0.0
0.0 0.0 0.0 0.0 0.0 0.0 0.0 0.0
00000000: 0000 0000 0000 0000 0000 0000 0000 0000
00000010: 0000 0000 0000 0000 0000 0000 0000 0000
00000020: 0000 0000 0000 0000 0000 0000 0000 0000
00000030: 0000 0000 0000 0000 0000 0000 0000 0000
00000040: 0000 0000 0000 0000 0000 0000 0000 0000
00000050: 0000 0000 0000 0000 0000 0000 0000 0000
00000060: 0000 0000 0000 0000 0000 0000 0000 0000
00000070: 0000 0000 0000 0000 0000 0000 0000 0000
00000080: 0000 0000 0000 0000 0000 0000 0000 0000
00000090: 0000 0000 0000 0000 0000 0000 0000 0000
000000a0: 0000 0000 0000 0000 0000 0000 0000 0000
000000b0: 0000 0000 0000 0000 0000 0000 0000 0000
000000c0: 0000 0000 0000 0000 0000 0000 0000 0000
000000d0: 0000 0000 0000 0000 0000 0000 0000 0000
000000e0: 0000 0000 0000 0000 0000 0000 0000 0000
000000f0: 0000 0000 0000 0000 0000 0000 0000 0000

2.weight f4 [64, 64]
0.0011779206 0.08690278 -0.1641791 0.085950255 -0.120046385 0.10090436 0.08758202 -0.33982483
0.11280607 0.039512224 -0.07594837 0.083117515 0.18264157 0.07655874 0.10896009 -0.098275386
-0.18864763 0.13037014 -0.0051675322 -0.056056168 0.011704986 -0.23333505 0.12307058 -0.09282484
-0.14141329 -0.053485133 -0.028076716 -0.030982547 0.16373159 0.07026881 -0.071405604 -0.21201338
-0.08857754 0.094829425 -0.25009096 -0.0085867485 0.124948025 0.13933104 -0.062445242 0.14766996
0.00858731 -0.2980464 -0.0107498085 0.10379655 -0.13110119 -0.16782841 0.22051077 0.045520473
-0.100457534 -0.044784848 0.09743895 -0.048018333 -0.075168245 0.20866692 0.15739037 0.082945704
-0.05232088 -0.06629401 -0.117450714 0.02070058 0.013304042 0.045457736 0.018173458 0.13207196
-0.17621826 0.07783032 0.09802386 0.15314315 -0.007614245 0.065793745 0.10315555 -0.07610813
0.108934276 0.18731403 -0.15379846 -0.14162587 0.12780374 -0.030720143 -0.21748567 -0.092614576
0.09490193 0.056448095 0.095673755 -0.18579364 -0.06519802 0.10758569 -0.02369206 0.12621585
0.0002147062 0.04627826 -0.1262199 -0.057671767 0.036938857 0.22469321 0.22054817 -0.07167632
0.08918784 -0.1313101 0.19915782 0.05856462 -0.04563845 -0.16086508 0.053213675 -0.22486
-0.17823152 -0.07582961 0.15355586 -0.05907139 0.09922712 0.08754215 -0.03064869 0.18483956
0.30485877 -0.07036446 0.01725025 0.10885504 -0.0078576375 -0.06642104 -0.019990288 -0.15010168
0.12560463 -0.11262264 -0.07964121 -0.051757812 0.031122716 -0.20985107 -0.1980753 0.06299156
0.04335706 0.2501564 -0.11472993 0.096708566 0.20766103 0.04564116 -0.0032590316 0.13111232
-0.16512339 -0.008906586 0.12529753 -0.082015194 -0.022817826 -0.1616737 -0.12225488 0.06993902
0.034531962 0.011602656 0.27698913 -0.049751252 0.051981576 -0.034762345 0.042704135 -0.030042425
0.10198764 0.11285977 -0.28870893 0.17196722 -0.01339197 0.030391471 0.029441796 0.06754488
-0.10909777 0.060281076 -0.018584142 0.15364084 0.06441304 -0.12357997 -0.0971583 0.08801693
0.0130449645 0.05153131 0.030345645 -0.057981025 -0.015492982 -0.031967133 -0.087047845 -0.032210536
0.32442454 -0.071215704 0.08630383 -0.03276299 -0.0066772397 -0.14179194 0.001689772 0.15334131
-0.19943334 -0.0792932 -0.15676956 -0.13378307 -0.07923331 -0.29401916 -0.28977522 -0.06141566
-0.13508762 0.007830171 -0.15716508 0.25877628 0.22369511 -0.14411457 0.062653765 -0.21581794
-0.087231874 0.06543756 0.018634118 -0.3000916 0.05870585 0.1263421 -0.064477086 0.25372118
-0.0021798988 -0.09770341 0.11727691 0.025024839 0.07578522 -0.119944535 0.1129354 -0.11502858
-0.08770297 0.01832882 -0.099760205 -0.044835668 0.11077104 0.08453339 -0.094781704 0.037478473
0.07263958 0.053484056 0.06334975 -0.08279767 -0.08494413 -0.21824808 -0.0133652575 0.10134287
-0.063188 0.104360804 0.08099832 0.041330397 -0.11530395 0.08746721 0.13527425 0.15089145
-0.11806437 0.21139745 0.12515478 -0.1356962 -0.07938551 -0.17516261 -0.05020435 -0.004956256
-0.04216263 -0.0035543807 -0.019170212 0.25088334 0.018565325 0.2006372 -0.042190738 0.22238402
00000000: 7564 9a3a 16fa b13d 911e 28be b006 b03d
00000010: e1da f5bd f2a6 ce3d 345e b33d 85fd adbe
00000020: de06 e73d 92d7 213d d28a 9bbd 8439 aa3d
00000030: 6406 3b3e d4ca 9c3d 7826 df3d 9b44 c9bd
00000040: d82c 41be c07f 053e 6754 a9bb 279b 65bd
00000050: 45c6 3f3c 62ef 6ebe 6e0c fc3d f31a bebd
00000060: a5ce 10be 3a13 5bbd 2401 e6bc 1ccf fdbc
00000070: 41a9 273e 18e9 8f3d 1a3d 92bd 091a 59be
00000080: 2468 b5bd ee35 c23d ec0b 80be 6faf 0cbc
00000090: c0e4 ff3d ccac 0e3e 95c6 7fbd cb36 173e
000000a0: cab1 0c3c 8a99 98be f71f 30bc 4993 d43d
000000b0: 643f 06be 36db 2bbe 93cd 613e ad73 3a3d
000000c0: aebc cdbd 5170 37bd 128e c73d dfae 44bd
000000d0: cff1 99bd c8ac 553e f12a 213e 70df a93d
000000e0: 6b4e 56bd 27c5 87bd 008a f0bd 4394 a93c
000000f0: 32f9 593c e431 3a3d 81e0 943c df3d 073e
00000100: 8f72 34be 8165 9f3d bcc0 c83d 8fd1 1c3e
00000110: eb80 f9bb dfbe 863d 3843 d33d 94de 9bbd
00000120: ef18 df3d 40cf 3f3e 587d 1dbe 5f06 11be
00000130: fcde 023e cfa8 fbbc 90b4 5ebe b6ac bdbd
00000140: f15b c23d 1e36 673d 9af0 c33d b040 3ebe
00000150: 8a86 85bd e355 dc3d da15 c2bc ba3e 013e
00000160: c222 6139 468e 3d3d ca3f 01be 3b39 6cbd
00000170: 334d 173d fa15 663e 61d7 613e 09cb 92bd
00000180: 1da8 b63d 2876 06be 07f0 4b3e 74e1 6f3d
00000190: 62ef 3abd d1b9 24be 95f6 593d b341 66be
000001a0: 5382 36be 8e4c 9bbd bf3d 1d3e d8f4 71bd
000001b0: 9737 cb3d 4c49 b33d f612 fbbc 9546 3d3e
000001c0: 7316 9c3e 3e1b 90bd 6550 8d3c 64ef de3d
000001d0: 52bd 00bc c107 88bd acc2 a3bc 41b4 19be
000001e0: 809e 003e b3a6 e6bd ee1a a3bd 0000 54bd
000001f0: 11f5 fe3c 33e3 56be 40d4 4abe b801 813d
00000200: 2c97 313d 8014 803e 87f7 eabd 240f c63d
00000210: 18a5 543e 3af2 3a3d 7a95 55bb 4f42 063e
00000220: 1b16 29be eeec 11bc ff4d 003e 95f7 a7bd
00000230: 73ec babc ca8d 25be c460 fabd 303c 8f3d
00000240: 6371 0d3d 1119 3e3c 85d1 8d3e f8c7 4bbd
00000250: a2ea 543d f662 0ebd 88ea 2e3d 881b f6bc
00000260: e5de d03d 0623 e73d a8d1 93be 2d18 303e
00000270: fe69 5bbc 89f7 f83c ec2f f13c f854 8a3d
00000280: a76e dfbd 4ae9 763d c53d 98bc 0654 1d3e
00000290: fcea 833d 7f17 fdbd eefa c6bd 3842 b43d
000002a0: 8cba 553c 7f12 533d 6e97 f83c 837d 6dbd
000002b0: 47d6 7dbc f8ef 02bd 2446 b2bd 32ef 03bd
000002c0: f91a a63e 8ad9 91bd 10c0 b03d 7c32 06bd
000002d0: bfcc dabb e831 11be 577b dd3a 8105 1d3e
000002e0: 4138 4cbe 7964 a2bd 3388 20be 6efe 08be
000002f0: 1345 a2bd ae89 96be 6b5d 94be fd8e 7bbd
00000300: 6954 0abe 1e4a 003c e2ef 20be 537e 843e
00000310: 5510 653e c592 13be 9e50 803d 61ff 5cbe
00000320: a0a6 b2bd 2104 863d 94a6 983c 9ba5 99be
00000330: 8c75 703d d35f 013e 900c 84bd bee7 813e
00000340: a2dc 0ebb ba18 c8bd e02e f03d e400 cd3c
00000350: 4835 9b3d 7ba5 f5bd ad4a e73d 1b94 ebbd
00000360: 9d9d b3bd 5226 963c 144f ccbd 9ba5 37bd
00000370: eddb e23d d81f ad3d e91c c2bd 0783 193d
00000380: 0fc4 943d 1912 5b3d 84bd 813d d391 a9bd
00000390: 30f7 adbd 6d7c 5fbe f4f9 5abc da8c cf3d
000003a0: b668 81bd 1ebb d53d 72e2 a53d 104a 293d
000003b0: 7a24 ecbd 0222 b33d 5585 0a3e 4a83 1a3e
000003c0: bbcb f1bd 9378 583e 9328 003e f2f3 0abe
000003d0: df94 a2bd d45d 33be 14a3 4dbd 1768 a2bb
000003e0: b9b2 2cbd 9df0 68bb d90a 9dbc c873 803e
000003f0: 4f16 983c d773 4d3e 32d0 2cbd a3b8 633e

2.bias f4 [64]
0.0 0.0 0.0 0.0 0.0 0.0 0.0 0.0
0.0 0.0 0.0 0.0 0.0 0.0 0.0 0.0
0.0 0.0 0.0 0.0 0.0 0.0 0.0 0.0
0.0 0.0 0.0 0.0 0.0 0.0 0.0 0.0
0.0 0.0 0.0 0.0 0.0 0.0 0.0 0.0
0.0 0.0 0.0 0.0 0.0 0.0 0.0 0.0
0.0 0.0 0.0 0.0 0.0 0.0 0.0 0.0
0.0 0.0 0.0 0.0 0.0 0.0 0.0 0.0
00000000: 0000 0000 0000 0000 0000 0000 0000 0000
00000010: 0000 0000 0000 0000 0000 0000 0000 0000
00000020: 0000 0000 0000 0000 0000 0000 0000 0000
00000030: 0000 0000 0000 0000 0000 0000 0000 0000
00000040: 0000 0000 0000 0000 0000 0000 0000 0000
00000050: 0000 0000 0000 0000 0000 0000 0000 0000
00000060: 0000 0000 0000 0000 0000 0000 0000 0000
00000070: 0000 0000 0000 0000 0000 0000 0000 0000
00000080: 0000 0000 0000 0000 0000 0000 0000 0000
00000090: 0000 0000 0000 0000 0000 0000 0000 0000
000000a0: 0000 0000 0000 0000 0000 0000 0000 0000
000000b0: 0000 0000 0000 0000 0000 0000 0000 0000
000000c0: 0000 0000 0000 0000 0000 0000 0000 0000
000000d0: 0000 0000 0000 0000 0000 0000 0000 0000
000000e0: 0000 0000 0000 0000 0000 0000 0000 0000
000000f0: 0000 0000 0000 0000 0000 0000 0000 0000
