dir_save_test_BC/we0_model_base_-100.pth (torch, 41568 bytes, 9 tensors)

weight f4 [64, 2]
-0.23630941 7.5346684 0.97110367 8.101 -0.009661046 12.373938 -0.14927122 13.644641
0.07631521 -13.77921 0.310147 12.010679 0.19531387 -14.72065 0.53365475 -15.341428
1.0146965 3.7171912 1.1058853 7.599142 -0.550065 10.934393 -0.058930065 -12.651103
0.7857556 8.002719 -0.1343808 5.013072 2.4173794 -1.0895054 -1.3993486 -9.9118185
-0.13212223 11.353595 0.37564817 10.421018 -0.1639552 12.382845 0.017657744 -12.062996
-0.015904566 -11.822198 -0.184353 13.11791 -0.3591977 4.413498 0.40565196 -11.483853
-1.011856 -8.592082 0.10464323 -12.506481 0.26698396 -1.0309193 2.5943398 8.111914
-0.11734975 13.546718 0.003121263 -1.2821829 -4.8606315 4.720568 1.1838214 5.839314
0.07527955 -12.895913 -3.3535085 -12.672171 0.18883382 -8.439729 -0.7507767 -4.5116334
-0.10419617 13.113994 0.55126995 -11.0642 0.02290303 -14.210373 0.92578006 9.802739
-0.13846655 12.924748 0.8734967 -7.3101068 -0.8505473 -3.0252285 -0.12800296 -14.688208
-0.0979211 11.9037485 0.06297456 -5.0785694 -1.194649 -4.556412 0.57104504 -10.466648
0.7490536 11.256669 -0.00469648 -12.343231 0.07021068 -12.30251 0.10080722 -10.601046
-0.21686257 7.373673 -0.28505942 13.695542 0.5907427 -16.107828 0.07484531 -1.6155916
-2.2627063 -8.58387 -0.35264215 11.598695 0.10220561 -11.536031 0.06581317 -14.387855
-0.006864923 2.440161 -1.0029436 -7.4413123 0.69227433 -8.948776 -0.91955435 -4.2597766
00000000: 18fb 71be 011c f140 409a 783f b29d 0141
00000010: 5d49 1ebc a6fb 4541 8eda 18be 7350 5a41
00000020: 264b 9c3d a577 5cc1 96cb 9e3e be2b 4041
00000030: 5c00 483e c887 6bc1 999d 083f 7d76 75c1
00000040: 93e1 813f 76e6 6d40 a68d 8d3f 2c2c f340
00000050: 0fd1 0cbf 46f3 2e41 a760 71bd eb6a 4ac1
00000060: 4727 493f 230b 0041 1f9b 09be 166b a040
00000070: 58b6 1a40 ea74 8bbf db1d b3bf cf96 1ec1
00000080: 0d4b 07be 53a8 3541 f554 c03e 7dbc 2641
00000090: dfe3 27be 2220 4641 f9a6 903c 0802 41c1
000000a0: 4b4a 82bc b927 3dc1 08c7 3cbe f6e2 5141
000000b0: c3e8 b7be 603b 8d40 9db1 cf3e ddbd 37c1
000000c0: 7f84 81bf 2b79 09c1 314f d63d 8c1a 48c1
000000d0: 1fb2 883e 2af5 83bf aa09 2640 66ca 0141
000000e0: 1155 f0bd 5bbf 5841 1b8e 4c3b 921e a4bf
000000f0: 4b8a 9bc0 e50e 9740 7687 973f a9db ba40
00000100: 2a2c 9a3d a955 4ec1 e29f 56c0 36c1 4ac1
00000110: a75d 413e 2109 07c1 e732 40bf 4d5f 90c0
00000120: cd64 d5bd ebd2 5141 0720 0d3f f706 31c1
00000130: 239f bb3c b05d 63c1 ecff 6c3f 05d8 1c41
00000140: 2dca 0dbe c5cb 4e41 7b9d 5f3f 65ec e9c0
00000150: 78bd 59bf 589d 41c0 3513 03be e602 6bc1
00000160: dc8a c8bd c175 3e41 cef8 803d a483 a2c0
00000170: 42ea 98bf 21ce 91c0 0230 123f 6477 27c1
00000180: fac1 3f3f 511b 3441 eee4 99bb e07d 45c1
00000190: 9eca 8f3d 15d7 44c1 0474 ce3d e29d 29c1
000001a0: 3911 5ebe 21f5 eb40 4ff3 91be f120 5b41
000001b0: ea3a 173f d5dc 80c1 7f48 993d b5cb cebf
000001c0: 2ed0 10c0 8857 09c1 838d b4be 4194 3941
000001d0: 2d51 d13d 9593 38c1 0ec9 863d a734 66c1
000001e0: 26f3 e0bb 992b 1c40 7560 80bf 3b1f eec0
000001f0: e438 313f 302e 0fc1 ea67 6bbf 1750 88c0

bias f4 [64]
-0.26615855 0.17196763 0.031031413 -0.13948686 0.013634913 0.18878111 0.21819733 0.32942432
0.29358748 0.1782638 -0.42521635 -0.117853165 0.07549958 -0.20472844 0.9350355 -0.41390046
-0.10925953 0.12479791 -0.10146155 -0.041764405 -0.05262877 -0.24798957 -0.19354045 0.15187602
-0.06298466 0.06997864 0.19142282 1.664923 -0.06442542 0.021055471 -1.411079 0.26620713
0.009558216 -2.303488 0.18512312 -0.101781614 -0.0794259 0.41161674 -0.063133255 0.080917016
-0.17234947 0.97305995 -0.32262293 -0.25592646 -0.043584835 0.15693638 -0.28528658 0.46806163
0.06897578 -0.067056626 -0.0049496326 0.08383185 -0.26164633 -0.11956745 0.4460529 0.052500743
-1.315734 -0.158168 0.077672094 -0.003146587 -0.025750699 -0.12518746 0.78444856 -0.2833329
00000000: ef45 88be 4818 303e 9735 fe3c a5d5 0ebe
00000010: f864 5f3c d64f 413e 1f6f 5f3e 4eaa a83e
00000020: 1951 963e c98a 363e f5b5 d9be 005d f1bd
00000030: 869f 9a3d 55a4 51be 7d5e 6f3f c3ea d3be
00000040: 76c3 dfbd 0c96 ff3d 13cb cfbd 2711 2bbd
00000050: 4491 57bd faf0 7dbe 782f 46be 6385 1b3e
00000060: 1afe 80bd f650 8f3d 5804 443e 321c d53f
00000070: 79f1 83bd 867c ac3c 3d9e b4bf 4d4c 883e
00000080: 109a 1c3c 596c 13c0 ea90 3d3e e172 d0bd
00000090: 0caa a2bd 6ebf d23e 024c 81bd d2b7 a53d
000000a0: 617c 30be 751a 793f d52e a5be cb08 83be
000000b0: 0386 32bd eeb3 203e 1511 92be c6a5 ef3e
000000c0: 2c43 8d3d fc54 89bd 8730 a2bb 08b0 ab3d
000000d0: 82f6 85be c7df f4bd 0c61 e43e 050b 573d
000000e0: f969 a8bf cbf6 21be 8c12 9f3d f836 4ebb
000000f0: 21f3 d2bc 2431 00be 9fd1 483f 0311 91be

weight f4 [64, 64]
0.05398653 0.022211634 0.09172287 -0.07300282 -0.082841925 0.10720195 -0.15620969 -0.12434553
-0.21102753 -0.053246263 0.028345356 0.07208143 -0.1684325 -0.062606506 -0.10506055 -0.027741611
0.12850125 0.21134733 0.29887336 -0.11243701 -0.017150847 -0.06786136 0.26647255 0.14997636
-0.040247273 -0.019275613 -0.1146533 -0.18834905 -0.12214639 -0.02049498 -0.10041988 -0.09646949
-0.34592232 -0.04330622 0.24232069 0.05798086 0.104373835 0.0075872955 -0.022953743 -0.16810516
0.06861597 -0.11334621 -0.01825103 -0.07007522 0.060702946 -0.26753423 0.30224514 -0.22250696
-0.07289366 -0.09543198 -0.17268576 -0.045393396 0.07689596 0.110559694 -0.235728 0.07399557
0.04307654 0.28033665 -0.042550825 -0.13700506 -0.0662379 0.26816303 -0.15120508 -0.04985991
-0.050706044 -0.09730564 0.020705672 0.1070581 0.008080979 -0.1059207 -0.27619794 0.09380226
0.022266723 0.14973386 -0.010011541 0.10980309 0.08028185 0.12688188 -0.11201523 0.2392663
0.0008106385 0.19205897 -0.14514376 -0.1857876 -0.013857524 -0.0021458056 0.08719827 -0.1598786
0.10505127 -0.0019936415 0.25494236 -0.014130591 0.038524073 0.12261047 0.0022834823 -0.13392162
-0.14131483 0.04761379 -0.3848346 0.13215566 0.3175737 0.010485285 -0.068649285 -0.09797368
0.16014104 -0.06250337 0.24001119 0.008066438 0.18721794 -0.03748889 0.05169792 -0.023644606
-0.08585085 0.05348714 -0.13265973 -0.23885387 0.06693119 0.117481515 0.068463095 0.06004187
0.047656823 0.10989521 0.14044882 -0.11078604 -0.17884459 -0.0008969485 0.022421604 0.014695701
0.20962852 -0.18388015 0.086751565 0.054458115 -0.008566812 -0.21499825 -0.015926972 0.054695785
0.20100388 0.16008812 -0.045453005 -0.11419648 -0.14142296 0.015747584 0.147198 -0.032087054
0.26364017 -0.07836085 0.072908245 0.19165567 0.04020743 0.13159128 -0.20157231 -0.2006928
-0.037688468 -0.36260402 0.017267289 -0.069216765 0.17666797 -0.1945454 0.16925378 -0.08865883
-0.07984555 0.33990622 -0.1476093 -0.123633504 0.11620153 0.08603749 -0.085263215 -0.020567872
-0.1444624 -0.20254567 -0.14942756 0.16390121 0.33947238 0.013112958 0.10976485 0.015619873
-0.12128126 -0.04560605 -0.15500247 -0.28249028 -0.031292923 -0.14466423 -0.039778974 -0.08094279
0.18859173 0.0057977103 -0.30111045 0.012614712 -0.10726296 0.218736 -0.05929836 0.08309149
-0.16106074 -0.042683665 0.035596203 0.34077352 -0.03309855 -0.18734792 -0.16626163 0.14824
-0.16025709 -0.062060203 0.052462462 0.1013543 0.11537659 0.057305478 0.042258255 -0.00992093
-0.09256054 0.100822546 0.10661481 -0.013291257 0.057654876 0.15246293 0.13472098 -0.022491809
0.12803033 -0.13977815 0.16128966 0.05844841 0.0918134 0.02593234 0.10576532 -0.10587234
-0.2519176 0.082392834 -0.14564547 -0.006062435 0.22989273 0.19055751 -0.09160111 -0.20713568
-0.030217657 0.2727344 0.00041277136 0.12845175 0.3730504 -0.10159861 0.073078446 -0.014380923
-0.2752697 -0.0927024 -0.15339473 -0.14272596 0.3562156 0.2512336 -0.12421269 0.06810582
0.13774002 -0.07280897 0.12643287 -0.14926875 -0.06921845 0.060827736 0.05385918 0.0089664515
00000000: fb20 5d3d 2cf5 b53c 33d9 bb3d 8182 95bd
00000010: 07a9 a9bd b28c db3d 6ff5 1fbe dfa8 febd
00000020: 9a17 58be c118 5abd 8534 e83c 6e9f 933d
00000030: 9279 2cbe d737 80bd fc29 d7bd 6042 e3bc
00000040: d595 033e 6f6b 583e ee05 993e 6045 e6bd
00000050: ef7f 8cbc e6fa 8abd 176f 883e 6793 193e
00000060: 53da 24bd e4e7 9dbc 59cf eabd 93de 40be
00000070: e327 fabd 17e5 a7bc f0a8 cdbd cc91 c5bd
00000080: bb1c b1be dd61 31bd ea22 783e 577d 6d3d
00000090: f3c1 d53d d99e f83b 7d09 bcbc c223 2cbe
000000a0: 8886 8c3d 0f22 e8bd 2f83 95bc 9983 8fbd
000000b0: a7a3 783d 3ffa 88be e0bf 9a3e ddd8 63be
000000c0: 4549 95bd d871 c3bd 89d4 30be 6dee 39bd
000000d0: a17b 9d3d 1f6d e23d ae62 71be fd8a 973d
000000e0: 0771 303d 4988 8f3e c649 2ebd 0e4b 0cbe
000000f0: bca7 87bd aa4c 893e 81d5 1abe e839 4cbd
00000100: 24b1 4fbd 2e48 c7bd f19e a93c 4741 db3d
00000110: 1566 043c f4ec d8bd d169 8dbe 661b c03d
00000120: b468 b63c d553 193e 7207 24bc 71e0 e03d
00000130: d06a a43d 53ed 013e 3e68 e5bd 3a02 753e
00000140: 0781 543a 1bab 443e 91a0 14be 1b3f 3ebe
00000150: ab0a 63bc a5a0 0cbb 0295 b23d 37b7 23be
00000160: 1f25 d73d c1a7 02bb ce87 823e ff83 67bc
00000170: 6bcb 1d3d 331b fb3d 7aa6 153b c022 09be
00000180: d6b4 10be ad06 433d 0a09 c5be d053 073e
00000190: 0599 a23e 79ca 2b3c ff97 8cbd 6da6 c8bd
000001a0: 03fc 233e c401 80bd 7ec5 753e 1829 043c
000001b0: 0fb6 3f3e f38d 19bd 33c1 533d 55b2 c1bc
000001c0: 92d2 afbd 5515 5b3d f4d7 07be 1c96 74be
000001d0: 3813 893d 269a f03d 6136 8c3d 77ee 753d
000001e0: cd33 433d bd10 e13d d1d1 0f3e cbe3 e2bd
000001f0: 0923 37be 3221 6bba 83ad b73c 3dc6 703c
00000200: dca8 563e 144b 3cbe ceaa b13d 790f 5f3d
00000210: d05b 0cbc 8028 5cbe 4879 82bc b008 603d
00000220: f6d3 4d3e 24ee 233e ee2c 3abd d8df e9bd
00000230: 2ed1 10be 1401 813c 13bb 163e b76d 03bd
00000240: d8fb 863e a77b a0bd eb50 953d 6241 443e
00000250: 8cb0 243d ddbf 063e f968 4ebe 6a82 4dbe
00000260: 395f 1abd 3ca7 b9be 2174 8d3c 85c1 8dbd
00000270: 73e8 343e e936 47be dd50 2d3e c392 b5bd
00000280: 1086 a3bd 3008 ae3e e426 17be 9033 fdbd
00000290: 11fb ed3d 6c34 b03d 7b9e aebd f47d a8bc
000002a0: f4ed 13be 2268 4fbe 8a03 19be b8d5 273e
000002b0: 53cf ad3e bbd7 563c 65cc e03d 7fea 7f3c
000002c0: 4f62 f8bd 69cd 3abd f8b8 1ebe 91a2 90be
000002d0: 022d 00bd dc22 14be 47ef 22bd 55c5 a5bd
000002e0: 311e 413e b8fa bd3b 262b 9abe f0ad 4e3c
000002f0: afac dbbd 54fc 5f3e d6e2 72bd df2b aa3d
00000300: 1bed 24be 11d5 2ebd 53cd 113d de79 ae3e
00000310: 5892 07bd 22d8 3fbe 7d40 2abe 3acc 173e
00000320: 6f1a 24be d732 7ebd e1e2 563d d892 cf3d
00000330: 904a ec3d 26b9 6a3d fe16 2d3d 658b 22bc
00000340: 6190 bdbd 0d7c ce3d de58 da3d 93c3 59bc
00000350: 8527 6c3d 3e1f 1c3e 4cf4 093e be40 b8bc
00000360: 621a 033e 0122 0fbe 1e29 253e 9a67 6f3d
00000370: aa08 bc3d 0f70 d43c 7d9b d83d 99d3 d8bd
00000380: 58fb 80be 93bd a83d 1624 15be 64a7 c6bb
00000390: 0069 6b3e 8221 433e 5d99 bbbd 601b 54be
000003a0: 058b f7bc d8a3 8b3e 3c69 d839 db88 033e
000003b0: 7600 bf3e ef12 d0bd 27aa 953d f69d 6bbc
000003c0: 26f0 8cbe c2da bdbd 8213 1dbe c126 12be
000003d0: e461 b63e b1a1 803e 3963 febd 107b 8b3d
000003e0: b80b 0d3e df1c 95bd 9e77 013e e8d9 18be
000003f0: 67c2 8dbd 8126 793d 729b 5c3d 06e8 123c

bias f4 [64]
-0.05186789 -0.022877257 0.19135557 -0.006496083 0.25621128 0.0031269896 -0.08547478 0.007584236
0.03810211 0.11734944 0.112818465 -0.010732633 0.108110085 0.16222166 0.2314377 -0.7754976
-0.014647497 0.11650476 0.16826946 0.03499907 0.14018127 -0.054780822 -0.14176495 0.07139384
-0.035364967 -1.5305417 -0.008764589 0.05569432 -0.016707595 0.31219938 -0.043643665 -0.07272723
-0.1557338 -0.060607694 -0.06196454 0.1285875 0.18325627 0.045195974 -0.0050251475 0.090951055
-0.0715081 -0.20797823 -0.008235649 0.5798664 0.012415572 -0.12217651 -0.0274875 0.37847713
0.005167822 0.15773675 0.10000241 0.044677302 -0.32311556 0.14875033 0.007545454 -0.074543335
-0.15553534 0.06018282 -0.24462354 -0.031411484 -0.04673608 -0.09618926 -0.019857954 -0.050597508
00000000: 6d73 54bd 1669 bbbc b7f2 433e 18dd d4bb
00000010: 202e 833e 2eee 4c3b 670d afbd 2f85 f83b
00000020: f510 1c3d e754 f03d 5e0d e73d edd7 2fbc
00000030: d268 dd3d 6f1d 263e 01fe 6c3e 0387 46bf
00000040: 0efc 6fbc 0c9a ee3d d44e 2c3e 2f5b 0f3d
00000050: ae8b 0f3e db61 60bd d52a 11be ef36 923d
00000060: dbda 10bd cae8 c3bf 5a99 0fbc ba1f 643d
00000070: 5ede 88bc 99d8 9f3e b3c3 32bd 04f2 94bd
00000080: ae78 1fbe c63f 78bd 88ce 7dbd 71ac 033e
00000090: 88a7 3b3e 6a1f 393d fea9 a4bb 8c44 ba3d
000000a0: d772 92bd 3ff8 54be d1ee 06bc 2072 143f
000000b0: af6a 4b3c ae37 fabd 772d e1bc c1c7 c13e
000000c0: d556 a93b be85 213e 10ce cc3d 8cff 363d
000000d0: 676f a5be 0252 183e db3f f73b 2daa 98bd
000000e0: a844 1fbe 4382 763d 987e 7abe 54a9 00bd
000000f0: 556e 3fbd e0fe c4bd 26ad a2bc 553f 4fbd

weight f4 [64, 2]
1.3692439 0.5234001 1.0963107 -0.004997799 0.4493905 1.644476 1.3049347 -0.31502318
-1.0957274 0.89353395 -1.1239741 0.25605488 -1.3399513 0.78962785 1.2511094 0.20307346
1.3450344 -0.56142396 -0.03498556 4.596524 0.58721447 0.9183267 1.2310959 -0.45987073
-0.26525295 8.613354 -0.41489235 -0.8713175 1.3088337 0.8155196 1.2089044 -0.92882717
-1.086597 0.27539268 -1.2868365 -0.50763106 -1.3493649 0.56024235 1.1778227 -0.4427347
-0.5533288 -7.864311 0.27657962 -7.8959227 0.27870926 -7.460352 0.25392416 -5.352735
0.5796946 1.3412712 1.2773405 0.44589257 -0.9728546 0.9497384 0.60730857 12.788773
-0.25707564 7.878136 -0.5576452 -3.153557 -1.2745175 0.9204847 0.45552605 1.2762852
-1.2751664 -0.7399839 -0.5749897 -8.678334 0.54714334 4.380303 1.3869295 0.6635995
-1.2733421 0.8882516 -0.5776372 1.4001955 -0.25983092 9.044166 -0.34917137 -1.3983272
-0.23952588 9.504249 0.9902521 0.9557315 0.6027496 -0.91342056 1.4089122 0.61752796
-0.26264188 7.598027 1.3850902 -0.4518149 -1.3974977 -0.2889629 -1.217331 0.5867088
1.2816885 -0.4254144 -0.2632349 5.827507 -1.0811555 0.92222285 -1.3689917 -0.40726835
0.5439198 3.029102 -0.36604717 0.81711316 -1.0814945 -0.8323174 -1.3356097 0.30550838
-0.27127823 8.140906 -0.25785336 9.911515 1.2143033 0.12149877 0.26345083 -5.652994
1.2250396 0.8990041 0.4492358 0.27781788 -1.3183641 0.8807125 -1.2770026 0.7621414
00000000: 6243 af3f 8dfd 053f e953 8c3f 94c4 a3bb
00000010: 8316 e63e 317e d23f 1a08 a73f b84a a1be
00000020: cc40 8cbf a4be 643f 62de 8fbf a019 833e
00000030: 8683 abbf 0d25 4a3f 5a24 a03f 7df2 4f3e
00000040: 162a ac3f 7bb9 0fbf 054d 0fbd b916 9340
00000050: b053 163f 7517 6b3f 8d94 9d3f 2d74 ebbe
00000060: 3ccf 87be 4cd0 0941 c56c d4be aa0e 5fbf
00000070: dd87 a73f e4c5 503f 61bd 9a3f 9ec7 6dbf
00000080: 9c15 8bbf 4500 8d3e 0fb7 a4bf 1cf4 01bf
00000090: fdb7 acbf 0b6c 0f3f e5c2 963f 1fae e2be
000000a0: f5a6 0dbf 70a8 fbc0 d89b 8d3e 66ab fcc0
000000b0: fbb2 8e3e 34bb eec0 5902 823e 9b49 abc0
000000c0: de66 143f c6ae ab3f e57f a33f 084c e43e
000000d0: 000d 79bf 0e22 733f 9378 1b3f d09e 4c41
000000e0: 6b9f 83be b119 fc40 d6c1 0ebf e1d3 49c0
000000f0: 6423 a3bf e3a4 6b3f b63a e93e 505d a33f
00000100: a738 a3bf 966f 3dbf 8632 13bf 75da 0ac1
00000110: 9611 0c3f 712b 8c40 e886 b13f a8e1 293f
00000120: e0fc a2bf 7564 633f 08e0 13bf 9b39 b33f
00000130: 8f08 85be e7b4 1041 97c6 b2be 63fc b2bf
00000140: 4646 75be 6711 1841 2981 7d3f d2aa 743f
00000150: cc4d 1a3f eed5 69bf 3c57 b43f 5016 1e3f
00000160: ff78 86be 0a23 f340 a34a b13f 4854 e7be
00000170: 34e1 b2bf f2f2 93be 81d1 9bbf 8c32 163f
00000180: 5e0e a43f ebcf d9be bac6 86be f07a ba40
00000190: 4e63 8abf cc16 6c3f 1f3b afbf 7a85 d0be
000001a0: 543e 0b3f cfdc 4140 896a bbbe 542e 513f
000001b0: 696e 8abf c112 55bf 42f5 aabf 986b 9c3e
000001c0: fbe4 8abe 2741 0241 5b05 84be 9195 1e41
000001d0: 4a6e 9b3f 59d4 f83d 07e3 863e 54e5 b4c0
000001e0: 19ce 9c3f 2225 663f 3c02 e63e 253e 8e3e
000001f0: 28c0 a8bf 6076 613f d274 a3bf b31b 433f

bias f4 [64]
-0.15403278 -0.025142556 0.73098946 -0.09274549 0.31872046 0.038625676 0.29110426 -0.071915574
-0.15052167 -0.8723853 0.8428883 -0.086243786 -0.47958186 -0.25036332 -0.32969868 -0.4921499
0.032099158 0.119734496 0.15420389 -0.06507253 -1.2967592 1.153218 0.8193016 0.9083145
0.84348965 -0.100253575 0.51805395 1.6538795 -0.4036023 -1.0956357 0.45591408 0.5868573
0.18769449 -1.4767911 1.1955562 -0.21265936 0.46411887 -0.7410131 -0.55515283 0.118436016
-0.5061455 -0.6989079 0.78055763 -0.20067237 -0.67660916 -0.14179507 0.12039503 0.096505
-0.098576225 -0.9576798 0.52083987 0.12353327 0.9167877 -0.5339792 0.19358614 0.10103572
-0.589258 -0.5906625 -0.05711496 1.0453695 -0.36425704 0.57138515 0.40000668 0.19054419
00000000: c5ba 1dbe c3f7 cdbc 2022 3b3f 59f1 bdbd
00000010: 542f a33e f535 1e3d 9e0b 953e 7948 93bd
00000020: 5a22 1abe a554 5fbf 87c7 573f 95a0 b0bd
00000030: c18b f5be 9f2f 80be 44ce a8be 12fb fbbe
00000040: 687a 033d 5c37 f53d a0e7 1d3e bf44 85bd
00000050: 35fc a5bf a69c 933f c0bd 513f 4d87 683f
00000060: f0ee 573f bf51 cdbd 2f9f 043f 53b2 d33f
00000070: f6a4 cebe ca3d 8cbf 926d e93e 483c 163f
00000080: fc32 403e 7e07 bdbf fc07 993f 60c3 59be
00000090: fda0 ed3e 09b3 3dbf 7f1e 0ebf 958e f23d
000000a0: c092 01bf a1eb 32bf a0d2 473f 0f7d 4dbe
000000b0: 4236 2dbf ba32 11be ab91 f63d 6aa4 c53d
000000c0: 55e2 c9bd 812a 75bf c355 053f 03ff fc3d
000000d0: 99b2 6a3f dcb2 08bf 723b 463e d1eb ce3d
000000e0: 9dd9 16bf a835 17bf 60f1 69bd abce 853f
000000f0: e67f babe 4c46 123f adcd cc3e 041e 433e

weight f4 [64, 64]
-0.10618692 -0.020462792 -0.26268926 -0.021406434 -0.012870164 0.20825414 0.19485012 -0.4471982
0.005526754 0.12778366 -0.16472295 -0.024214303 0.27047062 0.17555802 0.0016236214 -0.20597307
-0.08128549 0.2377337 0.10219405 -0.16337438 0.10320294 -0.17500333 0.04055098 -0.19195889
-0.21779545 -0.1608454 0.07951498 -0.12162893 0.25203297 0.16125284 0.036010623 -0.30978015
0.018768275 0.18530624 -0.34011495 -0.11593409 0.23235841 0.22894111 0.02344024 0.23525731
-0.049098503 -0.4063326 -0.0897461 -0.0035468012 -0.047097407 -0.27518103 0.3278776 0.15280044
-0.20780276 0.039455663 0.2030036 0.059341952 -0.16709362 0.29786628 0.2647801 0.19030575
0.033533644 0.04414121 -0.22482128 -0.062314223 -0.09418427 -0.052784 0.12541592 0.23927957
-0.019136693 0.23491102 0.2474493 0.31022587 -0.16489567 -0.09127338 -0.05393046 0.080974594
0.2659792 0.047827005 -0.014169743 0.015437055 -0.011587161 -0.18118356 -0.060350366 0.06521345
-0.062172715 -0.100632355 -0.061407693 -0.028741935 -0.20599623 -0.023263017 0.111543186 0.27318746
0.13734733 0.20335686 -0.28428152 0.0816663 -0.10301093 0.08405811 0.06301089 0.07750172
-0.067910366 -0.27079234 0.33892074 0.21564701 -0.20297115 -0.30053976 -0.0841472 -0.36335382
-0.05683988 0.08364736 0.28810725 0.09800761 -0.0371436 0.24461776 -0.18773067 0.027802985
0.46193248 -0.20682359 -0.13950877 -0.048224274 0.13398767 -0.2067908 -0.17719997 -0.3071842
-0.012127635 -0.24622905 0.077438675 0.08304072 0.18863595 -0.060056355 -0.3553278 -0.09404406
0.1892717 0.3960869 0.028102405 0.24262072 0.06293425 -0.10024819 -0.14883804 0.27704874
-0.019389763 -0.132285 0.24341555 0.06383951 -0.13999431 -0.30480194 0.023513202 0.21571846
-0.11137904 -0.13431129 0.13108261 0.096070714 -0.074009866 -0.12449045 0.15647319 0.089139394
0.19582258 0.25876796 -0.43399984 0.29908928 -0.13255829 -0.09310522 -0.11560518 0.209895
-0.25494212 -0.064677596 0.103268236 0.2995048 -0.081293516 -0.24519321 -0.21418634 -0.041318953
0.10261986 0.19694068 0.13246538 0.087881096 -0.13072027 0.11392106 -0.2329729 -0.17794052
0.4703013 -0.19039513 -0.054069065 -0.17867857 0.11717284 -0.27236983 -0.14400893 0.0074369814
-0.3166824 -0.15710302 -0.010842442 -0.016147943 0.0658851 -0.15164016 -0.43464527 -0.20686296
-0.27240267 -0.12950209 -0.28582904 0.12146963 0.36004642 -0.006824016 0.19966279 -0.35315654
-0.22437115 0.18803638 -0.09979757 -0.43735096 0.18175 0.25641078 -0.20169243 0.116150394
0.135136 0.03960639 0.25458428 -0.11219569 0.1973087 -0.025956769 -0.004734462 -0.25255826
-0.18454552 -0.11897642 0.03749143 -0.16352001 0.23457545 0.20672777 0.04214798 -0.09090388
0.20990175 0.17358966 -0.057047274 -0.22006747 0.052304897 -0.09660068 0.10808706 0.22296765
-0.15078013 -0.03371494 -0.023116155 -0.095933825 0.0037684038 -0.049819086 0.27259746 0.2880242
-0.2553415 0.33244234 0.25753692 0.0016131556 -0.20215926 -0.052166305 0.08697632 0.13235195
0.0793994 0.12157977 -0.15650377 0.13157664 -0.11823236 0.071262546 0.094317935 0.3592889
00000000: 8778 d9bd 96a1 a7bc 357f 86be 8c5c afbc
00000010: 61dd 52bc 9340 553e ca86 473e 2af7 e4be
00000020: c619 b53b b8d9 023e 22ad 28be 135d c6bc
00000030: 207b 8a3e 7bc5 333e b2cf d43a 9bea 52be
00000040: 0279 a6bd 7770 733e 1d4b d13d 9d4b 27be
00000050: 105c d33d 1334 33be c918 263d df90 44be
00000060: c505 5fbe a8b4 24be c0d8 a23d 9718 f9bd
00000070: 770a 813e 771f 253e e07f 133d 819b 9ebe
00000080: edbf 993c ebc0 3d3e 8c23 aebe da6e edbd
00000090: 5def 6d3e 8a6f 6a3e bf05 c03c 4be7 703e
000000a0: 831b 49bd d40a d0be cecc b7bd 7371 68bb
000000b0: 36e9 40bd 87e4 8cbe 93df a73e b877 1c3e
000000c0: 3fca 54be 439c 213d 2de0 4f3e 8c10 733d
000000d0: 971a 2bbe ee81 983e 4291 873e 83df 423e
000000e0: 935a 093d 6acd 343d 8d37 66be 333d 7fbd
000000f0: afe3 c0bd 0934 58bd 086d 003e b405 753e
00000100: 8ec4 9cbc 848c 703e 5963 7d3e edd5 9e3e
00000110: 69da 28be 8aed babd 30e6 5cbd 02d6 a53d
00000120: 6d2e 883e 40e6 433d 3628 68bc b4eb 7c3c
00000130: 13d8 3dbc 2f88 39be f231 77bd a18e 853d
00000140: d1a8 7ebd 5618 cebd a286 7bbd 3574 ebbc
00000150: adf0 52be 1592 bebc c170 e43d 3adf 8b3e
00000160: c7a4 0c3e c83c 503e 598d 91be a940 a73d
00000170: 65f7 d2bd a926 ac3d da0b 813d 39b9 9e3d
00000180: 9714 8bbd 4ba5 8abe 0587 ad3e 92d2 5c3e
00000190: abd7 4fbe 59e0 99be 5e55 acbd 8309 babe
000001a0: efd0 68bd 4f4f ab3d cb82 933e 37b8 c83d
000001b0: e323 18bd 147d 7a3e 783c 40be 16c3 e33c
000001c0: 6a82 ec3e 90c9 53be 63db 0ebe d186 45bd
000001d0: 1034 093e f8c0 53be e973 35be 3f47 9dbe
000001e0: fdb2 46bc 7823 7cbe 2b98 9e3d 4111 aa3d
000001f0: c829 413e a7fd 75bd 87ed b5be 2c9a c0bd
00000200: 71d0 413e e7cb ca3e 0437 e63c 9171 783e
00000210: ace3 803d ec4e cdbd 0069 18be 55d9 8d3e
00000220: 48d7 9ebc b875 07be ed41 793e 4abe 823d
00000230: ab5a 0fbe 000f 9cbe c29e c03c 4de5 5c3e
00000240: b21a e4bd e688 09be 853a 063e b9c0 c43d
00000250: 7c92 97bd d9f4 febd 823a 203e b78e b63d
00000260: b785 483e 3c7d 843e 3a35 debe 3b22 993e
00000270: 5cbd 07be f3ad bebd 69c2 ecbd b7ee 563e
00000280: c687 82be b075 84bd 4c7e d33d b158 993e
00000290: 377d a6bd ee13 7bbe aa53 5bbe 103e 29bd
000002a0: 5c2a d23d d1aa 493e 01a5 073e 01fb b33d
000002b0: 89db 05be 724f e93d 7390 6ebe 0a36 36be
000002c0: 55cb f03e f1f6 42be 8677 5dbd 84f7 36be
000002d0: 50f8 ef3d 0f74 8bbe 1477 13be ecb1 f33b
000002e0: 3224 a2be 9ddf 20be 7fa4 31bc b148 84bc
000002f0: c4ee 863d 8f47 1bbe d389 debe e2d3 53be
00000300: 5d78 8bbe 329c 04be 2f58 92be 12c5 f83d
00000310: 0158 b83e ff9b dfbb 6774 4c3e efd0 b4be
00000320: 8dc1 65be 9c8c 403e ab62 ccbd 77ec dfbe
00000330: ac1c 3a3e 4648 833e 7688 4ebe 42e0 ed3d
00000340: 1761 0a3e 4f3a 223d df58 823e dbc6 e5bd
00000350: 4b0b 4a3e 4aa3 d4bc 8c23 9bbb 514f 81be
00000360: 80f9 3cbe e9a9 f3bd 9d90 193d ca71 27be
00000370: 8c34 703e 72b0 533e 5ca3 2c3d d02b babd
00000380: 7cf0 563e 7dc1 313e 67aa 69bd 5e59 61be
00000390: a93d 563d 94d6 c5bd c05c dd3d a251 643e
000003a0: 1b66 1abe ad18 0abd 175e bdbc f478 c4bd
000003b0: 53f7 763b 190f 4cbd e591 8b3e e877 933e
000003c0: 1fbc 82be e235 aa3e e1db 833e 8570 d33a
000003d0: d602 4fbe 56ac 55bd a420 b23d 4587 073e
000003e0: 279c a23d d1fe f83d 8642 20be 07bc 063e
000003f0: cf23 f2bd 19f2 913d c329 c13d b7f4 b73e

bias f4 [64]
0.10739036 -0.1570932 -0.14597076 0.13736825 0.14223836 0.1446839 0.14462648 0.13371527
-0.1402838 0.15484478 -0.13746779 -0.1596529 0.16897683 0.14375705 0.1417873 -0.14526972
0.16788805 0.13309595 -0.13749284 -0.14314105 0.14949371 -0.13951015 -0.11789718 0.13956206
-0.13652226 0.12704968 0.005861166 -0.16070434 0.14006831 -0.14623496 -0.13463561 0.1520886
0.13096395 -0.14149791 -0.13347152 0.15701476 0.02592127 -0.15946706 -0.1472056 -0.13455209
-0.16145338 0.14176399 0.14075077 -0.13250628 -0.13947812 0.15468761 0.116291426 0.1490707
0.13828976 0.15044726 0.1659624 0.13417815 -0.15046848 -0.15363534 -0.15289938 0.13851857
-0.13624619 0.14292248 0.1355536 -0.16509737 -0.14975046 -0.14260311 -0.13759595 -0.16680291
00000000: 7aef db3d 0add 20be 5c79 15be 43aa 0c3e
00000010: efa6 113e 0428 143e f718 143e a8ec 083e
00000020: 8ea6 0fbe a18f 1e3e 5bc4 0cbe 0d7c 23be
00000030: 4308 2d3e 0c35 133e b130 113e 96c1 14be
00000040: d8ea 2b3e 4e4a 083e ecca 0cbe 9193 12be
00000050: e114 193e c0db 0ebe 1474 f1bd 5be9 0e3e
00000060: 7ecc 0bbe 5019 023e 060f c03b ae8f 24be
00000070: 116e 0f3e 9ebe 15be ebdd 09be 1dbd 1b3e
00000080: 6a1b 063e d4e4 10be c2ac 08be 7ac8 203e
00000090: d858 d43c 554b 23be 11bd 16be 06c8 09be
000000a0: 0954 25be 942a 113e f820 103e baaf 07be
000000b0: 5ad3 0ebe 6e66 1e3e 332a ee3d fda5 183e
000000c0: d59b 0d3e d90e 1a3e 0cf2 293e ff65 093e
000000d0: 6914 1abe 9552 1dbe a891 1cbe d0d7 0d3e
000000e0: 1f84 0bbe 455a 123e 90ce 0a3e 490f 29be
000000f0: 2f58 19be 8d06 12be f4e5 0cbe 62ce 2abe

weight f4 [1, 64]
-0.18756554 0.30199844 0.25327656 -0.27630112 -0.2547458 -0.2735331 -0.29117158 -0.40478286
0.28916302 -0.33470166 0.4285743 0.1773149 -0.24870744 -0.19783863 -0.2668387 0.25222987
-0.2457099 -0.3421822 0.29452282 0.3425818 -0.33615178 0.42804933 0.32991642 -0.25522685
0.3703538 -0.23377591 0.9943507 0.3876535 -0.22843388 0.33109686 0.40666398 -0.27372885
0.39261547 0.37563464 0.3598542 -0.3893744 -4.0815406 0.25251356 0.25483236 0.4228887
0.21263616 -0.35775015 -0.47037455 0.35629296 0.34146523 -0.23432678 -0.35566106 -0.20334934
-0.32530224 -0.23153824 -0.2620389 -0.2814726 0.3551186 0.43199065 0.2571278 -0.26562703
0.19444093 -0.276206 -0.2685289 0.24840054 0.2844962 0.29783908 0.23160994 0.26756164
00000000: 2e11 40be 8a9f 9a3e 77ad 813e 5777 8dbe
00000010: 0b6e 82be 880c 8cbe 7114 95be b33f cfbe
00000020: 2d0d 943e 045e abbe 176e db3e 0a92 353e
00000030: 2aad 7ebe 3696 4abe 159f 88be 4624 813e
00000040: 609b 7bbe 8132 afbe b2cb 963e e266 af3e
00000050: 161c acbe 4829 db3e ceea a83e 18ad 82be
00000060: 039f bd3e f462 6fbe c48d 7e3f 857a c63e
00000070: 92ea 69be 8785 a93e 4336 d03e 3026 8cbe
00000080: e504 c93e 2f53 c03e cf3e b83e 155c c7be
00000090: fb9b 82c0 7549 813e 6379 823e de84 d83e
000000a0: 4bbd 593e 072b b7be efd4 f0be 086c b63e
000000b0: 88d4 ae3e 5cf3 6fbe 3519 b6be cf3a 50be
000000c0: 048e a6be 5c18 6dbe f629 86be 2d1d 90be
000000d0: 1bd2 b53e e12d dd3e 41a6 833e 4400 88be
000000e0: 861b 473e df6a 8dbe 9f7c 89be b65c 7e3e
000000f0: 7ca9 913e 5d7e 983e 282b 6d3e d7fd 883e
