dir_save_test_BC/we0_critic_final.pth (torch, 19544 bytes, 4 tensors)

0.weight f4 [64, 2]
0	0x3f18f736	0.59752214
1	0x41343578	11.263054
2	0x3f207792	0.6268245
3	0x411d8472	9.844835
4	0x3f21ccd6	0.6320318
5	0x41275960	10.45932
6	0x3e74b677	0.2389773
7	0x3fef8316	1.8711879
8	0xbe8ca383	-0.274685
9	0x40751177	3.829191
10	0xbe72d289	-0.23713125
11	0xbfe2d3c9	-1.7720882
12	0xbe9cafc1	-0.3060284
13	0x40363549	2.8470023
14	0x3f27b3a7	0.655085
15	0x41293131	10.57451
16	0x3e4871cb	0.19574659
17	0x3fb8a977	1.4426717
18	0xbe9196ef	-0.28435466
19	0xbf9c7129	-1.2222034
20	0xbeadad73	-0.33921394
21	0x4118c7c0	9.548767
22	0x3e3c4144	0.18384272
23	0x402239fe	2.5347896
24	0xbe10e99d	-0.14151616
25	0x40487f58	3.1327724
26	0xbf0973aa	-0.53692114
27	0xc12e8d1a	-10.909449
28	0xbe83a6f8	-0.25713325
29	0x4077f802	3.8745122
30	0xbe61d9bc	-0.22055715
31	0xc115a58f	-9.35292
32	0xbe5fd096	-0.21856913
33	0xc0000b89	-2.000704
34	0xbeeff926	-0.46869773
35	0xc12d3c32	-10.827196
36	0xbe882c74	-0.26596415
37	0xbf82db9c	-1.022327
38	0x3e47e7af	0.19521974
39	0x3ff269de	1.8938558
40	0xbe0c6a31	-0.13712384
41	0xc18f5d96	-17.920696
42	0x3dd3e8f2	0.10347165
43	0xc0790b66	-3.8913207
44	0x3d026be7	0.031841185
45	0xc0a60b29	-5.1888623
46	0xbdb9bc7e	-0.09069155
47	0x4047f3f1	3.124264
48	0xbe9d8b4d	-0.3077034
49	0x41236a23	10.213412
50	0x3dc1d236	0.09463923
51	0x41079c31	8.475633
52	0x3ea984fd	0.33109275
53	0x411cdbab	9.80363
54	0x3e4173bc	0.18891805
55	0x410932ee	8.574934
56	0x3d49cda8	0.049268395
57	0x4113f066	9.246191
58	0xbe655b67	-0.22398148
59	0xc00e63c7	-2.22484
60	0x3f03023a	0.5117527
61	0x412ba1a8	10.726967
62	0x3f04f295	0.5193265
63	0x41209428	10.036171
64	0xbe65a057	-0.22424446
65	0xc11c59e8	-9.77195
66	0xbf6151bc	-0.8801534
67	0xc0fb65e1	-7.8561864
68	0xbf01f5b8	-0.5076556
69	0xc09be9d8	-4.8722954
70	0xba9b9924	-0.0011871201
71	0x41868a7a	16.817616
72	0xbe0ad138	-0.13556373
73	0x40984ae5	4.7591424
74	0xbf04bc12	-0.5184947
75	0xc116a648	-9.415596
76	0xbe871a2a	-0.2638715
77	0x4065f9aa	3.5933633
78	0x3e099d00	0.13438797
79	0xc07d1828	-3.9545994
80	0xbe66ad9e	-0.22527167
81	0x406eb764	3.7299433
82	0xbe8df15d	-0.27723208
83	0x4071b028	3.7763767
84	0xbf1b023f	-0.605503
85	0xc0ec1647	-7.3777194
86	0x3e3d5098	0.18487775
87	0x407c2068	3.939478
88	0x3e702274	0.23450643
89	0x4111fd30	9.124313
90	0x3e5d31ca	0.21601024
91	0x3fc6216c	1.547895
92	0xbe8fc2ac	-0.2807821
93	0xbfd13458	-1.6344099
94	0xbe3182db	-0.17335074
95	0xbfecdfe2	-1.8505824
96	0x3e811365	0.2521011
97	0x3fad8f88	1.3559427
98	0xbf1cbed8	-0.61228704
99	0xc10cc2dc	-8.797573
100	0xbde24847	-0.11048942
101	0x4066ba9d	3.60514
102	0xbf00f7d4	-0.50378156
103	0xc129e970	-10.619492
104	0xbdc03d7e	-0.09386729
105	0x405bedc0	3.436386
106	0xbe96d44c	-0.29458845
107	0xc10b6b13	-8.713641
108	0x3ede5f91	0.43432286
109	0xc110dbcf	-9.053664
110	0xbe4e5b02	-0.20151904
111	0xc01de92a	-2.4673562
112	0xbeb16c1f	-0.34652802
113	0x411a3b6c	9.639507
114	0xbeca9329	-0.395654
115	0x405d652e	3.4593005
116	0x4038fc15	2.8903859
117	0x3ec686ca	0.3877471
118	0x3e97e041	0.2966328
119	0x3f93117f	1.1489714
120	0xbf065a3e	-0.5248145
121	0x3fda1663	1.7038082
122	0x3e80051d	0.250039
123	0x3fc584d9	1.5431167
124	0xbe605fcd	-0.21911545
125	0x404ec618	3.2308407
126	0xbe2cd20a	-0.16876999
127	0x3f34af18	0.7057967

0.bias f4 [64]
0	0x3fd147b1	1.6350003
1	0x3fdf977b	1.7468103
2	0x3fe42dd9	1.7826492
3	0xbfa7fef4	-1.312468
4	0x3f3e96c7	0.7444882
5	0x3fb0cc5b	1.3812364
6	0x3f8d5dbc	1.104423
7	0x3fede4c2	1.8585436
8	0xbfa1b722	-1.2634013
9	0x3fc437d3	1.5329536
10	0xc0121de9	-2.2830756
11	0xbf33019c	-0.6992433
12	0x3f6a680b	0.91565007
13	0xbfbc837b	-1.4727625
14	0x3f2e7027	0.6813988
15	0xbf49a180	-0.78762054
16	0x3f9c4c50	1.2210789
17	0xbf98d1e7	-1.1939057
18	0x3fcca418	1.5987577
19	0xbf813393	-1.0093864
20	0xbfe8c8a8	-1.8186235
21	0xbf285781	-0.6575852
22	0xbb7356ce	-0.0037130597
23	0x3f804bf4	1.0023179
24	0xbf40b9de	-0.7528361
25	0x3f25cd5e	0.6476649
26	0x3f7ec2d3	0.9951603
27	0x3f088d7e	0.533409
28	0xbd912ca3	-0.07088592
29	0x3fac1c7f	1.3446196
30	0x3fa5fe98	1.2968321
31	0x3faa1d1d	1.3290135
32	0xbf670bc5	-0.90252334
33	0x3f87e0e0	1.0615501
34	0xc02491de	-2.571403
35	0x3f9c0ced	1.2191445
36	0x3e922652	0.2854486
37	0xbfb36d1a	-1.401767
38	0x3f38cf04	0.7219088
39	0xbf27d7f1	-0.65563875
40	0x3f151026	0.58227766
41	0x3f43b8ab	0.76453656
42	0xbfdf7d4e	-1.7460115
43	0xbf62dec2	-0.8862115
44	0x3f99e0c2	1.2021716
45	0xbfb0268c	-1.3761764
46	0x3fe4d483	1.7877353
47	0x3f68f1fc	0.9099424
48	0xbfbd1d53	-1.4774574
49	0xbfe1e481	-1.7647859
50	0x3f46501c	0.7746599
51	0xbfa48d4e	-1.2855623
52	0x3f84bed2	1.0370734
53	0xbfd0ce20	-1.6312904
54	0x3ffe0c2e	1.9847467
55	0x3f838591	1.0275136
56	0xc015ca32	-2.340466
57	0xbd1f7602	-0.0389309
58	0xc087168d	-4.221503
59	0xbfd19f06	-1.6376655
60	0xc00c770d	-2.1947663
61	0xbfaf03c5	-1.3673025
62	0x3f6627dc	0.8990457
63	0x3f915dc5	1.1356741

2.weight f4 [64, 64]
0	0x3dfaa816	0.12239091
1	0x3e292995	0.16519769
2	0xbd8ae242	-0.067814365
3	0xbde4c468	-0.11170274
4	0x3f02c274	0.5107796
5	0x3e9778dc	0.29584396
6	0x3f19a222	0.6001302
7	0xbe63aae1	-0.22233154
8	0xbdfee3b1	-0.124457724
9	0x3e870955	0.26374307
10	0xbf0e0a72	-0.5548469
11	0xbd5d2e74	-0.05399938
12	0x3f813f6f	1.0097483
13	0xbd0c8692	-0.034308024
14	0x3f120d6b	0.57051724
15	0xbed7f144	-0.4217626
16	0xbc8cb938	-0.017178163
17	0x3d2951d3	0.0413378
18	0x3e36601f	0.17810105
19	0xbe63ad89	-0.22234167
20	0xbeae1bff	-0.34005734
21	0xbf4e28e6	-0.80531156
22	0xbe557476	-0.20845208
23	0x3f49ba29	0.7879968
24	0xbe5a2115	-0.21301682
25	0x3d9048b3	0.07045116
26	0x3e9f44d2	0.31107193
27	0x3da130c5	0.0787063
28	0x3ee40e4f	0.44542167
29	0x3e708837	0.23489462
30	0x3e44db48	0.19224274
31	0xbdff5f28	-0.124693215
32	0xbe3789b6	-0.17923626
33	0x3e1667af	0.1468799
34	0xbf037821	-0.5135518
35	0x3eb3d0d5	0.35120264
36	0x3eb02b27	0.34407923
37	0x3d96a9a8	0.07356578
38	0x3f2b2dee	0.6686696
39	0xbe790d73	-0.24321537
40	0x3f383ca5	0.71967536
41	0x3efd7417	0.49502632
42	0xbd5d29ca	-0.05399493
43	0x3d16adc1	0.0367868
44	0x3e7326f3	0.23745327
45	0xbec676a2	-0.38762385
46	0x3ecbf596	0.39835805
47	0x3e8dcde1	0.27696136
48	0xbea45f56	-0.32103986
49	0xbdbea909	-0.09309585
50	0x3f311753	0.69176215
51	0xbe12f181	-0.14349939
52	0x3f41519a	0.7551514
53	0x3e0d4f1a	0.13799706
54	0x3f15fef0	0.5859213
55	0x3e85736a	0.26064616
56	0xbf5d636a	-0.8647982
57	0x3dbb48c6	0.0914474
58	0xbda03ba1	-0.07823873
59	0xbe6d60e1	-0.23181488
60	0xbea5a402	-0.3235169
61	0xbe37812b	-0.17920367
62	0x3f20f10e	0.6286782
63	0x3f38c495	0.7217496
64	0xbde6a759	-0.11262388
65	0x3de8318a	0.11337574
66	0x3e0bf806	0.13668832
67	0xbd360ef6	-0.04444786
68	0x3f1c360a	0.6101996
69	0x3e871df7	0.2639005
70	0x3f19fca7	0.6015114
71	0xbc098e20	-0.008395702
72	0xbdde8560	-0.10865283
73	0x3ecf98a4	0.40546143
74	0xbf3c5045	-0.7355998
75	0xbe859d93	-0.26096782
76	0x3f7f6b96	0.9977354
77	0xbda57ab8	-0.08080047
78	0x3e3fe6d5	0.18740399
79	0xbeb76b84	-0.35824215
80	0x3e887c71	0.2665744
81	0x3c7c02d6	0.0153815355
82	0x3e9a0c0f	0.30087325
83	0xbeacf434	-0.33780062
84	0xbeadb2da	-0.33925515
85	0xbef03585	-0.46915832
86	0xbe9bbbce	-0.3041672
87	0x3f88663f	1.0656203
88	0xbe4426c8	-0.19155419
89	0x3dcc2bfb	0.09969326
90	0x3e3d2a17	0.18473087
91	0xbcc153ac	-0.023599468
92	0x3ea5522c	0.32289255
93	0x3ed2f9ab	0.41206107
94	0x3ee8679f	0.45391557
95	0xbd287701	-0.041129116
96	0x3d9db083	0.076996826
97	0xbcf06b6c	-0.029348098
98	0xbe275b09	-0.16343321
99	0x3ea6db17	0.32589027
100	0x3e4e0f2f	0.2012298
101	0xbe370b03	-0.17875294
102	0x3f48e63b	0.78476304
103	0xbf0e6292	-0.55619156
104	0x3ee85d3a	0.45383626
105	0x3f23a500	0.63923645
106	0xbc2d3c1e	-0.010573415
107	0xbe2e3184	-0.17011076
108	0x3ed64dac	0.41856134
109	0xbdfac3be	-0.12244366
110	0x3e39cb0f	0.18143867
111	0x3ec8df1b	0.39232716
112	0x3db8d825	0.09025601
113	0xbdb83689	-0.08994777
114	0x3f12562f	0.57162756
115	0x3d8e9825	0.06962613
116	0x3f3fca08	0.7491765
117	0xbdd811d3	-0.10550275
118	0x3efe9fa4	0.4973117
119	0x3ceb1bf9	0.028699862
120	0xbf1fbd98	-0.6239867
121	0x3d503c18	0.05083856
122	0xbd992691	-0.07478059
123	0xbe977984	-0.29584897
124	0xbec8428d	-0.39113274
125	0xbed83597	-0.42228386
126	0x3ecd32ec	0.40077913
127	0x3f24835f	0.64262956
128	0x3d54d232	0.05195827
129	0x3e642421	0.22279407
130	0xbe020961	-0.1269889
131	0xbe0cca7d	-0.13749118
132	0x3f626e43	0.88449496
133	0x3e8fd527	0.2809231
134	0x3f0838b2	0.5321151
135	0x3e172baa	0.1476275
136	0xbed9dc3d	-0.4255084
137	0x3e7dbdf3	0.24779491
138	0xbee67030	-0.45007467
139	0xbe8080bc	-0.25098217
140	0x3f3fb882	0.7489091
141	0xbe281854	-0.1641553
142	0x3e96b01a	0.2943123
143	0xbea307c6	-0.31841868
144	0x3e7d9470	0.24763656
145	0x3d2bf63a	0.041982867
146	0x3f058fc1	0.52172476
147	0xbe7d8fa1	-0.24761821
148	0xbe2a7269	-0.16645207
149	0xbf128ecf	-0.5724916
150	0xbebb9de3	-0.36643896
151	0x3f4300d3	0.7617313
152	0xbe37bb59	-0.17942561
153	0x3df22043	0.1182256
154	0x3ddd736e	0.10813032
155	0x3e0ba077	0.13635431
156	0x3ed2e229	0.41188172
157	0x3e83db64	0.2575332
158	0x3eb39fec	0.35082948
159	0x3d076e77	0.03306433
160	0xbd94cf02	-0.07266046
161	0x3e511af5	0.2042044
162	0xbecab4ba	-0.39591008
163	0x3ec00971	0.37507203
164	0x3ed18c77	0.4092748
165	0xbdbe056d	-0.09278379
166	0x3f22305b	0.63355035
167	0xbe890a1a	-0.2676552
168	0x3f2a9aaa	0.6664225
169	0x3f473cbf	0.77827066
170	0xbe7bb6c8	-0.24581444
171	0xbe60637c	-0.2191295
172	0x3ec8fd9d	0.39255992
173	0xbe8faae6	-0.28060073
174	0x3e27867b	0.16359894
175	0x3e60c564	0.21950299
176	0x3d98d541	0.0746255
177	0xbd115f5e	-0.03549134
178	0x3f348131	0.7050963
179	0xbc358f33	-0.011081505
180	0x3f3ca3da	0.7368752
181	0xbde3151f	-0.11088013
182	0x3efb1310	0.4903798
183	0x3ebdcfd9	0.37072638
184	0xbf7b03d9	-0.98052746
185	0x3d1609ea	0.03663055
186	0xbe5af16c	-0.21381158
187	0xbed26433	-0.4109207
188	0xbf00784a	-0.50183547
189	0xbf0baad6	-0.5455755
190	0x3ebc9169	0.3682969
191	0x3f0da2d6	0.5532659
192	0xc0071567	-2.1106813
193	0xbf91f966	-1.1404235
194	0xbff4672b	-1.9093984
195	0x3e673bf5	0.22581466
196	0xbe44964a	-0.19197956
197	0xbe0729d7	-0.13199554
198	0x3b2512c7	0.0025188194
199	0xbfb6c104	-1.4277654
200	0xbe005106	-0.12530908
201	0x3dbd5403	0.092445396
202	0xc072106b	-3.782252
203	0xbec5d053	-0.386355
204	0xbf2dc5bf	-0.6787986
205	0x400c37ef	2.190914
206	0xbefe994f	-0.4972634
207	0x40791369	3.8918097
208	0x3cafe9ec	0.021473847
209	0x3fbe774c	1.4880157
210	0x3e1bf6f0	0.15230918
211	0xbb3852a2	-0.0028125425
212	0x3f3b922a	0.73269904
213	0x3f1e69fa	0.6188046
214	0x3fac54ba	1.3463356
215	0xbf610652	-0.8790027
216	0xc06ebecb	-3.730395
217	0xbfcee997	-1.6165036
218	0xc02b039b	-2.672095
219	0xc054cd12	-3.3250165
220	0xc0809300	-4.0179443
221	0x3def0a8a	0.11671932
222	0xc02c38ae	-2.6909595
223	0xbfa46ec2	-1.2846301
224	0x406fa4b6	3.7444282
225	0x4053d12c	3.3096418
226	0x3f047116	0.51735055
227	0xbf830d28	-1.023839
228	0xbf4d3a00	-0.80166626
229	0x3f6e56a7	0.9310097
230	0xbf28d625	-0.6595176
231	0x3f3dd432	0.7415191
232	0xbf2f24a0	-0.6841526
233	0xbe98757c	-0.29777133
234	0x3f72673a	0.9468876
235	0xbdf509d3	-0.119647644
236	0xc05893d3	-3.3840225
237	0x3d65272a	0.055945553
238	0x3e2fef8d	0.17181225
239	0x3e6cdd65	0.2313133
240	0xbe136d3a	-0.14397135
241	0x3f9c3f80	1.2206879
242	0xbf31bc26	-0.69427717
243	0x3fe2bdfa	1.7714226
244	0xbf1f75f2	-0.62289345
245	0x3fb7f5ef	1.4371928
246	0x40987ffb	4.7656226
247	0x3dae1caf	0.08501565
248	0xc097f99d	-4.7492204
249	0xbf3a9fde	-0.7290019
250	0xbde4820a	-0.111576155
251	0x3e3f6383	0.18690304
252	0xbfa647fb	-1.2990717
253	0x3e2ab021	0.1666875
254	0xbeefbeec	-0.4682535
255	0x3e529e20	0.20568132

2.bias f4 [64]
0	0x3f713294	0.942178
1	0x3f610b86	0.8790821
2	0x3f59d207	0.850861
3	0xbef8ab6b	-0.48568282
4	0xbf7c5763	-0.9857084
5	0xbedcd008	-0.43127465
6	0xbf0b5837	-0.5443148
7	0xbf506769	-0.8140779
8	0x3f5a6c14	0.85321164
9	0xbf453e97	-0.7704863
10	0x3f512171	0.8169165
11	0x3ed98bb3	0.42489395
12	0xbf6cb329	-0.92460877
13	0xbf76dfd6	-0.96435297
14	0xbf6c46e8	-0.92295694
15	0x3f4a71ed	0.79080087
16	0xbf912fb3	-1.1342682
17	0x3e4e5136	0.20148167
18	0x3e6cd773	0.23129062
19	0x3f48ad5c	0.78389525
20	0xbf4e6a53	-0.8063099
21	0x3f4b6904	0.79457116
22	0x3f443a9f	0.7665195
23	0xbf61a6fb	-0.88145417
24	0x3f58e623	0.8472616
25	0x3ec26786	0.37969607
26	0x3f4ea59c	0.8072145
27	0xbddc7078	-0.10763639
28	0x3eb381c8	0.35059953
29	0x3f405220	0.7512531
30	0x3f330d90	0.6994257
31	0xbf629f89	-0.8852468
32	0x3e83ebad	0.25765744
33	0x3f4b6a26	0.79458845
34	0x3ed622c2	0.41823393
35	0xbf549a8a	-0.8304831
36	0xbf145865	-0.5794738
37	0x3f6f55be	0.9349021
38	0xbe36c20c	-0.1784746
39	0x3f3e8732	0.7442504
40	0x3e2bcc5b	0.16777174
41	0xbf4f9df2	-0.8110038
42	0xbf40c77c	-0.7530439
43	0x3f5400b0	0.8281355
44	0x3f72e3df	0.94878954
45	0xbf6c31e0	-0.92263603
46	0xbed327c9	-0.4124129
47	0xbf899de2	-1.0751307
48	0xbf547955	-0.8299764
49	0xbd9f636f	-0.07782637
50	0xbf5a9ac6	-0.85392416
51	0xbf41eb3f	-0.7574958
52	0x3f4d3346	0.8015636
53	0x3f524388	0.82134295
54	0x3f5d0116	0.8632978
55	0xbf6e3dae	-0.93062866
56	0xbfb13ee2	-1.3847315
57	0xbef4bf4c	-0.47802198
58	0xbf6bebc7	-0.9215664
59	0x3f54fe5a	0.8320061
60	0x3ea85e81	0.328846
61	0x3f6194f8	0.88117933
62	0xbda55a6d	-0.08073888
63	0x3eac7f15	0.33690706
