dir_save_test_BC/we0_actor_330.pth (torch, 19520 bytes, 4 tensors)

0.weight f4 [64, 2]
0	0xbe2396eb	-0.1597554
1	0x3f0b8ae6	0.5450882
2	0x3efea5d3	0.4973589
3	0x3f9326be	1.1496198
4	0x3b8eba3d	0.0043556974
5	0x409d9b2b	4.9251914
6	0xbd966d43	-0.07345059
7	0x40761fba	3.8456864
8	0x3bedea31	0.007260584
9	0xc08eb8c4	-4.4600544
10	0x3dc7d73f	0.09757852
11	0x40499eb0	3.1503105
12	0x3da2bdff	0.07946395
13	0xbfd14cf4	-1.6351609
14	0xbdc9dbbd	-0.09856365
15	0xbf2bf976	-0.6717752
16	0x3f073a4b	0.52823323
17	0xbd2aa9f8	-0.041666
18	0x3d9bbe7b	0.07604691
19	0x4025dbf5	2.59155
20	0xbee8f93a	-0.45502645
21	0xbf28dee3	-0.659651
22	0x3bed1f6b	0.0072364113
23	0xc08430fe	-4.1309805
24	0x3ebe122b	0.37123236
25	0xbe503373	-0.20332126
26	0xbd976c59	-0.073937126
27	0x3fd87fa6	1.6913955
28	0x3ef2fd28	0.47458768
29	0xbe95f195	-0.29285875
30	0xbdf57210	-0.11984646
31	0xbef4bbcc	-0.47799528
32	0xbaa67f27	-0.0012702689
33	0x40983557	4.756511
34	0x3ec95379	0.39321497
35	0x3f71f6b1	0.94517046
36	0xbc48e5ca	-0.012261817
37	0x40a5dfca	5.183568
38	0x3c0d9441	0.0086413035
39	0xc08bc45a	-4.3677187
40	0xbc63ef84	-0.013912085
41	0xc09a88b6	-4.8291883
42	0xbd3c9a9f	-0.046045896
43	0x4066bebd	3.6053917
44	0xbf290e6c	-0.6603763
45	0x3ed59e74	0.41722453
46	0x3dd36fb0	0.10324037
47	0xbfc9ac4a	-1.5755703
48	0xbe032a74	-0.12809163
49	0xc01519c4	-2.3296976
50	0x3d0946c0	0.033514738
51	0xc0851499	-4.1587644
52	0x3e197ba7	0.14988576
53	0xbfaaffa5	-1.3359267
54	0x3ec88cb7	0.39169857
55	0xbdd65629	-0.104656525
56	0xba566b45	-0.00081794366
57	0x40852014	4.160166
58	0x3f20844f	0.62701887
59	0xbf052e05	-0.52023345
60	0xbf1b53f0	-0.60674953
61	0x3f3b9824	0.73279023
62	0x3f10aa27	0.5650963
63	0x3ec5c849	0.38629368
64	0x3c6474a2	0.013943823
65	0xc08a72f7	-4.326534
66	0xbf41aa48	-0.75650454
67	0xbedba944	-0.42902577
68	0x3dc091d0	0.094028115
69	0xc04449f1	-3.067013
70	0xbec19862	-0.3781157
71	0xbf4b3ed8	-0.79392767
72	0xbcf35be9	-0.029706912
73	0x40837946	4.108554
74	0x3e0e0b86	0.13871583
75	0x3eb97a88	0.36226296
76	0xbd68048b	-0.056644958
77	0xc07b4814	-3.9262743
78	0x3e064b68	0.13114703
79	0x3ec0a208	0.3762362
80	0xba3906a2	-0.00070581783
81	0x408fb0cb	4.490331
82	0x3eb3a020	0.35083103
83	0x3e9cd922	0.3063441
84	0xbedb0784	-0.4277917
85	0x3ec17eb1	0.3779197
86	0xbd1c475a	-0.038153984
87	0xc0d07377	-6.514095
88	0xbd02c3a3	-0.031924855
89	0x407d2375	3.9552891
90	0x3df82112	0.12115683
91	0x3f2fc57e	0.68660724
92	0xbf239d3f	-0.63911813
93	0xbe830aef	-0.2559428
94	0xbe0bb764	-0.13644177
95	0x3e987fa8	0.29784894
96	0x3e83d1b3	0.25745925
97	0x3ef5a571	0.47977784
98	0x3c0cda33	0.008596945
99	0xc08ab72b	-4.3348594
100	0x3c8360f8	0.01603745
101	0xc08dbd6c	-4.429373
102	0xbcb5fd32	-0.02221546
103	0xc084bfc5	-4.1484094
104	0x3d2462f9	0.04013345
105	0x3f803079	1.0014793
106	0xbbe3717c	-0.0069410186
107	0x4095fe8b	4.687322
108	0x3e5559a0	0.2083497
109	0xbfa9a28e	-1.3252733
110	0x3eb9eab8	0.3631189
111	0xbf3c08b4	-0.7345078
112	0x3daa5392	0.08316721
113	0xbf500e2d	-0.8127163
114	0xbda57456	-0.0807883
115	0x404e02ae	3.2189136
116	0x3c88c084	0.016693361
117	0xc07cbb16	-3.9489188
118	0xbc01e763	-0.007928702
119	0xc093cce7	-4.6187625
120	0xbec4ce69	-0.38438728
121	0x3f1224a6	0.5708717
122	0xbea5770a	-0.32317382
123	0xc011b803	-2.2768562
124	0x3eb86871	0.36017182
125	0xc002a701	-2.041443
126	0x3debe420	0.11518121
127	0xbf732ad3	-0.9498722

0.bias f4 [64]
0	0xbe944b4c	-0.28963697
1	0x3ebc8b18	0.3682487
2	0xbb6fb2d3	-0.0036575093
3	0xbead99ed	-0.339065
4	0xbd450031	-0.048095886
5	0xbc00b514	-0.007855672
6	0x3e6bd78f	0.23031448
7	0xbe136919	-0.1439556
8	0x3ef50df0	0.47862196
9	0xbca7843e	-0.0204488
10	0xbeff47bf	-0.49859425
11	0x3d83f903	0.064439796
12	0x3ec52582	0.3850518
13	0xbe35b66d	-0.17745371
14	0x3f391f8d	0.7231377
15	0xbe6b051e	-0.22951171
16	0xbd64832a	-0.05578915
17	0x3e8a6408	0.27029443
18	0xbd24b815	-0.040214617
19	0x3d591b72	0.05300469
20	0xbd47dd60	-0.048795104
21	0xbe92d341	-0.286768
22	0x3e8d2369	0.27566078
23	0x3e725f91	0.23669268
24	0xbe66f1eb	-0.22553222
25	0x3d6a2313	0.057162356
26	0x3f077196	0.52907693
27	0x3ee9214a	0.4553321
28	0xbca3a64d	-0.01997676
29	0x3e3b3e4a	0.1828548
30	0xbdcc34c1	-0.099709995
31	0x3ec713ed	0.3888239
32	0xbd09f8df	-0.033684608
33	0x3c789965	0.015173291
34	0x3ea5d2f1	0.32387498
35	0xbebfaa0d	-0.37434426
36	0xbd1fb8d5	-0.03899463
37	0x3e661bc9	0.22471537
38	0x3c7434ac	0.014905136
39	0x3e9a8ebe	0.3018703
40	0xbe002e7c	-0.12517732
41	0x3e84481d	0.25836268
42	0xbee5c3c4	-0.4487592
43	0xbd485c3d	-0.04891609
44	0xbce99fa8	-0.028518513
45	0x3e7931dc	0.24335426
46	0xbe3e4ac5	-0.1858321
47	0xbeb32147	-0.34986326
48	0x3e378467	0.17921601
49	0x3c32bcf4	0.010909308
50	0xbd013f91	-0.031554762
51	0x3d16c901	0.036812786
52	0xbc8ec3fd	-0.017427439
53	0xbe3033c1	-0.17207243
54	0x3e9b285b	0.30304226
55	0x3e8cee70	0.27525663
56	0x3e437255	0.19086583
57	0xbe8efda5	-0.2792789
58	0x3dcaec5e	0.09908365
59	0xbc57de8c	-0.013175618
60	0xbef9d074	-0.4879185
61	0xbdf88f2a	-0.121366814
62	0x3eabfa94	0.33589613
63	0x3e9c5b07	0.30538198

2.weight f4 [64, 64]
0	0xbd07f54a	-0.03319291
1	0x3db1e363	0.08685949
2	0x3d968d7c	0.07351205
3	0xbe086c1d	-0.13322492
4	0x3dcb69b6	0.09932272
5	0x3e398ee6	0.18120918
6	0xbd51fa1e	-0.05126392
7	0x3d8267a1	0.06367422
8	0xbe01f2ba	-0.12690249
9	0x3c3e8d2d	0.011630339
10	0xbdd747e8	-0.10511762
11	0x3c9630f7	0.018333895
12	0xbe0e01db	-0.13867895
13	0xbe0ef5b6	-0.13960919
14	0xbcab456f	-0.020907132
15	0xbda061e5	-0.07831172
16	0x3c71f983	0.014768961
17	0x3e6f338e	0.2335951
18	0x3e3dc8a6	0.18533573
19	0xbd99095b	-0.074724875
20	0xbd056e9c	-0.03257619
21	0xbe24d7dc	-0.16097969
22	0x3e010970	0.12601256
23	0x3e36e162	0.17859414
24	0xbd148fd7	-0.03626999
25	0x3e089b34	0.13340455
26	0xbc3dae7b	-0.011577244
27	0xbdfc8df2	-0.123317614
28	0xbe87228d	-0.26393548
29	0xbd29bae3	-0.041437995
30	0xbe929c8e	-0.28635067
31	0xbc1aa853	-0.009439546
32	0xbe0c4268	-0.13697207
33	0xbda2eb34	-0.07955018
34	0x3eb1b888	0.347111
35	0x3d8dc4d9	0.06922311
36	0xbd066b5e	-0.032817237
37	0x3da97506	0.082742736
38	0xbc421ce6	-0.01184771
39	0xbdfaa3cc	-0.12238273
40	0xbcffc7f9	-0.031223284
41	0x3d0f5627	0.03499427
42	0xbde2ea20	-0.11079812
43	0xbe25b6e5	-0.1618305
44	0xbdeba186	-0.115054175
45	0xbe38f7f1	-0.18063332
46	0x3e53636e	0.20643398
47	0xbbcf4a7d	-0.0063260184
48	0xbd99e54b	-0.07514437
49	0xbdfc2907	-0.12312513
50	0xbc3ef207	-0.0116543835
51	0x3d677e27	0.056516793
52	0xbc6695da	-0.014073813
53	0x3d2906ac	0.04126613
54	0xbe32f18b	-0.17474954
55	0x3e2f3f09	0.1711389
56	0xbde7cb40	-0.11318064
57	0x3e1aad5a	0.15105191
58	0x3d613307	0.054980304
59	0xbbf0208a	-0.0073280977
60	0xbc237edd	-0.009978977
61	0x3e7d48a9	0.24734749
62	0xbc939cbf	-0.018019078
63	0xbe2fee33	-0.1718071
64	0xbbcdd71c	-0.0062817466
65	0xbd9162eb	-0.07098945
66	0xbcd0d7dc	-0.025493555
67	0x3d623f9e	0.05523645
68	0x3e823810	0.25433397
69	0x3a96e134	0.0011511208
70	0xbe7c7073	-0.24652271
71	0x3d25bde6	0.040464304
72	0x3cef79e9	0.029232936
73	0x3e711cc9	0.23546137
74	0x3c258afe	0.010103939
75	0x3d251c61	0.040310267
76	0x3dce4a0f	0.10072719
77	0x3e2c74a8	0.16841376
78	0xbcacc13d	-0.021088237
79	0x3db7aca2	0.08968474
80	0xbd7d5426	-0.06184783
81	0x3e59249f	0.21205376
82	0xbe3a62eb	-0.18201797
83	0xbe040221	-0.12891437
84	0xbc64f0d4	-0.0139734335
85	0x3caaec7f	0.020864723
86	0x3df6d28d	0.12051878
87	0xbe2e5b5f	-0.17027043
88	0x3cda94c9	0.026682274
89	0x3e736820	0.2377019
90	0x3e94a49c	0.29031837
91	0x3da31b57	0.07964199
92	0xbe103cd7	-0.14085709
93	0x3d7f12c1	0.062273744
94	0xbe14c451	-0.14528014
95	0xbdf81f69	-0.12115366
96	0x3e42b7d4	0.19015437
97	0x3cc19e21	0.023634972
98	0xbebd365d	-0.36955538
99	0x3de8ef25	0.11373738
100	0x3dc49032	0.095978156
101	0x3c43f8f6	0.011961212
102	0xbd5c76f2	-0.053824373
103	0x3c8546f2	0.01626918
104	0x3e26d11c	0.16290706
105	0x3ceb099f	0.028691111
106	0x3e539da2	0.20665601
107	0xbe2a2757	-0.1661657
108	0xbe2302d3	-0.15919046
109	0xbd50d783	-0.050986778
110	0x3ce10703	0.027469164
111	0xbd37a306	-0.044833206
112	0xbccacf1e	-0.024756964
113	0x3d1c5d9e	0.038175218
114	0x3d39219c	0.045198068
115	0xbe295c57	-0.16539131
116	0x3d5385bd	0.051641215
117	0x3e16765e	0.14693591
118	0x3d8af20c	0.06784448
119	0x399540ab	0.00028467676
120	0xbd872fa3	-0.06600883
121	0x3e105710	0.14095712
122	0x3e74b4b5	0.2389706
123	0x3c57c28c	0.013168942
124	0xbd90c578	-0.07068914
125	0xbd251a8a	-0.040308513
126	0x3d4b2bf9	0.049602482
127	0xbd2498e0	-0.040184855
128	0x3e95d1ae	0.29261535
129	0xbe4d3c73	-0.20042591
130	0x3e38d105	0.18048485
131	0x3d756fc8	0.059921056
132	0xbd7375be	-0.05943846
133	0xbda61fbb	-0.08111521
134	0xbdb49034	-0.08816567
135	0xbd2569db	-0.040384155
136	0x3d9c4377	0.076300554
137	0x3e2d10f8	0.16901004
138	0xba1c705b	-0.000596767
139	0xbe6fc82c	-0.23416203
140	0xbe301cd9	-0.17198505
141	0x3de877e6	0.11350994
142	0xbc9feca3	-0.019522017
143	0xbc9702b6	-0.01843391
144	0x3e852ad7	0.26009247
145	0xbd298c8d	-0.041393805
146	0x3df8236c	0.12116131
147	0x3e05df5d	0.13073488
148	0xbe076d4b	-0.13225286
149	0x3e3389d5	0.17533047
150	0x3dd81f03	0.1055279
151	0xbe6ca1fa	-0.23108664
152	0xbd218484	-0.039433017
153	0xbeb30064	-0.34961236
154	0x3d4a04f9	0.04932115
155	0xbce00df2	-0.0273504
156	0x3e633e41	0.22191717
157	0xbebaadca	-0.36460716
158	0x3ec6c004	0.3881837
159	0xbe4bd518	-0.19905508
160	0xbe185229	-0.14875092
161	0x3ef59d5e	0.47971624
162	0xbe432a28	-0.1905905
163	0xbb8f35a7	-0.0043704095
164	0x3dfd6c08	0.12374121
165	0xbd6870cc	-0.056748196
166	0xbdff44e8	-0.12464315
167	0xbd270a4a	-0.040781297
168	0xbd9bd778	-0.07609457
169	0xbe2beaef	-0.16788839
170	0xbd4b42d3	-0.049624275
171	0xbce67d69	-0.028135972
172	0x3eda38ff	0.4262161
173	0xbc29672e	-0.010339541
174	0x3e9003ed	0.28127995
175	0xbdaa8b81	-0.083273895
176	0xbde9e114	-0.11419883
177	0xbe274e8a	-0.16338554
178	0xbe3aa34f	-0.1822636
179	0xbe86c95d	-0.26325503
180	0x3dac97e7	0.084274106
181	0xbd154cfc	-0.03645037
182	0xbe1c2500	-0.1524849
183	0xbe314fce	-0.173156
184	0x3db9310b	0.09042557
185	0x3da33008	0.079681456
186	0xbe9368ac	-0.28790796
187	0x3d077280	0.03306818
188	0x3d7e5c32	0.062099643
189	0x3e954565	0.29154506
190	0xbdf9426d	-0.12170873
191	0x3e252534	0.16127473
192	0xbe07ce3d	-0.13262267
193	0xbcd06634	-0.02543936
194	0xbd8d837a	-0.06909843
195	0x3e7c7d76	0.24657235
196	0x3dfc0d34	0.12307206
197	0xbe2bd5f3	-0.16780834
198	0xbda12014	-0.078674465
199	0x3d972a11	0.073810704
200	0xbe1da55f	-0.15395115
201	0xbc845bb1	-0.016157003
202	0x3dbb4c22	0.091453806
203	0x3dbdb41e	0.0926287
204	0x3e0252e4	0.12726933
205	0x3da386fb	0.0798473
206	0x3d29aab0	0.041422546
207	0xbdc51e7f	-0.09624957
208	0xbe2421f0	-0.16028571
209	0x3dfb6694	0.122754246
210	0x3b351d16	0.0027635745
211	0x3de1ee7c	0.110318154
212	0x3dce4460	0.10071635
213	0x3dc0c18c	0.09411916
214	0x3e184d6b	0.14873283
215	0x3b5461c9	0.0032406917
216	0x3d969a92	0.07353701
217	0xbd80f884	-0.062974006
218	0x3e17a8a4	0.14810425
219	0x3e409dec	0.18810242
220	0xbd23243f	-0.03982949
221	0x3c8c7ecb	0.017150303
222	0xbc0fccbf	-0.008776843
223	0xbda461f9	-0.08026499
224	0xbdf65632	-0.12028159
225	0xbdbf2a71	-0.09334267
226	0xbd9c7f84	-0.07641509
227	0x3c3dc5ae	0.011582775
228	0x3e385223	0.18000083
229	0x3e26ccbc	0.16289037
230	0x3ce9af35	0.028525928
231	0xbe05df1c	-0.1307339
232	0xbdd016f9	-0.10160632
233	0x3e861ff7	0.26196262
234	0xbc9c444c	-0.019075535
235	0x3da7fa14	0.082019955
236	0x3ea6f130	0.32605886
237	0xbdd5194f	-0.10405218
238	0x3d13911a	0.03602705
239	0xbccc5429	-0.024942474
240	0xbe57ff4d	-0.21093483
241	0xbc4f72b9	-0.012661629
242	0x3c092a47	0.008371896
243	0xbd8edfce	-0.06976281
244	0x3ea4997a	0.32148343
245	0x3e39846c	0.18116921
246	0xbe0fac51	-0.14030577
247	0x3cfea523	0.031084603
248	0xbb60fe08	-0.0034331102
249	0xbde8e1ce	-0.11371194
250	0x3e4efbb4	0.20213205
251	0x3c12648a	0.008935103
252	0x3cb47c1b	0.022031834
253	0x3d346e98	0.044050783
254	0x3d6f3b71	0.058406297
255	0x3d6d3e6e	0.057920866

2.bias f4 [64]
0	0xbcfc057f	-0.03076434
1	0x3e19f8ca	0.15036312
2	0x3dfbecae	0.123010024
3	0xbb842e4c	-0.0040338393
4	0x3cca81fc	0.024720185
5	0xbe87e548	-0.26542115
6	0x3e2fa9e7	0.17154656
7	0x3da1699c	0.078814715
8	0x3d78f81a	0.060783483
9	0x3e1addd4	0.15123683
10	0xbe1f9f19	-0.15588035
11	0xbd9bf1c8	-0.076144755
12	0xbe196a03	-0.14981847
13	0xbccba5fc	-0.024859421
14	0x3e122863	0.14273219
15	0xbe594cf7	-0.21220766
16	0xbdf90207	-0.1215859
17	0x3d79d363	0.06099261
18	0xbd15deea	-0.03658954
19	0x3c18a7c0	0.0093173385
20	0x3e000eda	0.12505665
21	0x3e0251e7	0.12726556
22	0xbe079f81	-0.1324444
23	0xbe1d3354	-0.15351611
24	0x3db6fa64	0.08934477
25	0x3e3b9a09	0.18320478
26	0x3c45bc0f	0.012068762
27	0xbb7c6b5f	-0.0038516147
28	0x3e17da04	0.1482926
29	0xbe8ef317	-0.27919838
30	0xbd8b14e8	-0.06791097
31	0x3d273e73	0.04083104
32	0xbd16058a	-0.036626376
33	0xbe11ab3d	-0.14225478
34	0xbdbe2d48	-0.092859805
35	0xbe45126e	-0.19245312
36	0x3df5a76c	0.11994824
37	0xbe050cc4	-0.12993151
38	0xbcb00d0f	-0.021490602
39	0x3b8ce2b7	0.0042994875
40	0x3dc60c67	0.09670334
41	0xb9dd6089	-0.0004222433
42	0xbca33cd5	-0.019926468
43	0x3d25d36c	0.04048483
44	0xbe100710	-0.14065194
45	0x3dadb4a5	0.08481721
46	0x3d34280e	0.04398351
47	0xbe1e0399	-0.1543106
48	0x3db2f453	0.087380074
49	0xbde3d2ec	-0.111242145
50	0xbda66326	-0.0812438
51	0x3e081798	0.1329025
52	0xbc5622ce	-0.0130698215
53	0x3baa4f92	0.005197474
54	0x3e18989e	0.14901969
55	0xbd325186	-0.043534778
56	0xbda63367	-0.08115273
57	0xbd6753ce	-0.056476407
58	0x3db058b5	0.086106695
59	0x3d9fb9d8	0.07799119
60	0xbe4af8ba	-0.19821444
61	0xbd93bced	-0.07213769
62	0x3e40a3c8	0.18812478
63	0xbe39ee48	-0.18157303
