dir_save_test_BC/we0_critic_linear_330.pth (torch, 1836 bytes, 1 tensors)

weight f4 [1, 64]
000000 c8 3d 29 40 92 66 34 40 0d b5 28 40 92 11 3e c0
       2.6443958 2.8187604 2.6360505 -2.9698224
000010 fb 26 28 c0 bc 4d cc c1 5f bf 42 c0 fa e8 31 c0
       -2.6273792 -25.537956 -3.0429304 -2.7798448
000020 5d 49 31 40 42 7c 33 c0 ae 3d 5b 40 67 4f 11 40
       2.7701027 -2.804459 3.4256396 2.2704713
000030 e4 ea 31 c0 f6 a8 be bf c4 ae 22 c0 6b 79 17 3f
       -2.7799616 -1.4895313 -2.5419168 0.59169644
000040 9f 1a 45 c0 a7 e7 b7 bf 17 b3 7b c0 81 65 2b 40
       -3.0797498 -1.436757 -3.9328058 2.6780703
000050 8b db 2f c0 65 18 38 40 9d e9 2b 40 f9 ee 2f c0
       -2.7477748 2.876489 2.6861336 -2.7489607
000060 6d c9 2a 40 0f 53 ee 3f ae 20 42 40 38 8f 06 40
       2.668544 1.8619097 3.0332446 2.1024914
000070 e9 89 13 40 f9 e3 29 40 84 6f 33 40 af 14 29 c0
       2.3052924 2.6545393 2.8036814 -2.6418874
000080 6d 1e b2 3f 53 04 37 40 8c 65 09 40 3f d1 36 c0
       1.3915535 2.859639 2.146823 -2.8565214
000090 fe f4 0a c0 04 25 32 40 d5 f2 ee 3f 66 29 33 40
       -2.1712031 2.7835093 1.8667856 2.7994018
0000a0 96 99 b8 3f d7 0d 57 c0 5b 5c 32 c0 64 60 33 40
       1.4421871 -3.3602197 -2.786887 2.8027582
0000b0 b4 64 6a 40 2a ee 2e c0 57 22 34 c0 74 5f 89 c0
       3.6623964 -2.7332864 -2.814596 -4.292902
0000c0 17 7e 2e c0 9f 8a 89 bf bb 69 2a c0 06 71 24 c0
       -2.726446 -1.0745429 -2.6627033 -2.5693984
0000d0 6c cb 30 40 1a 56 3c 40 6a 63 30 40 c3 7d 27 c0
       2.762416 2.9427552 2.7560678 -2.617051
0000e0 78 3b 31 c0 4b f0 1d c0 92 17 28 c0 a2 4e 2c 40
       -2.7692547 -2.4677913 -2.6264386 2.6922994
0000f0 51 ec d2 41 3a d2 27 40 9c 0b be bf 99 c7 07 40
       26.365389 2.6222062 -1.4847293 2.1215575
