dir_save_test_BC/we0_critic_330.pth (torch, 19528 bytes, 4 tensors)

0.weight f4 [64, 2]
0	0x3f1e3531	0.61799914
1	0x412f617b	10.961299
2	0x3f22c596	0.6358274
3	0x41190131	9.562791
4	0x3f279ea4	0.6547644
5	0x412265fb	10.149898
6	0x3e6c645b	0.23085158
7	0x3fe60637	1.7970647
8	0xbe974166	-0.29542083
9	0x406b2a1b	3.674445
10	0xbe70074a	-0.2344028
11	0xbfd92960	-1.6965752
12	0xbea5aa5c	-0.32356536
13	0x4033e8b6	2.8110785
14	0x3f2d9f67	0.67821354
15	0x4123fd5e	10.249357
16	0x3e487b44	0.19578272
17	0x3fb05697	1.3776425
18	0xbe919c3b	-0.28439507
19	0xbf92ee68	-1.1479006
20	0xbeb73403	-0.3578187
21	0x41112765	9.072118
22	0x3e422066	0.18957672
23	0x401e4e03	2.4735115
24	0xbe00772c	-0.1254546
25	0x4043b436	3.0578742
26	0xbf12bd4c	-0.57320094
27	0xc129a950	-10.603836
28	0xbe7c0d33	-0.2461441
29	0x4071d4c4	3.7786112
30	0xbe709fc8	-0.23498452
31	0xc11511c0	-9.3168335
32	0xbe59792c	-0.2123763
33	0xbff6bb94	-1.9275994
34	0xbef637fe	-0.48089594
35	0xc129c852	-10.611406
36	0xbe8add77	-0.2712209
37	0xbf74c10f	-0.95607084
38	0x3e44c645	0.19216259
39	0x3feaf77b	1.8356775
40	0xbe28d031	-0.16485669
41	0xc18d9e11	-17.70218
42	0x3dcc2683	0.09968283
43	0xc074942d	-3.821544
44	0x3da60c3f	0.081078045
45	0xc0a160f5	-5.0430856
46	0xbda04299	-0.078252025
47	0x4043f7b5	3.0619938
48	0xbe4c0f57	-0.19927727
49	0x41221302	10.129641
50	0x3d87ff15	0.0664045
51	0x4104bd4f	8.296218
52	0x3eae15bf	0.34000966
53	0x411c0058	9.750084
54	0x3e285644	0.16439158
55	0x41083617	8.513206
56	0xbc75d2d3	-0.015003878
57	0x410edf3c	8.929501
58	0xbe5f8cb8	-0.21831024
59	0xc0096256	-2.146627
60	0x3f0a54ce	0.5403565
61	0x41272cf6	10.448477
62	0x3f05faea	0.5233599
63	0x411cf0c1	9.808778
64	0xbe62d77f	-0.22152518
65	0xc11c0ffd	-9.753903
66	0xbf7afa41	-0.9803811
67	0xc101ab06	-8.104254
68	0xbed453f8	-0.41470313
69	0xc08e37e4	-4.4443226
70	0xbd92527c	-0.07144639
71	0x41846570	16.54953
72	0xbdfe4760	-0.124159575
73	0x4096ee63	4.7166
74	0xbf078758	-0.52940893
75	0xc112f9b7	-9.185966
76	0xbe867107	-0.26258108
77	0x405cba07	3.4488542
78	0x3dfee208	0.12445456
79	0xc078a06c	-3.8847914
80	0xbe7a56a8	-0.24447119
81	0x4067b38c	3.6203337
82	0xbe95230d	-0.29128304
83	0x40686ede	3.6317668
84	0xbf17c9a6	-0.59292066
85	0xc0e759dd	-7.2297196
86	0x3e35f908	0.17770779
87	0x40777f68	3.8671513
88	0x3e72c5e0	0.23708296
89	0x4112880d	9.1582155
90	0x3e5cc558	0.21559656
91	0x3fbd3979	1.4783164
92	0xbe940434	-0.28909457
93	0xbfc84df4	-1.564879
94	0xbe34d05f	-0.17657612
95	0xbfe4cd71	-1.7875196
96	0x3e80edab	0.25181326
97	0x3fa4830a	1.285249
98	0xbf247886	-0.64246404
99	0xc107e9eb	-8.494609
100	0xbdc8be24	-0.098018914
101	0x4060fdd9	3.5154936
102	0xbf05e419	-0.52301174
103	0xc125bfd4	-10.359333
104	0xbdae4a7b	-0.085103
105	0x4057b092	3.370152
106	0xbe74f606	-0.23921975
107	0xc109490d	-8.580335
108	0x3eaf8723	0.3428279
109	0xc1108d30	-9.03447
110	0xbe4e3221	-0.2013631
111	0xc019a658	-2.4007778
112	0xbebc3d72	-0.3676563
113	0x41133ca3	9.202304
114	0xbea47f12	-0.32128197
115	0x4059034c	3.3908262
116	0x40215a7b	2.5211475
117	0x3f8ab6a5	1.0836989
118	0x3e999464	0.29996026
119	0x3f89db71	1.0770093
120	0xbecf8e27	-0.4053814
121	0x3fcc14e4	1.5943875
122	0x3e7bf3a0	0.24604654
123	0x3fbbfc4a	1.4686368
124	0xbe32d9d5	-0.17465909
125	0x404f56dc	3.2396765
126	0xbe207be3	-0.15672259
127	0x3f40b218	0.7527175

0.bias f4 [64]
0	0x3fcd63be	1.6046064
1	0x3fdc1f51	1.7197057
2	0x3fdfacba	1.7474587
3	0xbfa8b52c	-1.3180289
4	0x3f29b12b	0.6628596
5	0x3fb122c1	1.3838731
6	0x3f880594	1.0626702
7	0x3fe8af76	1.8178546
8	0xbfa1badc	-1.263515
9	0x3fc44c29	1.5335742
10	0xc011f4f6	-2.2805762
11	0xbf30d33d	-0.69072324
12	0x3f6c5f56	0.9233297
13	0xbfb875a5	-1.4410902
14	0x3f1c2ea8	0.6100869
15	0xbf4067e2	-0.7515851
16	0x3f9d01d6	1.2266185
17	0xbf977f85	-1.1835791
18	0x3fcc0d46	1.5941551
19	0xbf82571c	-1.0182834
20	0xbfe4b9b8	-1.7869177
21	0xbf2a67f1	-0.6656485
22	0xbd0dca25	-0.03461661
23	0x3f7eb74c	0.9949844
24	0xbf4cc7c7	-0.79992336
25	0x3f16ddd1	0.58932215
26	0x3f8020ab	1.000997
27	0x3f00670b	0.5015723
28	0xbced29b7	-0.028950555
29	0x3facb845	1.3493735
30	0x3fa2a755	1.2707316
31	0x3fa831e8	1.314023
32	0xbf5c1b4f	-0.8597917
33	0x3f44631f	0.76713747
34	0xc01fa35e	-2.4943461
35	0x3fa4d3f2	1.287718
36	0x3e7edff2	0.24890116
37	0xbfb125f1	-1.3839704
38	0x3f2947e7	0.6612534
39	0xbf2ac235	-0.66702586
40	0x3f128270	0.5723028
41	0x3f267c0e	0.6503304
42	0xbfdde2d0	-1.7334843
43	0xbf64f734	-0.894397
44	0x3f949617	1.1608304
45	0xbfb0391b	-1.3767427
46	0x3fe3fc03	1.7811283
47	0x3f6ace15	0.91720706
48	0xbfbd1e7b	-1.4774927
49	0xbfdd59d5	-1.729304
50	0x3f494128	0.78615046
51	0xbfa191d4	-1.2622628
52	0x3f84edf6	1.038512
53	0xbfca871e	-1.5822484
54	0x4005c044	2.08986
55	0x3f83fdaa	1.0311787
56	0xc015fa67	-2.3434083
57	0xbd7ad725	-0.061240334
58	0xc05416ce	-3.313892
59	0xbfd1610d	-1.6357743
60	0xc00f6aac	-2.2408857
61	0xbfaf7277	-1.3706807
62	0x3f60c804	0.878052
63	0x3f926888	1.143815

2.weight f4 [64, 64]
0	0x3df74192	0.120730534
1	0x3e27764a	0.16353717
2	0xbd8e48c9	-0.069474764
3	0xbde51958	-0.111864746
4	0x3f030643	0.5118143
5	0x3e977f22	0.29589182
6	0x3f19d9d7	0.6009802
7	0xbe655e2c	-0.22399205
8	0xbdfe8c33	-0.12429085
9	0x3e87257b	0.26395783
10	0xbf0d9d99	-0.553186
11	0xbd6059b5	-0.05477305
12	0x3f812ccb	1.0091795
13	0xbd05b961	-0.032647494
14	0x3f124874	0.57141805
15	0xbed71a87	-0.42012426
16	0xbc8b8e54	-0.01703564
17	0x3d301e94	0.04299791
18	0x3e364f85	0.17803772
19	0xbe63f9e4	-0.22263294
20	0xbead4270	-0.3383975
21	0xbf4e08ff	-0.80482477
22	0xbe55ad87	-0.20866977
23	0x3f497798	0.7869811
24	0xbe588ecb	-0.21148221
25	0x3d8d2d9a	0.068934634
26	0x3e9e6bbf	0.3094158
27	0x3d9df124	0.077120095
28	0x3ee3a7b7	0.44463894
29	0x3e708e7a	0.2349185
30	0x3e432807	0.19058238
31	0xbe0162d2	-0.12635353
32	0xbe35db74	-0.17759496
33	0x3e181ae5	0.1485401
34	0xbf030b1b	-0.5118882
35	0x3eb2fe16	0.34959477
36	0x3eb05ae9	0.3444436
37	0x3d9a101b	0.07522603
38	0x3f2b6b9c	0.66961074
39	0xbe78c166	-0.24292526
40	0x3f3870f2	0.7204734
41	0x3efdff4c	0.4960884
42	0xbd565c8f	-0.052334365
43	0x3d1477d2	0.036247082
44	0x3e7175fb	0.23580162
45	0xbec663cc	-0.38748014
46	0x3ecbe061	0.39819625
47	0x3e8df165	0.27723232
48	0xbea4607f	-0.3210487
49	0xbdbb4283	-0.091435455
50	0x3f30ef76	0.6911539
51	0xbe113e47	-0.14183913
52	0x3f410d98	0.7541137
53	0x3e0f0194	0.13965446
54	0x3f15921b	0.58426064
55	0x3e85a6fc	0.2610396
56	0xbf5cf68a	-0.8631369
57	0x3dbe84fc	0.093027085
58	0xbda3a228	-0.07989913
59	0xbe6d8cdb	-0.23198263
60	0xbea4ca2a	-0.3218549
61	0xbe37adb0	-0.1793735
62	0x3f20e699	0.62851864
63	0x3f38a27e	0.72122943
64	0xbdea7383	-0.11447813
65	0x3de4655e	0.11152147
66	0x3e0a11ed	0.134834
67	0xbd36cf73	-0.044631433
68	0x3f1c8204	0.6113589
69	0x3e87259f	0.2639589
70	0x3f1a3b43	0.60246676
71	0xbc27eef4	-0.010249842
72	0xbdde24dc	-0.10846874
73	0x3ecfb889	0.40570477
74	0xbf3bd6bd	-0.7337454
75	0xbe860f19	-0.26183394
76	0x3f7f41ca	0.9970976
77	0xbda1ae90	-0.07894623
78	0x3e40ee9c	0.18841022
79	0xbeb67bdf	-0.3564138
80	0x3e889164	0.26673424
81	0x3c8d30a1	0.017235102
82	0x3e9a033f	0.30080602
83	0xbead1f58	-0.33812976
84	0xbeacc007	-0.33740255
85	0xbeefee62	-0.4686156
86	0xbe9bdc81	-0.3044167
87	0x3f884109	1.0644847
88	0xbe4265e9	-0.18984188
89	0x3dc8b481	0.098000534
90	0x3e3b4553	0.18288164
91	0xbccfd58f	-0.025370387
92	0x3ea4e034	0.32202303
93	0x3ed2fd32	0.41208798
94	0x3ee774aa	0.45206195
95	0xbd300ee9	-0.04298297
96	0x3da1717b	0.07882973
97	0xbce13bb5	-0.02749429
98	0xbe257490	-0.16157746
99	0x3ea5efe3	0.32409582
100	0x3e4e795c	0.20163482
101	0xbe3524fb	-0.17689888
102	0x3f492b7d	0.7858198
103	0xbf0e4d6d	-0.5558689
104	0x3ee8d255	0.4547297
105	0x3f23f30a	0.64042723
106	0xbc0edb8f	-0.008719339
107	0xbe2ed000	-0.17071533
108	0x3ed55bea	0.41671687
109	0xbdfa70fb	-0.122285806
110	0x3e399d28	0.18126357
111	0x3ec90771	0.3926349
112	0x3db8d122	0.09024264
113	0xbdb46a5d	-0.0880935
114	0x3f1229c8	0.57095003
115	0x3d926434	0.071480185
116	0x3f3f7e49	0.7480207
117	0xbdd4475e	-0.10365175
118	0x3efdacda	0.49545938
119	0x3ceebc36	0.02914248
120	0xbf1f4408	-0.6221318
121	0x3d5774b0	0.052601516
122	0xbd9cf2c3	-0.076634906
123	0xbe979262	-0.2960387
124	0xbec74f60	-0.38927746
125	0xbed84ed2	-0.42247635
126	0x3ecd1c5d	0.40060702
127	0x3f245d40	0.6420479
128	0x3d4abe9f	0.049498197
129	0x3e619f28	0.2203337
130	0xbe048e5d	-0.12944932
131	0xbe0d09d5	-0.13773282
132	0x3f62d2dc	0.88602996
133	0x3e8fdf6d	0.28100148
134	0x3f088bef	0.5333852
135	0x3e14a6ae	0.14516708
136	0xbed9bc42	-0.42526442
137	0x3e7e11cf	0.24811481
138	0xbee52e0a	-0.44761688
139	0xbe8117e5	-0.25213543
140	0x3f3f80a8	0.7480569
141	0xbe25935f	-0.16169499
142	0x3e975e87	0.29564306
143	0xbea1c996	-0.3159911
144	0x3e7dcc44	0.24784952
145	0x3d360927	0.044442322
146	0x3f058a2f	0.52163976
147	0xbe7e01f4	-0.24805433
148	0xbe27ee28	-0.16399443
149	0xbf125f3a	-0.57176554
150	0xbebbcaac	-0.36678064
151	0x3f429ddf	0.7602214
152	0xbe3568d3	-0.17715769
153	0x3ded8740	0.115980625
154	0x3dd86cee	0.10567652
155	0x3e09388a	0.13400474
156	0x3ed24b78	0.41073203
157	0x3e83dff8	0.25756812
158	0x3eb25d83	0.3483697
159	0x3cfab67c	0.030604593
160	0xbd8fd3e3	-0.07022836
161	0x3e539fd0	0.20666432
162	0xbec97232	-0.39344937
163	0x3ebed19e	0.372693
164	0x3ed1d21c	0.40980613
165	0xbdb8fbc9	-0.09032399
166	0x3f228bf3	0.63494796
167	0xbe88d082	-0.2672158
168	0x3f2ae7f0	0.6676016
169	0x3f47a43a	0.77984965
170	0xbe7931d3	-0.24335413
171	0xbe613618	-0.21993291
172	0x3ec7bcad	0.39011136
173	0xbe8f8f5b	-0.2803906
174	0x3e274920	0.16336489
175	0x3e61308c	0.21991175
176	0x3d98cce1	0.074609526
177	0xbd074bc6	-0.033031248
178	0x3f3445cb	0.70418996
179	0xbc0d41f1	-0.008621679
180	0x3f3c3ece	0.7353333
181	0xbdde0d68	-0.10842401
182	0x3ef9d0f3	0.48792228
183	0x3ebe1d01	0.37131503
184	0xbf7a62b0	-0.97806835
185	0x3d1f9b5f	0.038966533
186	0xbe5d766a	-0.21627203
187	0xbed284f7	-0.4111707
188	0xbeffadde	-0.49937338
189	0xbf0bbad2	-0.5458194
190	0x3ebc7204	0.36805737
191	0x3f0d7025	0.55249244
192	0xc00c64d7	-2.1936548
193	0xbf9d3fdb	-1.2285112
194	0xbfff2bda	-1.9935257
195	0x3e3eae12	0.1862109
196	0xbe19a1e0	-0.15003157
197	0xbdbd5eca	-0.09246595
198	0x3d2ece4a	0.0426772
199	0xbfc1acd7	-1.5130872
200	0xbe289266	-0.16462097
201	0x3e071b4b	0.13194005
202	0xc06e79ec	-3.7261915
203	0xbed99112	-0.42493492
204	0xbf234cf6	-0.6378931
205	0x40111e0b	2.2674587
206	0xbee851f8	-0.45375037
207	0x4070cd17	3.7625177
208	0x3d79b91e	0.060967557
209	0x3fc73ba4	1.5565076
210	0x3e445757	0.19173943
211	0xbd2c8660	-0.042120337
212	0x3f2f6550	0.68513966
213	0x3f13c347	0.57719845
214	0x3fa87b81	1.316269
215	0xbf56cd00	-0.83906555
216	0xc068bffb	-3.6367176
217	0xbfc87e3e	-1.5663526
218	0xc02a5ee0	-2.6620407
219	0xc0507409	-3.2570822
220	0xc080baa9	-4.0227857
221	0x3e1fe4ad	0.15614577
222	0xc0309f79	-2.7597334
223	0xbfae710b	-1.3628248
224	0x4058f8c2	3.390183
225	0x40565087	3.348665
226	0x3ed23bb2	0.4106117
227	0xbf7bd0b2	-0.9836532
228	0xbf411926	-0.75429
229	0x3f81d94d	1.014444
230	0xbf1dea19	-0.6168533
231	0x3f3305f1	0.6993094
232	0xbf242d18	-0.6413131
233	0xbe82d46c	-0.2555269
234	0x3f860d34	1.0472779
235	0xbe20a4b2	-0.15687826
236	0xc032f09e	-2.795936
237	0x3c874087	0.016510261
238	0x3e582ba6	0.211104
239	0x3e8a3999	0.2699707
240	0xbe3be3c8	-0.1834861
241	0x3fa6c2b9	1.3028175
242	0xbf27314e	-0.6530961
243	0x3febf83f	1.8435134
244	0xbf1529bc	-0.58266807
245	0x3f811825	1.0085493
246	0x40943558	4.6315117
247	0x3dfe7548	0.124247134
248	0xc095475a	-4.66496
249	0xbf2d6617	-0.677339
250	0xbe1a391d	-0.1506085
251	0x3e170b4d	0.14750405
252	0xbf94c117	-1.1621426
253	0x3e021eac	0.12707013
254	0xbeda67a3	-0.42657194
255	0x3e7b1c43	0.245225

2.bias f4 [64]
0	0x3f70c5b1	0.94051653
1	0x3f6091f0	0.8772268
2	0x3f5930c2	0.84840024
3	0xbee4af60	-0.4466505
4	0xbf7be3fc	-0.9839475
5	0xbedd5492	-0.43228585
6	0xbf0eec4c	-0.5582931
7	0xbf4fe603	-0.81210345
8	0x3f59ebdd	0.85125524
9	0xbf44addb	-0.7682778
10	0x3f4b3cfc	0.7938993
11	0x3ec424b5	0.38309255
12	0xbf6c168d	-0.9222191
13	0xbf833a91	-1.0252248
14	0xbf6bc5b5	-0.9209855
15	0x3f4dfbd9	0.80462414
16	0xbf9015a6	-1.1256607
17	0x3d9483e2	0.07251717
18	0x3e63cb11	0.22245432
19	0x3f47fc47	0.7811932
20	0xbf4dccf3	-0.8039085
21	0x3f4ae510	0.7925577
22	0x3f43a1aa	0.76418555
23	0xbf611a24	-0.8793051
24	0x3f58733d	0.8455084
25	0x3eac53f6	0.33657807
26	0x3f4e065f	0.8047847
27	0xbdbde2d0	-0.09271777
28	0x3eb3a322	0.35085398
29	0x3f3fc22e	0.7490567
30	0x3f327532	0.69710076
31	0xbf6247ff	-0.8839111
32	0x3e887a59	0.26655844
33	0x3f4ae3ee	0.79254043
34	0x3eafdf09	0.3434985
35	0xbf542aa0	-0.8287754
36	0xbf1e8f88	-0.6193776
37	0x3f6eb9ff	0.9325256
38	0xbe0c85f3	-0.13722973
39	0x3f3e01d5	0.74221545
40	0x3e062693	0.13100652
41	0xbf4e5959	-0.80605084
42	0xbf3ed063	-0.7453672
43	0x3f538dfb	0.8263852
44	0x3f69331e	0.91093624
45	0xbf6b5f6b	-0.9194247
46	0xbeb4ed9c	-0.35337532
47	0xbf838d7d	-1.0277554
48	0xbf53d3e4	-0.82745194
49	0xbe096d6e	-0.1342065
50	0xbf5a0813	-0.8516857
51	0xbf4169f3	-0.7555229
52	0x3f4ca3e1	0.7993756
53	0x3f5185ea	0.8184496
54	0x3f5c89ed	0.8614796
55	0xbf6dd078	-0.92896223
56	0xbfad1677	-1.3522481
57	0xbef906ee	-0.486381
58	0xbf6b8f2b	-0.9201533
59	0x3f547a46	0.82999074
60	0x3eaa2f13	0.3323904
61	0x3f611c39	0.8793369
62	0xbd5e9019	-0.05433664
63	0x3e9ba93c	0.30402553
