dir_save_test_BC/we0_model_base_pre_train.pth (torch, 41702 bytes, 9 tensors)

weight f4 [64, 2]
0	0xbeba49c4	-0.36384404
1	0x3f0a78b8	0.5409045
2	0x3f46fcaf	0.77729315
3	0x3f8c5722	1.0964091
4	0x3b2bbaba	0.0026203827
5	0x40901aa0	4.50325
6	0xbbe433ed	-0.006964198
7	0x4069b891	3.65189
8	0xbb1686da	-0.0022968561
9	0xc078aa9f	-3.885414
10	0x3d0a4c1b	0.033763986
11	0x40477003	3.1162117
12	0xbc04d0ec	-0.0081064515
13	0xbfcd56de	-1.6042135
14	0xbd04bb70	-0.032405317
15	0xbf2e3969	-0.6805635
16	0x3f65c3fc	0.89752173
17	0xbe001670	-0.12508559
18	0x3e1d2077	0.15344416
19	0x40253660	2.5814438
20	0xbf82cf88	-1.0219584
21	0xbf164ecd	-0.5871399
22	0xbbf13c5d	-0.007361932
23	0xc07dbc40	-3.9646149
24	0x3e61b55c	0.2204184
25	0xbe9bf295	-0.30458513
26	0xbe8cdb44	-0.27511036
27	0x3fd7cf5e	1.6860158
28	0x3f764cac	0.9621074
29	0xbed5dbf3	-0.4176937
30	0xbe69f8a7	-0.2284876
31	0xbf02d94a	-0.51112807
32	0xbad915a0	-0.0016562231
33	0x4088ca18	4.2746696
34	0x3ea4fc7b	0.32223877
35	0x3f68c62a	0.90927374
36	0x3a759ef9	0.0009369697
37	0x4096882a	4.7041216
38	0xbc380ca7	-0.011233485
39	0xc0811972	-4.034356
40	0xbba9ae57	-0.0051782536
41	0xc08a1a4e	-4.315711
42	0xbb8816b8	-0.004153099
43	0x405fb228	3.4952488
44	0xbf1c8ea9	-0.6115518
45	0x3eb6815f	0.35645577
46	0x3d07a455	0.033115704
47	0xbfc39f72	-1.5283034
48	0xbdee5693	-0.116376065
49	0xc01234fb	-2.2844837
50	0xb8e285a8	-0.00010801415
51	0xc06880f1	-3.63287
52	0x3d3fff7a	0.0468745
53	0xbfb14e7c	-1.3852077
54	0x3f1ca286	0.6118549
55	0xbe23e2f0	-0.16004539
56	0xba3907f8	-0.00070583774
57	0x406be1ca	3.685656
58	0x3f825a61	1.0183831
59	0xbf117ce3	-0.56831187
60	0xbfa57f1a	-1.2929413
61	0x3f3b52a7	0.7317299
62	0x3f953a38	1.1658392
63	0x3ea6780d	0.32513466
64	0xbb43a7cc	-0.0029854653
65	0xc06f29d0	-3.736927
66	0xbf88f35b	-1.0699266
67	0xbeea1697	-0.4572036
68	0x3c859558	0.016306564
69	0xc03d1359	-2.954306
70	0xbebe6b15	-0.37191072
71	0xbf330a67	-0.6993775
72	0xb801c610	-3.0940457e-05
73	0x40647fb1	3.5702937
74	0x3eb3fe62	0.35155016
75	0x3ec223ce	0.37917942
76	0xbc767edf	-0.015044897
77	0xc06deabc	-3.717452
78	0x3d7c5e60	0.06161344
79	0x3ec21b92	0.3791166
80	0xba3f4c77	-0.0007297466
81	0x40879db1	4.2379994
82	0x3e7a8b5b	0.24467222
83	0x3e8ba487	0.27273962
84	0xbf8424be	-1.0323713
85	0x3ee80ed0	0.453238
86	0xbbc28028	-0.0059356876
87	0xc0c5106c	-6.1582546
88	0x396f6052	0.00022828698
89	0x405b0cd4	3.422658
90	0x3d8c6052	0.06854309
91	0x3f340e7d	0.7033461
92	0xbf9972dd	-1.1988178
93	0xbe72f7da	-0.2372736
94	0x3d2a8bdb	0.041637283
95	0x3e8a604f	0.27026603
96	0x3e5c45e1	0.21511032
97	0x3ee92364	0.45534813
98	0xbb9085b2	-0.004410469
99	0xc0815526	-4.041644
100	0xbb788b97	-0.0037925
101	0xc0791a46	-3.8922286
102	0x3b12334c	0.0022308407
103	0xc07154ef	-3.770809
104	0xbd4d9271	-0.050188486
105	0x3f77be20	0.9677448
106	0x3c2d1dbc	0.010566171
107	0x40901311	4.5023274
108	0x3ea58cad	0.3233389
109	0xbfa988e7	-1.3244904
110	0x3f46a7d9	0.77599865
111	0xbf42efbe	-0.7614707
112	0xbca67f2e	-0.020324316
113	0xbf4eebf9	-0.80828816
114	0x3ad2931a	0.0016065568
115	0x40475c56	3.1150107
116	0x3a05d290	0.00051049236
117	0xc065a65d	-3.588279
118	0xbb241e1e	-0.0025042365
119	0xc0854f17	-4.1659045
120	0xbee9e17e	-0.4567985
121	0x3f2ebe84	0.68259454
122	0xbed5783e	-0.416933
123	0xc0133826	-2.300302
124	0x3e715861	0.2356887
125	0xc0059d58	-2.0877285
126	0x3caf728a	0.021416921
127	0xbf6bd99f	-0.9212894

bias f4 [64]
0	0x3d6e86d5	0.058234055
1	0x3de9c315	0.11414162
2	0x3cb7cc47	0.022436274
3	0xbd45ba3c	-0.04827331
4	0xbc96d286	-0.018410932
5	0xbbd6d38c	-0.00655598
6	0xbd404157	-0.046937313
7	0x3c7de5da	0.015496695
8	0x3d784ce2	0.060620196
9	0x3b9042eb	0.0044025085
10	0xbd8f0006	-0.06982426
11	0xbd3eaa98	-0.04654941
12	0xbd1dc965	-0.038522143
13	0xbc9a945e	-0.018869575
14	0x3db7298e	0.08943473
15	0xbd7a012e	-0.06103628
16	0xbd4e551b	-0.05037413
17	0x3d3c5d3b	0.04598735
18	0xbd0f0653	-0.03491814
19	0xbcf4dfa3	-0.029891795
20	0xbced0fdd	-0.028938228
21	0xbd6de487	-0.05807927
22	0xbb80f6dd	-0.0039356784
23	0xbbbcfcca	-0.0057674395
24	0xbd477801	-0.04869843
25	0x3ce2e56a	0.027697284
26	0x3d5b1e9c	0.05349599
27	0x3d3bc4e6	0.045842074
28	0xbc8d4e85	-0.017249355
29	0x3cba03e8	0.02270694
30	0xbc914455	-0.017732779
31	0x3a22b7e2	0.000620721
32	0xbc53a0da	-0.012916768
33	0xbd695cf5	-0.056973416
34	0xbba8f1dc	-0.005155785
35	0xbc257bbd	-0.010100302
36	0xbca6f4c4	-0.020380385
37	0xbc6bbbda	-0.014388049
38	0xbd0b6330	-0.03403014
39	0xbc21ceeb	-0.009875993
40	0xbcea8d4b	-0.028631827
41	0xbd3d510a	-0.046219863
42	0xbcd3551b	-0.025797417
43	0xbbe1b1ab	-0.0068876348
44	0xbc56fb2c	-0.0131214075
45	0xbcc7ae3b	-0.024375072
46	0xbcbbad19	-0.022909688
47	0xbce5841c	-0.028017096
48	0xbb84378f	-0.0040349434
49	0xbcdc1b2b	-0.026868423
50	0xbc4872f2	-0.012234436
51	0x3ce63920	0.028103411
52	0x3cc95e35	0.024581054
53	0xbd186078	-0.037201375
54	0x3dacab95	0.08431164
55	0x3cd2d615	0.025736848
56	0xbc2528d3	-0.010080534
57	0xbd0219a5	-0.031762738
58	0x3cd2e302	0.025743011
59	0xbc451436	-0.012028744
60	0xbc4338ca	-0.011915395
61	0xbc23868d	-0.00998081
62	0x3d4a33fc	0.049365982
63	0xbc879ec1	-0.016555192

weight f4 [64, 64]
0	0xbd2d32fb	-0.042284947
1	0x3d8428f8	0.06453127
2	0x3d0b601a	0.034027196
3	0xbe48f86d	-0.19626017
4	0x3e16a0b3	0.1470974
5	0x3e31f23a	0.17377558
6	0xbd8231db	-0.063571654
7	0x3d01be19	0.031675432
8	0xbe23fd37	-0.16014563
9	0xbba301ca	-0.0049745785
10	0xbda78f0b	-0.0818158
11	0x3d65a913	0.056069445
12	0xbe067720	-0.1313138
13	0xbe3a38ce	-0.18185732
14	0xbd327ac7	-0.04357412
15	0xbdc0e85f	-0.09419321
16	0xbd10bbd9	-0.035335395
17	0x3e7570a9	0.23968758
18	0x3e11b4a3	0.14229064
19	0xbd0a0e45	-0.033705015
20	0x3c4f2394	0.01264276
21	0xbe4ffa47	-0.20310317
22	0x3e1a9d50	0.15099072
23	0x3e7f5461	0.24934532
24	0xbd0f679e	-0.035010926
25	0x3e3d5be6	0.18492088
26	0x3cef1e6e	0.029189315
27	0xbe04dd79	-0.1297511
28	0xbea0c4a7	-0.31400034
29	0xbd90c71e	-0.070692286
30	0xbe8407e8	-0.25787282
31	0xbd35acbb	-0.04435418
32	0xbdb5d7a1	-0.088790186
33	0xbd57f633	-0.05272503
34	0x3ed38849	0.41314915
35	0x3d929cec	0.07158837
36	0xbdad3a40	-0.08458376
37	0x3db19042	0.08670093
38	0x3c47b235	0.012188484
39	0xbdd1c689	-0.10242946
40	0xbda0b158	-0.07846326
41	0x3d2c755e	0.042104118
42	0xbda399d6	-0.07988326
43	0xbe0c2a37	-0.13687979
44	0xbe2bb886	-0.16769609
45	0xbe32cdf2	-0.17461374
46	0x3e732c3e	0.23747346
47	0xbd12b81b	-0.035820108
48	0xbd63d4e4	-0.05562295
49	0xbda94cfd	-0.082666375
50	0x3d0141c7	0.03155687
51	0x3de2df8d	0.11077795
52	0xbd122fb5	-0.03569003
53	0xbbbcd3c2	-0.005762548
54	0xbe29fa00	-0.16599274
55	0x3e20cd07	0.15703212
56	0xbe048569	-0.12941517
57	0x3dff33c5	0.12461046
58	0x3de475e5	0.11155299
59	0x3d1e0333	0.03857727
60	0xbc653632	-0.013989972
61	0x3e849856	0.25897473
62	0x3b107a47	0.002204554
63	0xbe24834e	-0.16065714
64	0x3c36d313	0.011158722
65	0xbd829d39	-0.06377644
66	0xbdc49db2	-0.096003905
67	0x3d63ef2e	0.05564802
68	0x3ea43cff	0.32077786
69	0xbd50bac3	-0.05095936
70	0xbe91f1f8	-0.2850492
71	0x3d96d7fe	0.07365416
72	0x3d40bd45	0.0470555
73	0x3e6069e6	0.21915397
74	0x3c2d5b94	0.010580916
75	0x3dcc0efa	0.09963794
76	0x3dd9b3fd	0.10630033
77	0x3e477446	0.19477949
78	0xbd02a945	-0.03189971
79	0x3e0f250f	0.1397898
80	0xbdf3a433	-0.11896553
81	0x3e5da5b1	0.21645238
82	0xbe79c062	-0.24389794
83	0xbd81a777	-0.063307695
84	0x3d829bbd	0.06377361
85	0x3bd024b8	0.0063520335
86	0x3daceab6	0.08443205
87	0xbe4e0f1b	-0.2012295
88	0x3daf0ee3	0.08547761
89	0x3e918c6e	0.28427452
90	0x3e8eea6f	0.27913234
91	0x3d8f72c7	0.07004314
92	0xbe4337f3	-0.19064312
93	0x3dc015e6	0.09379177
94	0xbe3b7b79	-0.1830882
95	0xbdb60152	-0.088869706
96	0x3e7f0a81	0.2490635
97	0xbbf82bde	-0.0075735888
98	0xbecb3037	-0.39685223
99	0x3df8fa42	0.12157108
100	0x3d56212e	0.052277736
101	0xbc80fc9d	-0.015745455
102	0x3c9b5f2c	0.01896628
103	0xbd4d9862	-0.05019415
104	0x3de27c8b	0.11058911
105	0x3cf6df69	0.030135827
106	0x3e46e98c	0.19425029
107	0xbd98185a	-0.0742652
108	0xbe537d71	-0.20653321
109	0xbde795c7	-0.11307865
110	0xbbc9b908	-0.0061560906
111	0x3bb79951	0.0056029935
112	0xbd1d1fb9	-0.03836033
113	0x3dd13875	0.102158464
114	0x3ddaa07a	0.1067514
115	0xbdea8e44	-0.11452916
116	0x3dfdf52d	0.12400279
117	0x3dbb9a72	0.091603175
118	0x3d5a2f7d	0.053267945
119	0x3b591fde	0.0033130567
120	0xbdb838c3	-0.089952014
121	0x3dfdb89a	0.123887256
122	0x3e90e5f6	0.28300446
123	0x3dac6701	0.08418084
124	0xbd800584	-0.06251052
125	0xbd19b230	-0.03752345
126	0x3d786255	0.06064065
127	0xbd32b40a	-0.04362873
128	0x3ea128f2	0.3147655
129	0xbe790f1d	-0.24322172
130	0x3de3fc84	0.11132148
131	0x3d5c3ae9	0.05376712
132	0x3c1ca61b	0.009561087
133	0xbe27be57	-0.16381203
134	0xbdd1f62b	-0.10252031
135	0xbc736bf3	-0.01485728
136	0x3db5d3c8	0.08878285
137	0x3dcaddd2	0.0990559
138	0x3d2e6478	0.042576283
139	0xbe3dfb8a	-0.18552986
140	0xbe4043ba	-0.18775836
141	0x3de4e96a	0.11177333
142	0xbd4792be	-0.04872393
143	0x3cfbab66	0.030721378
144	0x3e42a03c	0.19006437
145	0xbd984d5f	-0.07436632
146	0x3d493a04	0.049127594
147	0x3e4650ca	0.19366756
148	0xbd8dcafe	-0.06923483
149	0x3e32978a	0.1744062
150	0xbdecad37	-0.115564756
151	0xbe973bc4	-0.29537785
152	0x3cfed1f1	0.031105967
153	0xbe979815	-0.29608217
154	0xbc772a50	-0.015085772
155	0xbd7d2315	-0.061801035
156	0x3e1c5617	0.15267216
157	0xbeb4429d	-0.35207072
158	0x3e709cf9	0.2349738
159	0xbe47b7d2	-0.19503716
160	0xbdb5db93	-0.08879771
161	0x3ea157cd	0.315123
162	0xbe4050a4	-0.18780762
163	0xbcdf9b63	-0.027295774
164	0x3d621190	0.05519253
165	0xbd174aba	-0.0369365
166	0xbd4c99c5	-0.049951334
167	0xbd913db8	-0.0709185
168	0xbe0d1474	-0.13777333
169	0xbe326a44	-0.1742335
170	0xbd9f3bdd	-0.0777509
171	0x3d15a015	0.03652962
172	0x3ec43507	0.38321707
173	0xbde7759b	-0.11301728
174	0x3e4c6b82	0.19962886
175	0xbd5dbb75	-0.05413385
176	0xbe072876	-0.13199028
177	0xbda5b9ff	-0.080921166
178	0xbdfa734b	-0.12229022
179	0xbe679769	-0.22616352
180	0x3d711d0f	0.058865603
181	0xbdde8edf	-0.10867094
182	0xbe1a20dc	-0.15051597
183	0xbe49a350	-0.19691205
184	0x3e115bc9	0.1419517
185	0x3d6343c9	0.055484567
186	0xbe81da69	-0.25361946
187	0x3ddb9983	0.107226394
188	0x3dc05f46	0.09393172
189	0x3e9ea196	0.30982655
190	0xbdb4853c	-0.08814475
191	0x3e0e0b9d	0.13871618
192	0xbe073499	-0.13203658
193	0xbbcbac3d	-0.0062156008
194	0xbd08471c	-0.03327094
195	0x3e979a27	0.29609796
196	0x3dc0dd5a	0.094172195
197	0xbe084da5	-0.13310869
198	0xbe1f624e	-0.15564844
199	0x3e07479c	0.1321091
200	0xbe10f75f	-0.14156865
201	0x3b36b35b	0.00278779
202	0x3da10d36	0.07863848
203	0x3d70cb86	0.058787845
204	0x3e067817	0.13131748
205	0x3dc72fe6	0.09725933
206	0x3d4f6cfc	0.050641045
207	0xbdc5caf9	-0.096578546
208	0xbdfc01d4	-0.12305036
209	0x3e0b87d0	0.13626027
210	0x3d28f9f6	0.041254006
211	0x3da86c7e	0.08223818
212	0x3d90baa4	0.07066849
213	0x3e0a3b49	0.13499178
214	0x3e1915d1	0.14949729
215	0xbce3340d	-0.02773478
216	0x3da83d30	0.082147956
217	0xbdc8fc24	-0.09813717
218	0x3e1a5a3a	0.15073481
219	0x3e4d30b0	0.20038104
220	0xbc083c49	-0.008315154
221	0x3ca3f1c0	0.020012736
222	0xbacae3e7	-0.0015479297
223	0xbd99cc31	-0.075096495
224	0xbe1df17c	-0.1542415
225	0xbdb8bf14	-0.0902082
226	0xbe092a97	-0.13395153
227	0xbb6e46f6	-0.0036358214
228	0x3e5e5870	0.21713424
229	0x3e2842f3	0.16431789
230	0x3c4a8532	0.012360858
231	0xbe2d5f01	-0.16930772
232	0xbd8e578b	-0.06950291
233	0x3e8bed88	0.2732966
234	0xbcc04710	-0.023471385
235	0x3d3ae5fd	0.04562949
236	0x3eb8ee67	0.36119387
237	0xbe1d4455	-0.15358098
238	0x3d167438	0.03673193
239	0xbbdd7a18	-0.0067589395
240	0xbe5ce60c	-0.21572131
241	0xbd39acbc	-0.045330748
242	0xbcbac38b	-0.02279832
243	0xbdd9829c	-0.10620615
244	0x3ec2dfb1	0.38061288
245	0x3e61c0c8	0.22046196
246	0xbe17a67b	-0.14809601
247	0x3d1166ce	0.035498433
248	0xbbd1cfd3	-0.0064029484
249	0xbdb572f0	-0.08859813
250	0x3e2d5f5b	0.16930906
251	0xbcc4c0a9	-0.024017649
252	0x3c833858	0.016018078
253	0x3c9fc244	0.019501813
254	0x3d387685	0.045034904
255	0xbaf14c36	-0.0018409553

bias f4 [64]
0	0xbd491642	-0.049093492
1	0xb98aeebc	-0.00026499282
2	0x3d89fd22	0.067377344
3	0xbc7eca3f	-0.015551149
4	0x3cbd8ee3	0.023139423
5	0x3d107be5	0.035274405
6	0x3a81b663	0.0009896274
7	0xbd12dc03	-0.03585435
8	0x3c9ca1c2	0.0191201
9	0xbd25d84f	-0.04048949
10	0xbd428afa	-0.04749582
11	0xbc049bf6	-0.008093825
12	0xbd16e58d	-0.03684001
13	0x3c95dcbc	0.01829373
14	0x3d7c020e	0.061525397
15	0x3c0230f1	0.007946239
16	0xbcb97a1f	-0.02264124
17	0x3a8fd44a	0.0010973301
18	0x3bf72cb3	0.0075431704
19	0x3c913f76	0.017730456
20	0xbb60d822	-0.0034308513
21	0x3b99e101	0.004696012
22	0x3dc80ef0	0.09768474
23	0xbcd40461	-0.025880994
24	0xbc8f6c1e	-0.017507609
25	0x3c3a3f2c	0.0113676
26	0xbccc8013	-0.024963414
27	0x3c0a1e33	0.008430052
28	0xbd00a319	-0.031405542
29	0x3bcf4296	0.0063250763
30	0x3c58fe86	0.013244277
31	0x3d007640	0.031362772
32	0xbc15064d	-0.0090957405
33	0xbb9df0d8	-0.0048199706
34	0xbc9d8e6b	-0.01923295
35	0xbd483843	-0.04888178
36	0xbd01cba3	-0.031688344
37	0xbd3cc176	-0.046082936
38	0x3d09fd45	0.033688802
39	0x3d058bd2	0.032604046
40	0x3bc892a0	0.0061209947
41	0xbced8334	-0.028993227
42	0x3ad094ea	0.001591352
43	0x3d38067c	0.04492806
44	0x3b9decf3	0.0048195063
45	0x3c18b1ea	0.009319762
46	0x3c003700	0.007825613
47	0xba932e02	-0.0011228921
48	0x3c1fd1dc	0.009754624
49	0x3c992018	0.018692061
50	0x3bcb8f66	0.006212163
51	0x390dc388	0.00013519649
52	0x3d7cd2f7	0.06172463
53	0xbbf8f764	-0.0075978506
54	0x3d012f7e	0.031539433
55	0x3d1a7ac1	0.037714723
56	0xbb366f03	-0.0027837164
57	0xbba68e7d	-0.005082904
58	0xbd962fed	-0.0733336
59	0x3c09e147	0.008415527
60	0x3c8a616c	0.016892157
61	0xbd2e2fc1	-0.04252601
62	0xbb86a375	-0.004108841
63	0x3d42d8cd	0.04757004

weight f4 [64, 2]
0	0x3f59c4a1	0.85065657
1	0x3f0695b4	0.5257218
2	0x3f7fffd6	0.9999975
3	0xbb152135	-0.0022755389
4	0x3f750bba	0.9572102
5	0x3e942b6e	0.28939384
6	0x3f732d3d	0.94990903
7	0xbea00382	-0.31252676
8	0xbee8c3e6	-0.4546196
9	0x3f6403f9	0.8906856
10	0xbf77b7d9	-0.96764904
11	0x3e812d79	0.25230005
12	0xbf1d8110	-0.6152506
13	0x3f49d01a	0.7883316
14	0x3f7a891b	0.97865456
15	0x3e5271eb	0.20551269
16	0x3f542dc7	0.8288235
17	0xbf0f3c0f	-0.5595102
18	0xbf641b67	-0.8910431
19	0x3ee8680b	0.45391878
20	0x3ed0ce6c	0.40782487
21	0x3f69be4f	0.9130601
22	0x3f63b8d9	0.8895393
23	0xbee9e960	-0.45685863
24	0xbe236bed	-0.15959139
25	0x3f7cb809	0.98718315
26	0xbf69260f	-0.910737
27	0xbed372ff	-0.41298673
28	0x3f13619a	0.57570803
29	0x3f5151db	0.81765527
30	0x3ebdfc27	0.3710644
31	0xbf6db933	-0.92860717
32	0xbf765022	-0.9621602
33	0x3e8b8314	0.27248442
34	0xbf5c2b0d	-0.8600319
35	0xbf029f1a	-0.5102402
36	0xbf54757c	-0.82991767
37	0x3f0ed19b	0.5578858
38	0x3f65e78f	0.89806455
39	0xbee135d2	-0.43986374
40	0xbf643674	-0.8914559
41	0xbee7fdb7	-0.45310757
42	0xbd8d806a	-0.06909259
43	0xbf7f6362	-0.9976102
44	0x3ed36cbd	0.41293898
45	0xbf69277b	-0.9107587
46	0x3d1748b8	0.036934584
47	0x3f7fd348	0.99931765
48	0x3dca9a7c	0.09892747
49	0x3f7ebe86	0.99509466
50	0x3f64cf48	0.89378786
51	0x3ee5a077	0.44848987
52	0xbea7a110	-0.32740068
53	0x3f71e405	0.94488555
54	0x3f064b98	0.52459097
55	0x3f59f25e	0.8513545
56	0xbe58fb03	-0.21189503
57	0x3f7a2fd7	0.9772925
58	0xbf7df7c3	-0.9920618
59	0xbe00c4f4	-0.12575132
60	0xbec6c043	-0.3881856
61	0x3f6becc0	0.92158127
62	0x3f639a4a	0.889073
63	0x3eea603e	0.45776552
64	0xbf2b76d2	-0.6697818
65	0xbf3e1847	-0.74255794
66	0xbf4121e1	-0.7544232
67	0xbf280911	-0.65638834
68	0x3f0eafd6	0.55737054
69	0x3f548c2d	0.8302639
70	0x3f3f0af2	0.74626076
71	0x3f2a6849	0.66565377
72	0xbeeb5c10	-0.45968676
73	0x3f635948	0.8880811
74	0xbf7b11d6	-0.9807409
75	0x3e48002e	0.19531319
76	0xbe873d06	-0.26413745
77	0x3f76e87e	0.96448505
78	0xbeaf6f71	-0.3426471
79	0xbf7080b9	-0.93946415
80	0x3e31e9ea	0.17374387
81	0x3f7c1b43	0.984791
82	0x3e8074c1	0.25089076
83	0x3f77cfdb	0.9680154
84	0x3e6dca58	0.2322172
85	0x3f790082	0.972664
86	0x3f48f22b	0.7849452
87	0x3f1e9bd2	0.6195651
88	0xbeb06b7e	-0.3445701
89	0x3f70529c	0.9387605
90	0x3f64aa4a	0.8932234
91	0xbee633b2	-0.44961315
92	0xbf74e759	-0.9566551
93	0xbe951b3a	-0.29122335
94	0xbf4fca5d	-0.81168157
95	0x3f158795	0.58410007
96	0x3f67fae9	0.90617234
97	0xbed8877d	-0.4229087
98	0xbf541eda	-0.82859576
99	0x3f0f522a	0.5598475
100	0xbebf3670	-0.3734622
101	0x3f6d7a2a	0.9276453
102	0xbf698b27	-0.91227955
103	0xbed1b2ee	-0.40956825
104	0x3eb5a7f1	0.35479692
105	0x3f6f5875	0.9349435
106	0xbf7f7155	-0.99782306
107	0xbd87102f	-0.06594884
108	0xbf0bf559	-0.54671246
109	0xbf565aa1	-0.8373204
110	0xbf73f6ed	-0.95298654
111	0x3e9b2483	0.30301294
112	0xbe794cb7	-0.2434567
113	0x3f784c24	0.9699118
114	0xb9c083ff	-0.00036719439
115	0x3f800000	1.0
116	0x3f7e0065	0.9921935
117	0x3dff66a3	0.12470748
118	0x3f5c0a71	0.8595343
119	0xbf02d602	-0.511078
120	0x3ede29c5	0.43391243
121	0x3f66a4fd	0.900955
122	0x3f6095f9	0.8772884
123	0xbef5bdce	-0.47996372
124	0xbef1f729	-0.4725888
125	0x3f619bc4	0.88128304
126	0xbf263f57	-0.649404
127	0x3f42ac6f	0.7604436

bias f4 [64]
0	0x00000000	0.0
1	0x00000000	0.0
2	0x00000000	0.0
3	0x00000000	0.0
4	0x00000000	0.0
5	0x00000000	0.0
6	0x00000000	0.0
7	0x00000000	0.0
8	0x00000000	0.0
9	0x00000000	0.0
10	0x00000000	0.0
11	0x00000000	0.0
12	0x00000000	0.0
13	0x00000000	0.0
14	0x00000000	0.0
15	0x00000000	0.0
16	0x00000000	0.0
17	0x00000000	0.0
18	0x00000000	0.0
19	0x00000000	0.0
20	0x00000000	0.0
21	0x00000000	0.0
22	0x00000000	0.0
23	0x00000000	0.0
24	0x00000000	0.0
25	0x00000000	0.0
26	0x00000000	0.0
27	0x00000000	0.0
28	0x00000000	0.0
29	0x00000000	0.0
30	0x00000000	0.0
31	0x00000000	0.0
32	0x00000000	0.0
33	0x00000000	0.0
34	0x00000000	0.0
35	0x00000000	0.0
36	0x00000000	0.0
37	0x00000000	0.0
38	0x00000000	0.0
39	0x00000000	0.0
40	0x00000000	0.0
41	0x00000000	0.0
42	0x00000000	0.0
43	0x00000000	0.0
44	0x00000000	0.0
45	0x00000000	0.0
46	0x00000000	0.0
47	0x00000000	0.0
48	0x00000000	0.0
49	0x00000000	0.0
50	0x00000000	0.0
51	0x00000000	0.0
52	0x00000000	0.0
53	0x00000000	0.0
54	0x00000000	0.0
55	0x00000000	0.0
56	0x00000000	0.0
57	0x00000000	0.0
58	0x00000000	0.0
59	0x00000000	0.0
60	0x00000000	0.0
61	0x00000000	0.0
62	0x00000000	0.0
63	0x00000000	0.0

weight f4 [64, 64]
0	0x3a9a6475	0.0011779206
1	0x3db1fa16	0.08690278
2	0xbe281e91	-0.1641791
3	0x3db006b0	0.085950255
4	0xbdf5dae1	-0.120046385
5	0x3dcea6f2	0.10090436
6	0x3db35e34	0.08758202
7	0xbeadfd85	-0.33982483
8	0x3de706de	0.11280607
9	0x3d21d792	0.039512224
10	0xbd9b8ad2	-0.07594837
11	0x3daa3984	0.083117515
12	0x3e3b0664	0.18264157
13	0x3d9ccad4	0.07655874
14	0x3ddf2678	0.10896009
15	0xbdc9449b	-0.098275386
16	0xbe412cd8	-0.18864763
17	0x3e057fc0	0.13037014
18	0xbba95467	-0.0051675322
19	0xbd659b27	-0.056056168
20	0x3c3fc645	0.011704986
21	0xbe6eef62	-0.23333505
22	0x3dfc0c6e	0.12307058
23	0xbdbe1af3	-0.09282484
24	0xbe10cea5	-0.14141329
25	0xbd5b133a	-0.053485133
26	0xbce60124	-0.028076716
27	0xbcfdcf1c	-0.030982547
28	0x3e27a941	0.16373159
29	0x3d8fe918	0.07026881
30	0xbd923d1a	-0.071405604
31	0xbe591a09	-0.21201338
32	0xbdb56824	-0.08857754
33	0x3dc235ee	0.094829425
34	0xbe800bec	-0.25009096
35	0xbc0caf6f	-0.0085867485
36	0x3dffe4c0	0.124948025
37	0x3e0eaccc	0.13933104
38	0xbd7fc695	-0.062445242
39	0x3e1736cb	0.14766996
40	0x3c0cb1ca	0.00858731
41	0xbe98998a	-0.2980464
42	0xbc301ff7	-0.0107498085
43	0x3dd49349	0.10379655
44	0xbe063f64	-0.13110119
45	0xbe2bdb36	-0.16782841
46	0x3e61cd93	0.22051077
47	0x3d3a73ad	0.045520473
48	0xbdcdbcae	-0.100457534
49	0xbd377051	-0.044784848
50	0x3dc78e12	0.09743895
51	0xbd44aedf	-0.048018333
52	0xbd99f1cf	-0.075168245
53	0x3e55acc8	0.20866692
54	0x3e212af1	0.15739037
55	0x3da9df70	0.082945704
56	0xbd564e6b	-0.05232088
57	0xbd87c527	-0.06629401
58	0xbdf08a00	-0.117450714
59	0x3ca99443	0.02070058
60	0x3c59f932	0.013304042
61	0x3d3a31e4	0.045457736
62	0x3c94e081	0.018173458
63	0x3e073ddf	0.13207196
64	0xbe34728f	-0.17621826
65	0x3d9f6581	0.07783032
66	0x3dc8c0bc	0.09802386
67	0x3e1cd18f	0.15314315
68	0xbbf980eb	-0.007614245
69	0x3d86bedf	0.065793745
70	0x3dd34338	0.10315555
71	0xbd9bde94	-0.07610813
72	0x3ddf18ef	0.108934276
73	0x3e3fcf40	0.18731403
74	0xbe1d7d58	-0.15379846
75	0xbe11065f	-0.14162587
76	0x3e02defc	0.12780374
77	0xbcfba8cf	-0.030720143
78	0xbe5eb490	-0.21748567
79	0xbdbdacb6	-0.092614576
80	0x3dc25bf1	0.09490193
81	0x3d67361e	0.056448095
82	0x3dc3f09a	0.095673755
83	0xbe3e40b0	-0.18579364
84	0xbd85868a	-0.06519802
85	0x3ddc55e3	0.10758569
86	0xbcc215da	-0.02369206
87	0x3e013eba	0.12621585
88	0x396122c2	0.0002147062
89	0x3d3d8e46	0.04627826
90	0xbe013fca	-0.1262199
91	0xbd6c393b	-0.057671767
92	0x3d174d33	0.036938857
93	0x3e6615fa	0.22469321
94	0x3e61d761	0.22054817
95	0xbd92cb09	-0.07167632
96	0x3db6a81d	0.08918784
97	0xbe067628	-0.1313101
98	0x3e4bf007	0.19915782
99	0x3d6fe174	0.05856462
100	0xbd3aef62	-0.04563845
101	0xbe24b9d1	-0.16086508
102	0x3d59f695	0.053213675
103	0xbe6641b3	-0.22486
104	0xbe368253	-0.17823152
105	0xbd9b4c8e	-0.07582961
106	0x3e1d3dbf	0.15355586
107	0xbd71f4d8	-0.05907139
108	0x3dcb3797	0.09922712
109	0x3db3494c	0.08754215
110	0xbcfb12f6	-0.03064869
111	0x3e3d4695	0.18483956
112	0x3e9c1673	0.30485877
113	0xbd901b3e	-0.07036446
114	0x3c8d5065	0.01725025
115	0x3ddeef64	0.10885504
116	0xbc00bd52	-0.0078576375
117	0xbd8807c1	-0.06642104
118	0xbca3c2ac	-0.019990288
119	0xbe19b441	-0.15010168
120	0x3e009e80	0.12560463
121	0xbde6a6b3	-0.11262264
122	0xbda31aee	-0.07964121
123	0xbd540000	-0.051757812
124	0x3cfef511	0.031122716
125	0xbe56e333	-0.20985107
126	0xbe4ad440	-0.1980753
127	0x3d8101b8	0.06299156
128	0x3d31972c	0.04335706
129	0x3e801480	0.2501564
130	0xbdeaf787	-0.11472993
131	0x3dc60f24	0.096708566
132	0x3e54a518	0.20766103
133	0x3d3af23a	0.04564116
134	0xbb55957a	-0.0032590316
135	0x3e06424f	0.13111232
136	0xbe29161b	-0.16512339
137	0xbc11ecee	-0.008906586
138	0x3e004dff	0.12529753
139	0xbda7f795	-0.082015194
140	0xbcbaec73	-0.022817826
141	0xbe258dca	-0.1616737
142	0xbdfa60c4	-0.12225488
143	0x3d8f3c30	0.06993902
144	0x3d0d7163	0.034531962
145	0x3c3e1911	0.011602656
146	0x3e8dd185	0.27698913
147	0xbd4bc7f8	-0.049751252
148	0x3d54eaa2	0.051981576
149	0xbd0e62f6	-0.034762345
150	0x3d2eea88	0.042704135
151	0xbcf61b88	-0.030042425
152	0x3dd0dee5	0.10198764
153	0x3de72306	0.11285977
154	0xbe93d1a8	-0.28870893
155	0x3e30182d	0.17196722
156	0xbc5b69fe	-0.01339197
157	0x3cf8f789	0.030391471
158	0x3cf12fec	0.029441796
159	0x3d8a54f8	0.06754488
160	0xbddf6ea7	-0.10909777
161	0x3d76e94a	0.060281076
162	0xbc983dc5	-0.018584142
163	0x3e1d5406	0.15364084
164	0x3d83eafc	0.06441304
165	0xbdfd177f	-0.12357997
166	0xbdc6faee	-0.0971583
167	0x3db44238	0.08801693
168	0x3c55ba8c	0.0130449645
169	0x3d53127f	0.05153131
170	0x3cf8976e	0.030345645
171	0xbd6d7d83	-0.057981025
172	0xbc7dd647	-0.015492982
173	0xbd02eff8	-0.031967133
174	0xbdb24624	-0.087047845
175	0xbd03ef32	-0.032210536
176	0x3ea61af9	0.32442454
177	0xbd91d98a	-0.071215704
178	0x3db0c010	0.08630383
179	0xbd06327c	-0.03276299
180	0xbbdaccbf	-0.0066772397
181	0xbe1131e8	-0.14179194
182	0x3add7b57	0.001689772
183	0x3e1d0581	0.15334131
184	0xbe4c3841	-0.19943334
185	0xbda26479	-0.0792932
186	0xbe208833	-0.15676956
187	0xbe08fe6e	-0.13378307
188	0xbda24513	-0.07923331
189	0xbe9689ae	-0.29401916
190	0xbe945d6b	-0.28977522
191	0xbd7b8efd	-0.06141566
192	0xbe0a5469	-0.13508762
193	0x3c004a1e	0.007830171
194	0xbe20efe2	-0.15716508
195	0x3e847e53	0.25877628
196	0x3e651055	0.22369511
197	0xbe1392c5	-0.14411457
198	0x3d80509e	0.062653765
199	0xbe5cff61	-0.21581794
200	0xbdb2a6a0	-0.087231874
201	0x3d860421	0.06543756
202	0x3c98a694	0.018634118
203	0xbe99a59b	-0.3000916
204	0x3d70758c	0.05870585
205	0x3e015fd3	0.1263421
206	0xbd840c90	-0.064477086
207	0x3e81e7be	0.25372118
208	0xbb0edca2	-0.0021798988
209	0xbdc818ba	-0.09770341
210	0x3df02ee0	0.11727691
211	0x3ccd00e4	0.025024839
212	0x3d9b3548	0.07578522
213	0xbdf5a57b	-0.119944535
214	0x3de74aad	0.1129354
215	0xbdeb941b	-0.11502858
216	0xbdb39d9d	-0.08770297
217	0x3c962652	0.01832882
218	0xbdcc4f14	-0.099760205
219	0xbd37a59b	-0.044835668
220	0x3de2dbed	0.11077104
221	0x3dad1fd8	0.08453339
222	0xbdc21ce9	-0.094781704
223	0x3d198307	0.037478473
224	0x3d94c40f	0.07263958
225	0x3d5b1219	0.053484056
226	0x3d81bd84	0.06334975
227	0xbda991d3	-0.08279767
228	0xbdadf730	-0.08494413
229	0xbe5f7c6d	-0.21824808
230	0xbc5af9f4	-0.0133652575
231	0x3dcf8cda	0.10134287
232	0xbd8168b6	-0.063188
233	0x3dd5bb1e	0.104360804
234	0x3da5e272	0.08099832
235	0x3d294a10	0.041330397
236	0xbdec247a	-0.11530395
237	0x3db32202	0.08746721
238	0x3e0a8555	0.13527425
239	0x3e1a834a	0.15089145
240	0xbdf1cbbb	-0.11806437
241	0x3e587893	0.21139745
242	0x3e002893	0.12515478
243	0xbe0af3f2	-0.1356962
244	0xbda294df	-0.07938551
245	0xbe335dd4	-0.17516261
246	0xbd4da314	-0.05020435
247	0xbba26817	-0.004956256
248	0xbd2cb2b9	-0.04216263
249	0xbb68f09d	-0.0035543807
250	0xbc9d0ad9	-0.019170212
251	0x3e8073c8	0.25088334
252	0x3c98164f	0.018565325
253	0x3e4d73d7	0.2006372
254	0xbd2cd032	-0.042190738
255	0x3e63b8a3	0.22238402

bias f4 [64]
0	0x00000000	0.0
1	0x00000000	0.0
2	0x00000000	0.0
3	0x00000000	0.0
4	0x00000000	0.0
5	0x00000000	0.0
6	0x00000000	0.0
7	0x00000000	0.0
8	0x00000000	0.0
9	0x00000000	0.0
10	0x00000000	0.0
11	0x00000000	0.0
12	0x00000000	0.0
13	0x00000000	0.0
14	0x00000000	0.0
15	0x00000000	0.0
16	0x00000000	0.0
17	0x00000000	0.0
18	0x00000000	0.0
19	0x00000000	0.0
20	0x00000000	0.0
21	0x00000000	0.0
22	0x00000000	0.0
23	0x00000000	0.0
24	0x00000000	0.0
25	0x00000000	0.0
26	0x00000000	0.0
27	0x00000000	0.0
28	0x00000000	0.0
29	0x00000000	0.0
30	0x00000000	0.0
31	0x00000000	0.0
32	0x00000000	0.0
33	0x00000000	0.0
34	0x00000000	0.0
35	0x00000000	0.0
36	0x00000000	0.0
37	0x00000000	0.0
38	0x00000000	0.0
39	0x00000000	0.0
40	0x00000000	0.0
41	0x00000000	0.0
42	0x00000000	0.0
43	0x00000000	0.0
44	0x00000000	0.0
45	0x00000000	0.0
46	0x00000000	0.0
47	0x00000000	0.0
48	0x00000000	0.0
49	0x00000000	0.0
50	0x00000000	0.0
51	0x00000000	0.0
52	0x00000000	0.0
53	0x00000000	0.0
54	0x00000000	0.0
55	0x00000000	0.0
56	0x00000000	0.0
57	0x00000000	0.0
58	0x00000000	0.0
59	0x00000000	0.0
60	0x00000000	0.0
61	0x00000000	0.0
62	0x00000000	0.0
63	0x00000000	0.0

weight f4 [1, 64]
0	0x3d16d3e8	0.036823183
1	0x3e2f5086	0.17120561
2	0x3c90b89a	0.01766615
3	0xbd26ed93	-0.040753912
4	0xbcb39d00	-0.02192545
5	0xbd25d253	-0.040483784
6	0xbd668dfc	-0.05628775
7	0xbe300958	-0.17191064
8	0x3e057dae	0.13036224
9	0xbe0247ce	-0.12722704
10	0x3e46cd6b	0.19414298
11	0x3cf2d0b1	0.029640527
12	0xbe17516f	-0.14777158
13	0xbd548667	-0.05188599
14	0xbd03380d	-0.032035876
15	0x3c87335e	0.016503986
16	0xbc3b99f7	-0.011450282
17	0xbdda5160	-0.10660052
18	0x3dd5d412	0.1044084
19	0x3ddb7cd0	0.107171655
20	0xbdd3656c	-0.10322079
21	0x3e63a95f	0.22232579
22	0x3dc09570	0.09403503
23	0xbd9102ae	-0.07080589
24	0x3e0b244c	0.13588065
25	0x3ac1f004	0.0014796262
26	0x3ec2ed6c	0.38071764
27	0x3e8329de	0.2561788
28	0x3bd478b0	0.0064841136
29	0x3dc4fbe2	0.09618355
30	0x3e33d8ec	0.17563218
31	0xbd1e4f22	-0.038649686
32	0x3e11a721	0.14223911
33	0x3e3d1b4b	0.18467443
34	0x3e00ae81	0.12566568
35	0xbe489b16	-0.1959041
36	0xbcc2ef2c	-0.023795687
37	0x3e18b854	0.14914066
38	0x3c9f3f43	0.019439345
39	0x3e3fca0c	0.18729419
40	0x3d1bc7d9	0.038032386
41	0xbdfa65c9	-0.12226445
42	0xbe70b273	-0.23505573
43	0x3e1eb448	0.1549846
44	0x3dd8f4ad	0.10593543
45	0xbdb20379	-0.086920686
46	0xbdf60eed	-0.120145656
47	0xbc8fe38e	-0.017564561
48	0xbdb982ed	-0.09058175
49	0xbd857fc9	-0.06518514
50	0xbce6ebd6	-0.028188627
51	0xbd3c35ea	-0.045949854
52	0x3dfe9f1c	0.124326915
53	0x3e9369bb	0.28791603
54	0x3dcd34a8	0.10019809
55	0xbcf6e8dd	-0.030140335
56	0xbc4512db	-0.012028421
57	0xbd25182f	-0.040306266
58	0xbd076d12	-0.033063002
59	0x3e098735	0.13430484
60	0x3dccc5e9	0.09998686
61	0x3d7f74cb	0.06236724
62	0xbb08af86	-0.0020856573
63	0x3d03a4df	0.032139655
