dir_save_test_BC/we0_actor_pre_train.pth (torch, 19568 bytes, 4 tensors)

0.weight f4 [64, 2]
-0.36384404 0.5409045 0.77729315 1.0964091 0.0026203827 4.50325 -0.006964198 3.65189
-0.0022968561 -3.885414 0.033763986 3.1162117 -0.0081064515 -1.6042135 -0.032405317 -0.6805635
0.89752173 -0.12508559 0.15344416 2.5814438 -1.0219584 -0.5871399 -0.007361932 -3.9646149
0.2204184 -0.30458513 -0.27511036 1.6860158 0.9621074 -0.4176937 -0.2284876 -0.51112807
-0.0016562231 4.2746696 0.32223877 0.90927374 0.0009369697 4.7041216 -0.011233485 -4.034356
-0.0051782536 -4.315711 -0.004153099 3.4952488 -0.6115518 0.35645577 0.033115704 -1.5283034
-0.116376065 -2.2844837 -0.00010801415 -3.63287 0.0468745 -1.3852077 0.6118549 -0.16004539
-0.00070583774 3.685656 1.0183831 -0.56831187 -1.2929413 0.7317299 1.1658392 0.32513466
-0.0029854653 -3.736927 -1.0699266 -0.4572036 0.016306564 -2.954306 -0.37191072 -0.6993775
-3.0940457e-05 3.5702937 0.35155016 0.37917942 -0.015044897 -3.717452 0.06161344 0.3791166
-0.0007297466 4.2379994 0.24467222 0.27273962 -1.0323713 0.453238 -0.0059356876 -6.1582546
0.00022828698 3.422658 0.06854309 0.7033461 -1.1988178 -0.2372736 0.041637283 0.27026603
0.21511032 0.45534813 -0.004410469 -4.041644 -0.0037925 -3.8922286 0.0022308407 -3.770809
-0.050188486 0.9677448 0.010566171 4.5023274 0.3233389 -1.3244904 0.77599865 -0.7614707
-0.020324316 -0.80828816 0.0016065568 3.1150107 0.00051049236 -3.588279 -0.0025042365 -4.1659045
-0.4567985 0.68259454 -0.416933 -2.300302 0.2356887 -2.0877285 0.021416921 -0.9212894
00000000: c449 babe b878 0a3f affc 463f 2257 8c3f
00000010: baba 2b3b a01a 9040 ed33 e4bb 91b8 6940
00000020: da86 16bb 9faa 78c0 1b4c 0a3d 0370 4740
00000030: ecd0 04bc de56 cdbf 70bb 04bd 6939 2ebf
00000040: fcc3 653f 7016 00be 7720 1d3e 6036 2540
00000050: 88cf 82bf cd4e 16bf 5d3c f1bb 40bc 7dc0
00000060: 5cb5 613e 95f2 9bbe 44db 8cbe 5ecf d73f
00000070: ac4c 763f f3db d5be a7f8 69be 4ad9 02bf
00000080: a015 d9ba 18ca 8840 7bfc a43e 2ac6 683f
00000090: f99e 753a 2a88 9640 a70c 38bc 7219 81c0
000000a0: 57ae a9bb 4e1a 8ac0 b816 88bb 28b2 5f40
000000b0: a98e 1cbf 5f81 b63e 55a4 073d 729f c3bf
000000c0: 9356 eebd fb34 12c0 a885 e2b8 f180 68c0
000000d0: 7aff 3f3d 7c4e b1bf 86a2 1c3f f0e2 23be
000000e0: f807 39ba cae1 6b40 615a 823f e37c 11bf
000000f0: 1a7f a5bf a752 3b3f 383a 953f 0d78 a63e
00000100: cca7 43bb d029 6fc0 5bf3 88bf 9716 eabe
00000110: 5895 853c 5913 3dc0 156b bebe 670a 33bf
00000120: 10c6 01b8 b17f 6440 62fe b33e ce23 c23e
00000130: df7e 76bc bcea 6dc0 605e 7c3d 921b c23e
00000140: 774c 3fba b19d 8740 5b8b 7a3e 87a4 8b3e
00000150: be24 84bf d00e e83e 2880 c2bb 6c10 c5c0
00000160: 5260 6f39 d40c 5b40 5260 8c3d 7d0e 343f
00000170: dd72 99bf daf7 72be db8b 2a3d 4f60 8a3e
00000180: e145 5c3e 6423 e93e b285 90bb 2655 81c0
00000190: 978b 78bb 461a 79c0 4c33 123b ef54 71c0
000001a0: 7192 4dbd 20be 773f bc1d 2d3c 1113 9040
000001b0: ad8c a53e e788 a9bf d9a7 463f beef 42bf
000001c0: 2e7f a6bc f9eb 4ebf 1a93 d23a 565c 4740
000001d0: 90d2 053a 5da6 65c0 1e1e 24bb 174f 85c0
000001e0: 7ee1 e9be 84be 2e3f 3e78 d5be 2638 13c0
000001f0: 6158 713e 589d 05c0 8a72 af3c 9fd9 6bbf

0.bias f4 [64]
0.058234055 0.11414162 0.022436274 -0.04827331 -0.018410932 -0.00655598 -0.046937313 0.015496695
0.060620196 0.0044025085 -0.06982426 -0.04654941 -0.038522143 -0.018869575 0.08943473 -0.06103628
-0.05037413 0.04598735 -0.03491814 -0.029891795 -0.028938228 -0.05807927 -0.0039356784 -0.0057674395
-0.04869843 0.027697284 0.05349599 0.045842074 -0.017249355 0.02270694 -0.017732779 0.000620721
-0.012916768 -0.056973416 -0.005155785 -0.010100302 -0.020380385 -0.014388049 -0.03403014 -0.009875993
-0.028631827 -0.046219863 -0.025797417 -0.0068876348 -0.0131214075 -0.024375072 -0.022909688 -0.028017096
-0.0040349434 -0.026868423 -0.012234436 0.028103411 0.024581054 -0.037201375 0.08431164 0.025736848
-0.010080534 -0.031762738 0.025743011 -0.012028744 -0.011915395 -0.00998081 0.049365982 -0.016555192
00000000: d586 6e3d 15c3 e93d 47cc b73c 3cba 45bd
00000010: 86d2 96bc 8cd3 d6bb 5741 40bd dae5 7d3c
00000020: e24c 783d eb42 903b 0600 8fbd 98aa 3ebd
00000030: 65c9 1dbd 5e94 9abc 8e29 b73d 2e01 7abd
00000040: 1b55 4ebd 3b5d 3c3d 5306 0fbd a3df f4bc
00000050: dd0f edbc 87e4 6dbd ddf6 80bb cafc bcbb
00000060: 0178 47bd 6ae5 e23c 9c1e 5b3d e6c4 3b3d
00000070: 854e 8dbc e803 ba3c 5544 91bc e2b7 223a
00000080: daa0 53bc f55c 69bd dcf1 a8bb bd7b 25bc
00000090: c4f4 a6bc dabb 6bbc 3063 0bbd ebce 21bc
000000a0: 4b8d eabc 0a51 3dbd 1b55 d3bc abb1 e1bb
000000b0: 2cfb 56bc 3bae c7bc 19ad bbbc 1c84 e5bc
000000c0: 8f37 84bb 2b1b dcbc f272 48bc 2039 e63c
000000d0: 355e c93c 7860 18bd 95ab ac3d 15d6 d23c
000000e0: d328 25bc a519 02bd 02e3 d23c 3614 45bc
000000f0: ca38 43bc 8d86 23bc fc33 4a3d c19e 87bc

2.weight f4 [64, 64]
-0.042284947 0.06453127 0.034027196 -0.19626017 0.1470974 0.17377558 -0.063571654 0.031675432
-0.16014563 -0.0049745785 -0.0818158 0.056069445 -0.1313138 -0.18185732 -0.04357412 -0.09419321
-0.035335395 0.23968758 0.14229064 -0.033705015 0.01264276 -0.20310317 0.15099072 0.24934532
-0.035010926 0.18492088 0.029189315 -0.1297511 -0.31400034 -0.070692286 -0.25787282 -0.04435418
-0.088790186 -0.05272503 0.41314915 0.07158837 -0.08458376 0.08670093 0.012188484 -0.10242946
-0.07846326 0.042104118 -0.07988326 -0.13687979 -0.16769609 -0.17461374 0.23747346 -0.035820108
-0.05562295 -0.082666375 0.03155687 0.11077795 -0.03569003 -0.005762548 -0.16599274 0.15703212
-0.12941517 0.12461046 0.11155299 0.03857727 -0.013989972 0.25897473 0.002204554 -0.16065714
0.011158722 -0.06377644 -0.096003905 0.05564802 0.32077786 -0.05095936 -0.2850492 0.07365416
0.0470555 0.21915397 0.010580916 0.09963794 0.10630033 0.19477949 -0.03189971 0.1397898
-0.11896553 0.21645238 -0.24389794 -0.063307695 0.06377361 0.0063520335 0.08443205 -0.2012295
0.08547761 0.28427452 0.27913234 0.07004314 -0.19064312 0.09379177 -0.1830882 -0.088869706
0.2490635 -0.0075735888 -0.39685223 0.12157108 0.052277736 -0.015745455 0.01896628 -0.05019415
0.11058911 0.030135827 0.19425029 -0.0742652 -0.20653321 -0.11307865 -0.0061560906 0.0056029935
-0.03836033 0.102158464 0.1067514 -0.11452916 0.12400279 0.091603175 0.053267945 0.0033130567
-0.089952014 0.123887256 0.28300446 0.08418084 -0.06251052 -0.03752345 0.06064065 -0.04362873
0.3147655 -0.24322172 0.11132148 0.05376712 0.009561087 -0.16381203 -0.10252031 -0.01485728
0.08878285 0.0990559 0.042576283 -0.18552986 -0.18775836 0.11177333 -0.04872393 0.030721378
0.19006437 -0.07436632 0.049127594 0.19366756 -0.06923483 0.1744062 -0.115564756 -0.29537785
0.031105967 -0.29608217 -0.015085772 -0.061801035 0.15267216 -0.35207072 0.2349738 -0.19503716
-0.08879771 0.315123 -0.18780762 -0.027295774 0.05519253 -0.0369365 -0.049951334 -0.0709185
-0.13777333 -0.1742335 -0.0777509 0.03652962 0.38321707 -0.11301728 0.19962886 -0.05413385
-0.13199028 -0.080921166 -0.12229022 -0.22616352 0.058865603 -0.10867094 -0.15051597 -0.19691205
0.1419517 0.055484567 -0.25361946 0.107226394 0.09393172 0.30982655 -0.08814475 0.13871618
-0.13203658 -0.0062156008 -0.03327094 0.29609796 0.094172195 -0.13310869 -0.15564844 0.1321091
-0.14156865 0.00278779 0.07863848 0.058787845 0.13131748 0.09725933 0.050641045 -0.096578546
-0.12305036 0.13626027 0.041254006 0.08223818 0.07066849 0.13499178 0.14949729 -0.02773478
0.082147956 -0.09813717 0.15073481 0.20038104 -0.008315154 0.020012736 -0.0015479297 -0.075096495
-0.1542415 -0.0902082 -0.13395153 -0.0036358214 0.21713424 0.16431789 0.012360858 -0.16930772
-0.06950291 0.2732966 -0.023471385 0.04562949 0.36119387 -0.15358098 0.03673193 -0.0067589395
-0.21572131 -0.045330748 -0.02279832 -0.10620615 0.38061288 0.22046196 -0.14809601 0.035498433
-0.0064029484 -0.08859813 0.16930906 -0.024017649 0.016018078 0.019501813 0.045034904 -0.0018409553
00000000: fb32 2dbd f828 843d 1a60 0b3d 6df8 48be
00000010: b3a0 163e 3af2 313e db31 82bd 19be 013d
00000020: 37fd 23be ca01 a3bb 0b8f a7bd 13a9 653d
00000030: 2077 06be ce38 3abe c77a 32bd 5fe8 c0bd
00000040: d9bb 10bd a970 753e a3b4 113e 450e 0abd
00000050: 9423 4f3c 47fa 4fbe 509d 1a3e 6154 7f3e
00000060: 9e67 0fbd e65b 3d3e 6e1e ef3c 79dd 04be
00000070: a7c4 a0be 1ec7 90bd e807 84be bbac 35bd
00000080: a1d7 b5bd 33f6 57bd 4988 d33e ec9c 923d
00000090: 403a adbd 4290 b13d 35b2 473c 89c6 d1bd
000000a0: 58b1 a0bd 5e75 2c3d d699 a3bd 372a 0cbe
000000b0: 86b8 2bbe f2cd 32be 3e2c 733e 1bb8 12bd
000000c0: e4d4 63bd fd4c a9bd c741 013d 8ddf e23d
000000d0: b52f 12bd c2d3 bcbb 00fa 29be 07cd 203e
000000e0: 6985 04be c533 ff3d e575 e43d 3303 1e3d
000000f0: 3236 65bc 5698 843e 477a 103b 4e83 24be
00000100: 13d3 363c 399d 82bd b29d c4bd 2eef 633d
00000110: ff3c a43e c3ba 50bd f8f1 91be fed7 963d
00000120: 45bd 403d e669 603e 945b 2d3c fa0e cc3d
00000130: fdb3 d93d 4674 473e 45a9 02bd 0f25 0f3e
00000140: 33a4 f3bd b1a5 5d3e 62c0 79be 77a7 81bd
00000150: bd9b 823d b824 d03b b6ea ac3d 1b0f 4ebe
00000160: e30e af3d 6e8c 913e 6fea 8e3e c772 8f3d
00000170: f337 43be e615 c03d 797b 3bbe 5201 b6bd
00000180: 810a 7f3e de2b f8bb 3730 cbbe 42fa f83d
00000190: 2e21 563d 9dfc 80bc 2c5f 9b3c 6298 4dbd
000001a0: 8b7c e23d 69df f63c 8ce9 463e 5a18 98bd
000001b0: 717d 53be c795 e7bd 08b9 c9bb 5199 b73b
000001c0: b91f 1dbd 7538 d13d 7aa0 da3d 448e eabd
000001d0: 2df5 fd3d 729a bb3d 7d2f 5a3d de1f 593b
000001e0: c338 b8bd 9ab8 fd3d f6e5 903e 0167 ac3d
000001f0: 8405 80bd 30b2 19bd 5562 783d 0ab4 32bd
00000200: f228 a13e 1d0f 79be 84fc e33d e93a 5c3d
00000210: 1ba6 1c3c 57be 27be 2bf6 d1bd f36b 73bc
00000220: c8d3 b53d d2dd ca3d 7864 2e3d 8afb 3dbe
00000230: ba43 40be 6ae9 e43d be92 47bd 66ab fb3c
00000240: 3ca0 423e 5f4d 98bd 043a 493d ca50 463e
00000250: feca 8dbd 8a97 323e 37ad ecbd c43b 97be
00000260: f1d1 fe3c 1598 97be 502a 77bc 1523 7dbd
00000270: 1756 1c3e 9d42 b4be f99c 703e d2b7 47be
00000280: 93db b5bd cd57 a13e a450 40be 639b dfbc
00000290: 9011 623d ba4a 17bd c599 4cbd b83d 91bd
000002a0: 7414 0dbe 446a 32be dd3b 9fbd 15a0 153d
000002b0: 0735 c43e 9b75 e7bd 826b 4c3e 75bb 5dbd
000002c0: 7628 07be ffb9 a5bd 4b73 fabd 6997 67be
000002d0: 0f1d 713d df8e debd dc20 1abe 50a3 49be
000002e0: c95b 113e c943 633d 69da 81be 8399 db3d
000002f0: 465f c03d 96a1 9e3e 3c85 b4bd 9d0b 0e3e
00000300: 9934 07be 3dac cbbb 1c47 08bd 279a 973e
00000310: 5add c03d a54d 08be 4e62 1fbe 9c47 073e
00000320: 5ff7 10be 5bb3 363b 360d a13d 86cb 703d
00000330: 1778 063e e62f c73d fc6c 4f3d f9ca c5bd
00000340: d401 fcbd d087 0b3e f6f9 283d 7e6c a83d
00000350: a4ba 903d 493b 0a3e d115 193e 0d34 e3bc
00000360: 303d a83d 24fc c8bd 3a5a 1a3e b030 4d3e
00000370: 493c 08bc c0f1 a33c e7e3 caba 31cc 99bd
00000380: 7cf1 1dbe 14bf b8bd 972a 09be f646 6ebb
00000390: 7058 5e3e f342 283e 3285 4a3c 015f 2dbe
000003a0: 8b57 8ebd 88ed 8b3e 1047 c0bc fde5 3a3d
000003b0: 67ee b83e 5544 1dbe 3874 163d 187a ddbb
000003c0: 0ce6 5cbe bcac 39bd 8bc3 babc 9c82 d9bd
000003d0: b1df c23e c8c0 613e 7ba6 17be ce66 113d
000003e0: d3cf d1bb f072 b5bd 5b5f 2d3e a9c0 c4bc
000003f0: 5838 833c 44c2 9f3c 8576 383d 364c f1ba

2.bias f4 [64]
-0.049093492 -0.00026499282 0.067377344 -0.015551149 0.023139423 0.035274405 0.0009896274 -0.03585435
0.0191201 -0.04048949 -0.04749582 -0.008093825 -0.03684001 0.01829373 0.061525397 0.007946239
-0.02264124 0.0010973301 0.0075431704 0.017730456 -0.0034308513 0.004696012 0.09768474 -0.025880994
-0.017507609 0.0113676 -0.024963414 0.008430052 -0.031405542 0.0063250763 0.013244277 0.031362772
-0.0090957405 -0.0048199706 -0.01923295 -0.04888178 -0.031688344 -0.046082936 0.033688802 0.032604046
0.0061209947 -0.028993227 0.001591352 0.04492806 0.0048195063 0.009319762 0.007825613 -0.0011228921
0.009754624 0.018692061 0.006212163 0.00013519649 0.06172463 -0.0075978506 0.031539433 0.037714723
-0.0027837164 -0.005082904 -0.0733336 0.008415527 0.016892157 -0.04252601 -0.004108841 0.04757004
00000000: 4216 49bd bcee 8ab9 22fd 893d 3fca 7ebc
00000010: e38e bd3c e57b 103d 63b6 813a 03dc 12bd
00000020: c2a1 9c3c 4fd8 25bd fa8a 42bd f69b 04bc
00000030: 8de5 16bd bcdc 953c 0e02 7c3d f130 023c
00000040: 1f7a b9bc 4ad4 8f3a b32c f73b 763f 913c
00000050: 22d8 60bb 01e1 993b f00e c83d 6104 d4bc
00000060: 1e6c 8fbc 2c3f 3a3c 1380 ccbc 331e 0a3c
00000070: 19a3 00bd 9642 cf3b 86fe 583c 4076 003d
00000080: 4d06 15bc d8f0 9dbb 6b8e 9dbc 4338 48bd
00000090: a3cb 01bd 76c1 3cbd 45fd 093d d28b 053d
000000a0: a092 c83b 3483 edbc ea94 d03a 7c06 383d
000000b0: f3ec 9d3b eab1 183c 0037 003c 022e 93ba
000000c0: dcd1 1f3c 1820 993c 668f cb3b 88c3 0d39
000000d0: f7d2 7c3d 64f7 f8bb 7e2f 013d c17a 1a3d
000000e0: 036f 36bb 7d8e a6bb ed2f 96bd 47e1 093c
000000f0: 6c61 8a3c c12f 2ebd 75a3 86bb cdd8 423d
