dir_save_test_BC/we0_actor_final.pth (torch, 19536 bytes, 4 tensors)

0.weight f4 [64, 2]
000000 4f 88 39 be c5 fe 0b 3f 8e 7a 0e 3f ff 8a 97 3f
       -0.18118404 0.5468562 0.55655754 1.1839293
000010 86 01 fb 3b 9b fa 9f 40 39 11 e6 bd 3a e3 79 40
       0.0076600937 4.9993415 -0.11233754 3.9044938
000020 1b f4 0f bc d1 09 93 c0 2c b9 ad 3d 2b 07 4a 40
       -0.008786227 -4.5949483 0.08482584 3.1566875
000030 b2 31 bc 3d 33 57 d3 bf 55 34 ac bd 3d 33 29 bf
       0.09189166 -1.6510986 -0.08408419 -0.6609381
000040 c1 97 26 3f 4e c6 4d bc 64 9b 85 3d fe 16 26 40
       0.6507531 -0.012559487 0.06523779 2.5951533
000050 0c 3b f9 be fa 4b 33 bf f6 fb 64 3c 41 0d 85 c0
       -0.48677862 -0.70037806 0.013976088 -4.157868
000060 a3 28 b6 3e 98 5e 22 be e9 d5 d7 bd 7d b2 d9 3f
       0.35577878 -0.15856397 -0.10538847 1.7007595
000070 9b 46 fb 3e 7e c6 73 be cf a8 1b be 21 55 ea be
       0.49077305 -0.23806188 -0.15201114 -0.45768073
000080 6c 4b f8 3b 3e c0 9b 40 d9 25 d6 3e 5b 19 78 3f
       0.0075773504 4.867217 0.4182575 0.9691369
000090 37 e2 ae bb da ee a8 40 c0 26 8c bb 4e dc 8d c0
       -0.0053370255 5.2791567 -0.0042770803 -4.4331427
0000a0 ee 3e 3a bd 05 e0 9d c0 cc 21 91 bd c6 da 68 40
       -0.04547017 -4.933596 -0.07086524 3.6383529
0000b0 66 1a 1b bf 80 fa f3 3e bc cc ef 3d 95 45 cb bf
       -0.60587156 0.47652054 0.11708972 -1.588061
0000c0 18 71 35 be 34 d0 14 c0 99 9c ff 3c 35 09 89 c0
       -0.17718923 -2.3252077 0.031202601 -4.282374
0000d0 e8 ab 40 3e 00 88 ae bf f8 1f da 3e 7b 4b 95 bd
       0.18815577 -1.3635254 0.42602515 -0.072897874
0000e0 be 2c 25 3c be 03 88 40 a5 2f 29 3f 1f 1a fd be
       0.010081468 4.250457 0.66088325 -0.4943399
0000f0 2e 5e 1b bf a3 b9 37 3f 12 87 16 3f d4 3a d7 3e
       -0.6069058 0.71767634 0.5879985 0.4203707
000100 6c 1a 0e 3c dc e6 8e c0 27 11 52 bf bb 8a e4 be
       0.008673292 -4.465681 -0.8205742 -0.44637093
000110 13 10 f4 3d e4 8f 46 c0 71 ad bb be b1 40 58 bf
       0.119171284 -3.1025324 -0.36655763 -0.8447371
000120 bf 86 00 bd bf 9e 87 40 09 09 31 3e 3b eb b5 3e
       -0.031378504 4.238128 0.17288603 0.3553103
000130 41 c8 86 bd 8d 4c 7d c0 4c 39 23 3e e5 6e b7 3e
       -0.06581164 -3.9577973 0.15939826 0.35826793
000140 8d 56 31 3b 86 1e 91 40 12 0d b4 3e a9 e2 a7 3e
       0.0027059645 4.534976 0.35166222 0.32790115
000150 de 07 d8 be e9 4c b1 3e 4c c6 4c bd 61 3e d2 c0
       -0.42193502 0.3462899 -0.049993798 -6.5701146
000160 3d e0 e0 bc b8 8f 82 40 81 4a 2a 3e 83 90 2a 3f
       -0.027450675 4.080044 0.16629983 0.6662676
000170 ef a4 26 bf d5 10 90 be ec b6 1f be 71 3a 9f 3e
       -0.6509542 -0.28137842 -0.15597123 0.31099275
000180 a4 e5 75 3e 1c 28 fd 3e fc a3 03 3c a0 74 8c c0
       0.24013382 0.49444664 0.008034702 -4.3892365
000190 64 a5 9f 3a 13 7d 91 c0 c2 bd 27 bd 44 33 87 c0
       0.0012180028 -4.546518 -0.04095245 -4.225008
0001a0 89 af ab 3b c7 c1 80 3f 2c c5 a5 3b 08 52 97 40
       0.0052394313 1.0059136 0.005058905 4.7287636
0001b0 ec 99 50 3e a4 de a8 bf 58 b3 c7 3e 7b 4d 36 bf
       0.20371217 -1.3192945 0.39004016 -0.71211976
0001c0 f2 1f e8 3d 57 c4 53 bf 14 3d bf bd 87 6c 4f 40
       0.11334218 -0.82721466 -0.093378216 3.240999
0001d0 8d 21 9b 3c b6 cd 80 c0 6d cb b9 bc 14 cd 96 c0
       0.018936897 -4.025111 -0.022680009 -4.712534
0001e0 0e fd c0 be 13 49 05 3f 39 df af be 91 db 12 c0
       -0.37693065 0.5206463 -0.34349993 -2.2946513
0001f0 c7 60 aa 3e b3 e3 01 c0 1c 83 0b 3e dc 1f 79 bf
       0.3327696 -2.0295227 0.13624233 -0.9731424

0.bias f4 [64]
000000 6f d7 a0 be 7d 9d d9 3e b8 9f 05 bd 3f 3b ac be
       -0.31414363 0.42502967 -0.032623023 -0.3363895
000010 3e ff b2 bd ea c9 68 bc 7b 13 8b 3e 50 e0 26 be
       -0.0874009 -0.014208296 0.271633 -0.16296506
000020 61 e2 03 3f 64 28 82 bd 1a 73 0c bf 28 c0 1b 3e
       0.515173 -0.0635536 -0.5486313 0.1521002
000030 c9 9c ee 3e 4b fb 7e be 4e 6e 4a 3f dc 5a 44 be
       0.46603993 -0.24900548 0.7907456 -0.19175285
000040 88 d3 b8 bc b5 a8 9b 3e 65 91 0a bd b3 4f c1 3d
       -0.022561803 0.3040215 -0.033830065 0.094390295
000050 46 1c 64 bd f4 3d b4 be 26 37 04 3f 74 f7 78 3e
       -0.055691026 -0.35203516 0.5164665 0.24313146
000060 b9 df 87 be c8 29 17 3d 34 4f 07 3f 31 d2 fc 3e
       -0.26537874 0.03690508 0.5285523 0.49379113
000070 0d 94 b2 bc 5a 82 7f 3e bc e1 08 be 85 7a eb 3e
       -0.021799112 0.24952069 -0.13367361 0.45991912
000080 87 63 aa bd fa 2f cd bc ab 6f ac 3e bb 66 ea be
       -0.083197646 -0.025047291 0.33678946 -0.45781502
000090 cf f1 9b bb 82 28 43 3e 0b dd 0e 3d 40 ee 9f 3e
       -0.0047590504 0.19058421 0.03487877 0.31236458
0000a0 5d 6e 33 be ee 9a 9a 3e 69 b6 00 bf 89 b2 33 3a
       -0.17522569 0.30196327 -0.50278336 0.0006854912
0000b0 e4 23 b4 bb a4 50 7c 3e 14 f3 77 be 6b 47 c2 be
       -0.0054974426 0.24640137 -0.2421382 -0.37945113
0000c0 e1 ac 7b 3e 40 4c 61 3d c9 b8 4a bd ba 7b 0a 3d
       0.24577667 0.05500436 -0.04949263 0.0338094
0000d0 f7 9c 20 bd ed 7c 4c be 51 f4 a9 3e 42 91 a1 3e
       -0.039212193 -0.1996953 0.3319421 0.31556135
0000e0 c6 ce 78 3e 97 5b a0 be 69 dc ce 3d 81 94 b4 bc
       0.24297628 -0.31319878 0.10100634 -0.022043468
0000f0 36 78 11 bf 96 bd 0c be 14 82 b7 3e d1 53 97 3e
       -0.5682405 -0.13744196 0.3584143 0.29556134

2.weight f4 [64, 64]
000000 4a a9 fe bc 35 05 b2 3d 5a 82 9f 3d 4e e6 f5 bd
       -0.031086583 0.086923994 0.077885345 -0.12006818
000010 d2 97 c2 3d 3a ab 37 3e ff b7 64 bd 4a 0b 8a 3d
       0.09501614 0.17936411 -0.055839535 0.067404345
000020 3f bc 03 be 1b 06 4e 3c cf 4b df bd 3a 85 50 3c
       -0.12864779 0.012574698 -0.10903131 0.012727076
000030 de 4a 09 be 60 e9 03 be fc a2 60 bc 25 0b 96 bd
       -0.13407466 -0.12881994 -0.0137107335 -0.073263444
000040 32 6b 9e 3c fb 68 71 3e 6a 94 43 3e 73 fe a3 bd
       0.019338224 0.23575203 0.19099584 -0.08007517
000050 d6 8c 16 bd 1e 5f 14 be d9 bf 08 3e 48 69 2b 3e
       -0.036755405 -0.1448941 0.13354434 0.1673938
000060 59 10 00 bd 6b ee 01 3e 3b f0 b5 bc d4 70 f5 bd
       -0.03126559 0.12688605 -0.022209277 -0.11984411
000070 a7 cc 83 be 92 66 4a bd 7f 9d 8e be 89 f4 2e bc
       -0.25742075 -0.049414225 -0.27854535 -0.010678419
000080 07 1a 10 be 89 60 89 bd 93 7a aa 3e a9 38 86 3d
       -0.14072429 -0.06707866 0.33296642 0.06553776
000090 08 7f e1 bc cd bf a3 3d db 49 39 bc 2f 65 04 be
       -0.027526394 0.079955675 -0.011309112 -0.12929223
0000a0 46 91 b5 bc 2c bd 1a 3d 3d e2 e9 bd 5c 95 28 be
       -0.022163998 0.037778065 -0.11420105 -0.16463226
0000b0 0e 8e e0 bd 28 86 3d be b1 d4 5a 3e 74 89 0e 3b
       -0.10964595 -0.18508208 0.21370198 0.002174941
0000c0 55 33 93 bd 00 18 03 be 66 6c 86 bc a1 1c 4b 3d
       -0.07187525 -0.12802124 -0.01640911 0.04958785
0000d0 05 c5 7d 3b 60 45 4b 3d 82 ec 30 be 37 33 2f 3e
       0.003872217 0.049626708 -0.1727772 0.1710938
0000e0 2d 3a ea bd d9 56 21 3e 2c 62 45 3d 0f 39 2c bc
       -0.114368774 0.15755786 0.048189327 -0.010511651
0000f0 5d c9 62 bc 83 ab 78 3e 0a b8 8b bc fa 16 35 be
       -0.013841954 0.24284177 -0.01705553 -0.17684546
000100 d5 7f 20 bc c2 78 a4 bd 5b 98 a8 bc d4 ff 33 3d
       -0.0097961025 -0.08030845 -0.020580461 0.04394515
000110 07 85 7c 3e d4 0f 8d 3b db 40 70 be ec e7 e2 3c
       0.24660121 0.0043048654 -0.2346224 0.02769848
000120 4e db a1 3c 8f d0 6f 3e 54 a2 9e 3c 7d 4e 38 3d
       0.019757893 0.23419403 0.019364513 0.044996727
000130 ed 70 c2 3d 20 ea 1c 3e 06 5e f7 bc 16 6a a2 3d
       0.09494195 0.15323687 -0.030196201 0.079303905
000140 d0 c3 67 bd 5d 22 50 3e 85 47 36 be 3d 3b 05 be
       -0.056583226 0.20325609 -0.1780072 -0.13010879
000150 e5 f0 ab bc 1f 8c 2d 3c 51 ea fe 3d a7 e4 20 be
       -0.02098889 0.0105924895 0.12447036 -0.15712224
000160 6a 46 8a 3c 56 4c 70 3e 0f f0 9b 3e 30 0d 94 3d
       0.01687928 0.2346662 0.30456588 0.07229078
000170 d1 34 0a be 8d 73 66 3d 09 54 0f be 79 60 05 be
       -0.1349671 0.05626254 -0.139969 -0.13025083
000180 3a 5e 3c 3e 8a f3 da 3c f1 28 b5 be a7 aa f4 3d
       0.1839532 0.026727457 -0.35382798 0.11946612
000190 21 d1 cb 3d 27 5f 90 3c 7b de 74 bd 57 e3 de 3c
       0.099519975 0.017623497 -0.059782486 0.027208013
0001a0 e4 b0 23 3e 17 ea b7 3c ac 25 5b 3e ee 2e 33 be
       0.15985447 0.02245049 0.2140109 -0.17498371
0001b0 8b f6 1d be ef 9a 20 bd 41 fd 09 3d eb 7d 6d bd
       -0.1542608 -0.039210256 0.033688787 -0.057981413
0001c0 7d e1 e5 bc ec 03 0c 3d 16 74 22 3d a2 ab 2d be
       -0.028061623 0.034183428 0.03966149 -0.16960004
0001d0 4e 4f 1f 3d 54 34 12 3e 29 cd 89 3d e9 02 b2 bb
       0.03889399 0.14277774 0.06728584 -0.005432476
0001e0 62 a9 64 bd b0 eb 03 3e 50 bd 72 3e da 19 d3 3b
       -0.0558256 0.12882876 0.2370503 0.0064422907
0001f0 ed 34 84 bd fe 18 04 bd 79 3a 39 3d e6 e0 f4 bc
       -0.06455407 -0.032250397 0.04522178 -0.029892396
000200 77 cc ac 3e de 4a 8c be 1b 48 1e 3e eb 14 b4 3d
       0.33749744 -0.2740087 0.15457194 0.08793052
000210 98 52 10 bd 92 ef e3 bd 5b 85 f5 bd f9 bd 26 bc
       -0.035235018 -0.11129679 -0.11988326 -0.010177129
000220 7a dd 56 bc 26 c0 05 3e af fc 76 3d 72 73 53 be
       -0.013114328 0.1306158 0.06029957 -0.20649508
000230 f0 6a 6b be 6c e7 0d 3e c2 f2 8b bd 11 13 a0 3c
       -0.22990012 0.13857812 -0.06833412 0.019540342
000240 1f f0 72 3e 65 51 ec bd 72 0f d0 3d 1d df 1a 3e
       0.23724411 -0.11538962 0.10159196 0.15124173
000250 80 64 d4 bd 2b f9 42 3e 3c 55 1a 3e 52 7b 85 be
       -0.10370731 0.19040363 0.15071577 -0.26070648
000260 93 16 d2 bb 67 d7 a8 be e5 b5 3a 3c 55 3a bb bd
       -0.0064113825 -0.3297684 0.011395906 -0.09141985
000270 d7 a5 4b 3e dc 3c 01 bf 25 a6 06 3f d2 e4 90 be
       0.19887482 -0.5048349 0.52597266 -0.28299576
000280 f3 7a 00 be 78 17 21 3f de 6b 63 be 99 98 5a 3d
       -0.12546901 0.62926435 -0.22209117 0.053368185
000290 00 ed d9 3d a4 d3 d9 bd 25 da c3 bd de c8 9f bd
       0.10640907 -0.1063607 -0.09563092 -0.07801984
0002a0 14 95 c0 bd 25 a5 71 be 40 2e 95 3c 77 5a 17 3b
       -0.094034344 -0.23598154 0.01821053 0.0023094693
0002b0 88 06 ce 3e aa 93 36 bd 8e 28 d5 3e 7c e2 3e bd
       0.40239358 -0.044574417 0.41632503 -0.04660271
0002c0 4f fb 32 be 4b c8 13 be 92 17 22 be 1f 9a 68 be
       -0.17478679 -0.14431874 -0.15829304 -0.22715043
0002d0 e5 81 95 3d c1 0d 31 bd 28 24 4f be 0e ea 83 be
       0.07300166 -0.043226007 -0.20228636 -0.25764507
0002e0 68 32 7f 3d 1b eb da 3d 45 5b 88 be df e7 69 3d
       0.06230393 0.10689374 -0.26632133 0.057105895
0002f0 cb 3c f1 3d 48 69 b7 3e 61 69 50 be e3 e9 fc 3d
       0.117791735 0.3582251 -0.20352699 0.12349298
000300 b3 69 0f be 98 b6 1a bd e5 21 93 bd 2b a7 6e 3e
       -0.14005165 -0.03777179 -0.07184199 0.23305957
000310 ad 03 05 3e 23 c9 18 be e3 fb 8a bd 83 8a 61 3d
       0.12989683 -0.14920478 -0.06786325 0.055063736
000320 0d cf 27 be b1 e4 60 bc cc af dc 3d 84 8e bf 3d
       -0.16387577 -0.013726399 0.10775718 0.093533546
000330 2a de f0 3d 47 a7 94 3d f7 45 9e 3c c7 75 e3 bd
       0.117611244 0.07258468 0.019320471 -0.111064486
000340 a3 80 28 be 6f 1c e9 3d 48 6c 20 bb 1b 72 e8 3d
       -0.16455321 0.113823764 -0.0024478603 0.11349889
000350 f0 b6 d2 3d 74 98 ad 3d a9 be 0a 3e 22 6e 91 3c
       0.10288799 0.08476344 0.13549294 0.01775271
000360 12 4e 72 3d ce c9 56 bd 8a 7d 24 3e 94 2b 34 3e
       0.059156485 -0.05243855 0.16063514 0.17594749
000370 31 da 35 bd fd 8b 9c 3c 2d eb 54 bc 62 cf b9 bd
       -0.044397537 0.01910972 -0.012995523 -0.09072758
000380 6c 95 e4 bd 66 09 d3 bd d3 bf 76 bd 6f 13 c1 3c
       -0.111613125 -0.10304527 -0.06024153 0.023568837
000390 06 39 2d 3e 97 ee 30 3e b5 61 80 3c 12 f6 ef bd
       0.16916284 0.17278515 0.01567159 -0.11716856
0003a0 99 a4 d1 bd 1a b3 82 3e f7 e4 d2 bb ff 43 9c 3d
       -0.10236473 0.2552727 -0.006435986 0.07630157
0003b0 97 6b a1 3e d8 12 b6 bd 8f 94 12 3d 83 3f 1a bd
       0.31527397 -0.08890313 0.035786208 -0.037658226
0003c0 ec 40 56 be 10 66 ff bb af 7b 82 3c eb 22 8d bd
       -0.20923203 -0.007794149 0.015928118 -0.06891426
0003d0 2c d2 9b 3e 35 62 38 3e a0 fc 0c be 11 89 de 3c
       0.30433786 0.18006213 -0.13768244 0.027164968
0003e0 90 1a 8d 3b fd 74 f4 bd 18 df 55 3e bd b3 31 3c
       0.004306145 -0.11936376 0.20885885 0.010846076
0003f0 ad 53 07 3d 91 2b 51 3d 04 55 67 3d 0c ac 8d 3d
       0.033038784 0.05106694 0.05647756 0.06917581

2.bias f4 [64]
000000 65 17 0e bd 15 40 2e 3e 7c f6 be 3d 0d 11 81 bc
       -0.03469028 0.17016633 0.09324357 -0.0157552
000010 5a 03 c1 3c fb 8e ab be 27 bd bb 3d 97 3d 9c 3d
       0.023561168 -0.33507523 0.09166937 0.07628935
000020 c2 a7 95 3d c5 ab 35 3e ea 0e 35 be 26 da 8e bd
       0.07307388 0.17741306 -0.1768147 -0.06975202
000030 b0 aa 38 be 1d 36 23 bc 1a 4e 21 3e 91 c3 83 be
       -0.18033862 -0.009961632 0.1575245 -0.25735143
000040 97 b9 1f be 1c 4f 82 3d 87 1e bd bd 9f 10 81 bb
       -0.1559814 0.06362745 -0.09234338 -0.003938749
000050 72 6c f7 3d 93 15 0b 3e 5f 03 3b be 87 b9 2f be
       0.12081231 0.13582449 -0.18263005 -0.17160617
000060 5a 38 04 3e 7f 96 8a 3e 73 3c 0b bd 60 08 6a 3c
       0.12912121 0.27067944 -0.033993196 0.014284223
000070 86 2e 47 3e f5 91 a3 be 88 b9 a7 bd 33 1b 0a 3d
       0.19451341 -0.31947294 -0.08189684 0.033717345
000080 66 61 08 bd 1c de 3d be d4 85 9b bd f2 61 67 be
       -0.03329601 -0.18541759 -0.07593885 -0.22595957
000090 9a ee 08 bc e5 de 1f be ac 2f 84 bc 20 96 0a bd
       -0.008357668 -0.15612371 -0.016136013 -0.033834577
0000a0 57 29 e9 3d 11 ad 7c bc 16 1a 7e bc 6f cb 84 3d
       0.11384838 -0.015422122 -0.015509149 0.064841144
0000b0 94 5c 1f be b2 95 c7 3d 1a a2 5b 3d e0 ba 26 be
       -0.1556266 0.09745349 0.05362139 -0.16282225
0000c0 7d 8b 94 3d 6c 2f eb bd 29 75 e8 bd bd d0 3b 3e
       0.07253168 -0.114836544 -0.113504715 0.18341346
0000d0 cb 12 ef bc f7 06 cd 3c 3e 17 2d 3e 24 ac 84 bd
       -0.029183766 0.025027735 0.16903397 -0.06478146
0000e0 6b fe da bd 2f 0c 78 bd 51 59 83 3d 5e aa a3 3d
       -0.106930576 -0.060558494 0.0641352 0.07991479
0000f0 25 4d b5 be eb 6a 9a bd a3 15 14 3e 98 c9 c4 bd
       -0.3541042 -0.07539924 0.14461379 -0.096087635
