dir_save_test/we0_critic_linear_-160.pth (torch, 1906 bytes, 1 tensors)

weight f4 [1, 64]
000000 92 3d db 3d 9f 64 d6 3b 9d 49 17 bd d4 46 79 3c
       0.10705103 0.0065427567 -0.036935437 0.015214641
000010 29 29 1e 3d 04 d8 9c 3c bd 39 d2 ba 75 49 e6 bd
       0.038613472 0.019145973 -0.0016038936 -0.112444796
000020 67 90 8e bb 36 ae 7b bd 77 ae 0e 3e 2f fb ec bd
       -0.00435071 -0.061445437 0.1393374 -0.11571347
000030 22 db 3a 3d 34 97 ca 3d 6e ab b9 3c 70 28 1c bd
       0.045619138 0.09892121 0.022664752 -0.0381245
000040 33 b1 3d 3d 77 f5 54 bd 1a 25 ee 38 6f 57 57 3d
       0.04631157 -0.051991906 0.00011355635 0.052573618
000050 09 05 36 bd 64 d8 0b 3e 3d 7f 20 3d dd 5d 21 3d
       -0.044438396 0.13656765 0.039183844 0.039396156
000060 14 10 a6 3d ab 19 69 3d b9 8d 68 3e 7c f6 b8 3d
       0.081085354 0.056909245 0.22710313 0.09031388
000070 9e 76 83 3d d8 00 2a 3d 4d 55 ea 3d 79 2a 94 3c
       0.06419109 0.04150471 0.11442051 0.018086659
000080 7b c0 1a 3c 5a 5e a7 3d 46 f2 90 3d 3c 85 c5 bd
       0.009445305 0.08172293 0.0707746 -0.09644553
000090 12 6e 23 3d 44 4e 37 bd 98 a1 16 bd 1d f3 06 3e
       0.039899893 -0.044752374 -0.0367752 0.13178678
0000a0 f5 0c a9 bd 37 a0 87 bd 34 2e 37 be db e0 75 3d
       -0.082544245 -0.066223554 -0.17888719 0.060028892
0000b0 2a 9a 4c 3d c8 d8 7a 3d b6 44 86 bd 23 c4 b8 3d
       0.04995171 0.061241895 -0.06556074 0.09021785
0000c0 7e 51 07 bd d9 f9 84 3d 99 28 f4 3c 72 0c 0e 3c
       -0.0330367 0.06492967 0.029804515 0.008669959
0000d0 38 3a 80 3d 48 9f 0c 3e ef f4 1c bd a3 64 c8 3c
       0.06261104 0.13732636 -0.038319524 0.02446205
0000e0 d1 2a d7 bd 73 89 6e 3c 05 3f bc 3c f5 65 3f bd
       -0.105062135 0.014559138 0.022979269 -0.046728093
0000f0 6a 32 0d bc 07 19 fe 3b 16 f5 7c bd 60 64 c6 bc
       -0.008617977 0.0077544483 -0.06175717 -0.024217784
