dir_save_test/we0_critic_linear_-100.pth (torch, 1906 bytes, 1 tensors)

weight f4 [1, 64]
-1.3588839 1.2538803 1.8886328 -1.6211383 -3.0976205 -1.4118296 -2.0793722 -0.96812904
1.394155 -1.2778599 1.4195042 1.7309847 -7.3062916 -1.269469 -1.2377528 3.1732082
-1.2013981 -1.2821501 2.6369996 1.9853247 -2.0366955 2.3048959 2.9372196 -2.1865892
2.1596577 -0.9654401 1.1793722 7.047355 -2.162529 1.294235 2.0054047 -1.8577342
1.8797846 5.808033 2.2263994 -1.8249809 -1.5494213 2.351837 2.0419888 3.059431
3.1583312 -0.82717633 -2.219539 6.49193 1.3914713 -7.4139824 -1.2112707 -1.1162007
-1.7316252 -7.311539 -1.2783605 -1.2914672 3.7682767 7.579223 1.2165612 -3.1287522
3.1516232 -0.62373173 -1.484694 7.235349 2.976363 1.7881167 2.3209147 2.1020143
00000000: e8ef adbf 267f a03f b8be f13f 7681 cfbf
00000010: 6a3f 46c0 d5b6 b4bf 6f14 05c0 4ed7 77bf
00000020: ac73 b23f ea90 a3bf 50b2 b53f e890 dd3f
00000030: 24cd e9c0 f67d a2bf af6e 9ebf d815 4b40
00000040: 6ac7 99bf 7f1d a4bf 9ac4 2840 1f1f fe3f
00000050: 3859 02c0 6a83 1340 68fb 3b40 14f1 0bc0
00000060: d537 0a40 1527 77bf abf5 963f ef83 e140
00000070: e066 0ac0 7ea9 a53f 8d58 0040 3cca edbf
00000080: c89c f03f 68db b940 547d 0e40 f998 e9bf
00000090: 7053 c6bf 7f84 1640 f2af 0240 b8cd 4340
000000a0: 1922 4a40 d4c1 53bf ed0c 0ec0 e4bd cf40
000000b0: bb1b b23f 583f edc0 eb0a 9bbf aadf 8ebf
000000c0: e5a5 ddbf 21f8 e9c0 51a1 a3bf cc4e a5bf
000000d0: 722b 7140 ff88 f240 47b8 9b3f 7a3d 48c0
000000e0: 32b4 4940 e2ac 1fbf 740a bebf fb87 e740
000000f0: bb7c 3e40 02e1 e43f de89 1440 6787 0640
