dir_save_test/we0_critic_linear_330.pth (torch, 1836 bytes, 1 tensors)

weight f4 [1, 64]
0	0x41897baa	17.185383
1	0x42069fbc	33.65599
2	0xc189a3a2	-17.204899
3	0xc1bf2c5e	-23.896664
4	0x41bab10f	23.336454
5	0x41897bfb	17.185537
6	0x41c3a16b	24.453817
7	0xc1c1314b	-24.149069
8	0x417b296f	15.697616
9	0x41f941c7	31.157118
10	0x41cbc4cb	25.47109
11	0x41c8f069	25.117388
12	0x4091b55e	4.5533895
13	0x41bf37e7	23.902296
14	0xc1b977a3	-23.183416
15	0xc1c8a599	-25.080858
16	0xc1cd2b85	-25.64625
17	0xc1b9ab01	-23.208498
18	0xc11c9a2e	-9.787642
19	0xc188f76f	-17.120817
20	0x41c4758b	24.557394
21	0xc1b7b4cd	-22.963282
22	0x42147c9f	37.1217
23	0x41c81393	25.009558
24	0xc1cc50ff	-25.539549
25	0xc20aeb15	-34.729572
26	0x41ca2c18	25.27153
27	0x422faa3a	43.916237
28	0x4183dd43	16.483038
29	0x41d2c5ec	26.346642
30	0x41b58d9e	22.694149
31	0x41c07de0	24.061462
32	0x41e20ac6	28.25526
33	0x4224e25d	41.221058
34	0xc181d625	-16.229563
35	0xc1b1285b	-22.144705
36	0x4188517d	17.03979
37	0x41cb6a9d	25.427057
38	0xc18e9853	-17.824377
39	0x41dd9e76	27.702374
40	0xc1b998c8	-23.1996
41	0x41c565ac	24.674644
42	0x41c0ed3a	24.115833
43	0x422c25e3	43.037
44	0x41af68ba	21.926136
45	0x40865b43	4.1986403
46	0x4203527e	32.83056
47	0xc20c5438	-35.082245
48	0x41879acc	16.950584
49	0xc22ee76a	-43.72599
50	0xc1d3bf72	-26.46848
51	0xc1c649b6	-24.785992
52	0x41c7b516	24.96342
53	0xc09d65fa	-4.9186983
54	0xc1febf08	-31.843277
55	0x41b9df4f	23.234037
56	0xc1d1203e	-26.140743
57	0x421e717e	39.610832
58	0x41e979e4	29.184517
59	0x422696f1	41.647404
60	0xc1ca3f2c	-25.280846
61	0x41d74395	26.907999
62	0xc1c41b30	-24.513275
63	0xc1c35f32	-24.421482
