dir_save_test/we0_model_base_value_adjust.pth (torch, 41744 bytes, 9 tensors)

weight f4 [64, 2]
0.44416085 1.2201033 0.2138717 1.6732286 -0.27403602 3.3619912 0.42091545 1.847599
-0.09055901 -4.5182085 0.50936604 0.43015388 -0.3652325 -1.8718804 0.13267608 -1.6916453
1.767786 1.0287551 0.48087138 0.4009598 0.32836634 -0.06196279 0.2841508 -2.4267168
-0.27623162 0.9472408 -0.04087046 1.5323472 0.16886604 -0.11541015 -1.4162587 -0.56587416
0.15551855 2.9919472 0.21864456 1.2721081 -0.06768929 4.51958 -0.1139697 -4.5758343
-0.45562592 -2.236254 0.45148188 1.6393874 0.33347118 1.3060925 -0.36758754 -0.5642757
-0.18433693 -1.1191466 -0.0055681625 -5.58272 0.4072369 -0.041163083 0.6750246 -0.38520157
0.1757703 3.520144 0.30533588 -0.61191016 -0.12390473 0.5324714 1.5657736 0.987631
-0.020997325 -6.496613 -0.23663628 -1.298214 0.06530153 -4.2610564 0.33630553 -2.139888
-0.0049752225 6.5481887 -0.47346857 -0.9976005 -0.24184497 -1.6708728 0.2423507 1.1716319
-0.028684558 4.453576 -0.395384 0.69121516 -0.7795874 0.16435277 -0.21451835 -0.9035603
-0.009720546 7.099379 0.1367004 -1.8552573 0.29562324 -1.9497198 -0.3185899 -0.8690274
-0.3571306 0.978003 -0.5882807 -1.3016115 -0.09483153 -5.074512 0.01691122 -4.939409
-0.09794019 3.8386443 -0.0340928 4.227593 0.23041712 -0.4027188 -0.055152602 -0.47802013
-0.19891523 -0.26575246 0.17841777 2.2847276 -0.3303594 -2.2331364 -0.22863744 -1.7877078
-0.0719943 1.1182587 0.32634658 -1.9064955 0.2032212 0.048439547 -0.2341367 -0.50742906
00000000: 0d69 e33e 582c 9c3f 2f01 5b3e 5b2c d63f
00000010: 734e 8cbe dd2a 5740 3b82 d73e 207e ec3f
00000020: 0177 b9bd 2a95 90c0 d065 023f 213d dc3e
00000030: c1ff babe c799 efbf 3ddc 073e d587 d8bf
00000040: d046 e23f 3fae 833f c634 f63e 9a4a cd3e
00000050: a21f a83e b2cc 7dbd 377c 913e 544f 1bc0
00000060: 3b6e 8dbe 607e 723f c967 27bd f423 c43f
00000070: 38eb 2c3e 285c ecbd f747 b5bf 21dd 10bf
00000080: 4140 1f3e 107c 3f40 5ce4 5f3e 70d4 a23f
00000090: afa0 8abd 66a0 9040 f268 e9bd 3c6d 92c0
000000a0: cd47 e9be c91e 0fc0 a228 e73e 72d7 d13f
000000b0: bcbc aa3e 0a2e a73f 6f34 bcbe 5f74 10bf
000000c0: d2c2 3cbe 3240 8fbf 2275 b6bb a4a5 b2c0
000000d0: 5b81 d03e 9f9a 28bd 6ace 2c3f 2439 c5be
000000e0: 21fd 333e 0a4a 6140 fc54 9c3e 25a6 1cbf
000000f0: c3c1 fdbd 0c50 083f 456b c83f 63d5 7c3f
00000100: 9502 acbc 41e4 cfc0 c850 72be e02b a6bf
00000110: cfbc 853d 935a 88c0 3d30 ac3e edf3 08c0
00000120: 3107 a3bb c38a d140 796a f2be bf62 7fbf
00000130: 35a6 77be 29df d5bf c82a 783e 09f8 953f
00000140: e1fb eabc b283 8e40 c66f cabe 7af3 303f
00000150: 0a93 47bf 184c 283e b3aa 5bbe ba4f 67bf
00000160: ed42 1fbc 1d2e e340 31fb 0b3e 1279 edbf
00000170: ee5b 973e 6b90 f9bf 371e a3be 9478 5ebf
00000180: d2d9 b6be 685e 7a3f 9099 16bf 359b a6bf
00000190: 0837 c2bd 6762 a2c0 6689 8a3c a30f 9ec0
000001a0: de94 c8bd 59ac 7540 e4a4 0bbd 7148 8740
000001b0: 77f2 6b3e 2931 cebe b2e7 61bd 0ebf f4be
000001c0: 6fb0 4bbe b510 88be 26b3 363e fa38 1240
000001d0: de24 a9be b5eb 0ec0 ef1f 6abe 9cd3 e4bf
000001e0: bf71 93bd 1a23 8f3f e616 a73e 0b08 f4bf
000001f0: 3819 503e 8c68 463d 88c1 6fbe dfe6 01bf

bias f4 [64]
-0.02939138 0.72000587 0.3863206 -0.050636273 -0.4195608 0.21500333 0.18591087 0.30714673
-0.5816767 0.7191866 -0.38118055 -0.47182366 1.0339613 -0.1936724 0.2912778 0.10606519
0.23637581 0.78757584 -0.1692763 -0.3566974 -0.15754527 -0.10784875 -0.10941788 0.5614826
-0.5296412 -0.2045576 0.7164935 0.4174403 0.24031202 1.9550998 0.023180302 -0.056983385
-0.09817758 -1.0448205 0.102918774 -0.46098626 0.07403666 -0.043074075 -1.0641073 1.0698068
0.06078782 0.15149567 -0.250175 -0.48337966 0.05625189 0.4388334 -0.87911767 0.39795375
0.91620886 -0.57556695 -0.15133214 0.08751792 -0.3135828 0.024861418 1.1351198 1.4852165
-0.61685413 0.3420357 -0.19017695 -0.8314087 0.11073845 -0.56681544 0.757419 -1.0316466
00000000: 31c6 f0bc 4e52 383f d0cb c53e fb67 4fbd
00000010: acd0 d6be d529 5c3e 6b5f 3e3e 5642 9d3e
00000020: c4e8 14bf 9d1c 383f 192a c3be df92 f1be
00000030: d858 843f 0f52 46be 5d22 953e b538 d93d
00000040: 800c 723e 929e 493f c456 2dbe 0ba1 b6be
00000050: 8c53 21be cedf dcbd 7b16 e0bd 53bd 0f3f
00000060: 9196 07bf 8c77 51be 1e6c 373f bcba d53e
00000070: 5b14 763e b640 fa3f 9ee4 bd3c 6967 69bd
00000080: 5411 c9bd aebc 85bf 14c7 d23d 6406 ecbe
00000090: 88a0 973d 716e 30bd ab34 88bf 6eef 883f
000000a0: a6fc 783d ae21 1b3e f016 80be 8a7d f7be
000000b0: 6268 663d c5ae e03e db0d 61bf 98c0 cb3e
000000c0: aa8c 6a3f 5b58 13bf d0f6 1abe 983c b33d
000000d0: ed8d a0be 2caa cb3c 9b4b 913f 931b be3f
000000e0: 27ea 1dbf 4e1f af3e bfbd 42be 33d7 54bf
000000f0: d7ca e23d d11a 11bf 36e6 413f ff0c 84bf

weight f4 [64, 64]
0.26019725 -0.40923426 -0.34526747 0.03572454 0.53871995 -0.32047117 -0.265599 -0.34485558
0.6286987 -0.45493993 0.22453316 0.309206 -0.61994714 -0.031083228 0.25589037 -0.8000984
-0.04548594 -0.11923821 0.04711017 0.24518278 0.08378 -0.114315435 0.30965683 -0.35220152
0.4041877 0.397363 -0.4312992 -0.4524823 -0.36812893 -0.2362414 -0.22284605 0.71331406
0.06763953 0.395663 0.4657123 0.32642055 -0.21000272 -0.05535233 0.5125249 -0.67079246
-0.28925675 -0.30494523 -0.5209939 0.33930695 -0.3474748 -0.3707953 0.6162452 -0.3838707
-0.57498115 0.27980018 -0.005404986 0.1597291 0.058827847 -0.25976083 -0.53529125 -0.43671018
0.43695232 0.029771576 0.113623634 0.3946035 0.021108404 0.6253971 -0.5213807 0.41073546
0.34183502 -0.30929452 -1.1651103 0.2293261 0.6857509 0.0967747 -0.43748948 0.1634104
0.5930606 0.3420808 0.551244 0.97021 0.017635718 0.081893906 0.420064 -0.3577295
-0.46418935 0.2934985 -0.92917305 0.38546562 -0.21675722 0.238886 0.22293472 -0.65467286
0.04885089 0.76249576 0.37994987 0.16911785 0.03305272 0.033279147 -0.11288252 0.42991826
0.56285363 0.43935466 0.3760698 0.9842018 -0.52990514 -0.32378772 -0.086056985 -0.34948358
-0.69915193 -0.4654625 -0.3089742 -0.2220732 -0.5418298 0.28261298 0.6036215 -0.19504452
-0.12042434 -0.013314627 0.12215759 0.27015236 -0.48428085 -0.47297323 -0.13782556 -0.38592246
0.04195933 0.10832977 0.01707724 -0.049369108 -0.23983246 0.6205243 0.2773415 0.19310167
0.5679473 0.17062429 0.24768367 0.36734113 -0.025369013 0.23918916 -0.48140445 -0.17305662
1.8627226 0.34860492 0.13752536 -0.22107899 0.15871346 0.28266922 0.7742215 -1.160601
0.41256848 0.3982241 0.14889492 -0.06328978 -0.50032324 0.4170488 0.11313341 -0.36538485
-0.22915754 -0.46431154 0.30236313 0.121331856 0.21203741 -0.42313966 0.0034478772 1.0927447
-0.3595235 0.08222351 -0.26556528 -0.21854696 0.37825745 -0.18401116 -0.43702412 0.050251484
-0.08406892 -0.34281418 -1.1191955 -0.27336922 0.6442455 0.025543896 -0.2766282 -0.37114388
0.17181666 -0.33701643 -0.3170118 -0.63775504 -0.051413294 0.14455023 -0.075306945 -0.14908017
0.03361154 0.17649145 -0.49552256 -0.33298954 0.119478844 0.17591569 0.18440521 -0.02856327
0.2389548 -0.34991485 -0.5614256 0.61725414 0.46728742 0.13730691 -0.51630515 -0.1776949
0.27407447 0.09129664 0.43738902 0.19696675 0.2967022 0.3641666 0.3028977 -0.42701724
-0.44083223 0.22918767 -0.13472825 0.5194132 -0.091154225 0.43527117 0.43481573 -0.5299782
-0.069071226 0.18521993 0.28144854 0.14451678 0.36948705 -0.07910429 -0.19293943 0.2649315
-0.4266801 0.39101025 0.10007673 0.38564977 0.097308055 -0.04256625 -0.05018531 -0.52626055
-0.30048963 -0.082768045 -0.26704693 -0.19419481 0.096559644 0.096388355 0.32834652 -0.3967548
-0.046505447 -0.15515085 -0.04136547 -0.016217709 0.27119574 0.031590138 -0.524118 -0.41281423
0.26307467 0.047773756 -0.15488744 -0.122538194 -0.21111356 0.47157562 0.2298134 0.32117647
00000000: 9338 853e 2787 d1be e6c6 b0be e553 123d
00000010: 8de9 093f cc14 a4be 98fc 87be e990 b0be
00000020: 66f2 203f e3ed e8be 05ec 653e 4050 9e3e
00000030: dbb4 1ebf 41a2 febc 1004 833e 40d3 4cbf
00000040: 774f 3abd 2a33 f4bd 98f6 403d 3211 7b3e
00000050: d994 ab3d 361e eabd 578b 9e3e c253 b4be
00000060: b1f1 ce3e 2a73 cb3e 40d3 dcbe c3ab e7be
00000070: 657b bcbe 44e9 71be c131 64be c09b 363f
00000080: 9886 8a3d 5794 ca3e d871 ee3e 9820 a73e
00000090: f40a 57be 20b9 62bd d534 033f 0eb9 2bbf
000000a0: 7619 94be c821 9cbe db5f 05bf a4b9 ad3e
000000b0: 38e8 b1be e2d8 bdbe 3fc2 1d3f b38a c4be
000000c0: f731 13bf f841 8f3e 4f1c b1bb 0690 233e
000000d0: 78f5 703d 5fff 84be d908 09bf 7a98 dfbe
000000e0: 37b8 df3e 85e3 f33c 82b3 e83d 7809 ca3e
000000f0: 88eb ac3c 061a 203f 3579 05bf eb4b d23e
00000100: 0005 af3e da5b 9ebe 5622 95bf 76d4 6a3e
00000110: 5f8d 2f3f d031 c63d 9ffe dfbe 0e55 273e
00000120: d2d2 173f 3725 af3e 541e 0d3f af5f 783f
00000130: c878 903c feb7 a73d a112 d73e 5228 b7be
00000140: 3aaa edbe 6f45 963e 49de 6dbf c05b c53e
00000150: 9bf5 5dbe 889e 743e 0049 643e a498 27bf
00000160: df17 483d ec32 433f ca88 c23e 3b2d 2d3e
00000170: 4a62 073d b74f 083d f32e e7bd 3f1e dc3e
00000180: 2d17 103f 18f3 e03e 398c c03e a6f4 7b3f
00000190: dda7 07bf 81c7 a5be a53e b0bd 83ef b2be
000001a0: 9ffb 32bf 1a51 eebe de31 9ebe 2867 63be
000001b0: 5cb5 0abf a6b2 903e f086 1a3f c0b9 47be
000001c0: 09a1 f6bd 9825 5abc c22d fa3d 6951 8a3e
000001d0: a9f3 f7be 8c29 f2be 2522 0dbe a197 c5be
000001e0: 8cdd 2b3d 00dc dd3d 91e5 8b3c 4337 4abd
000001f0: a496 75be aeda 1e3f b5ff 8d3e 72bc 453e
00000200: ff64 113f 22b8 2e3e caa0 7d3e 2314 bc3e
00000210: add2 cfbc 01ee 743e a57a f6be c135 31be
00000220: b26d ee3f 587c b23e 73d3 0c3e 8862 62be
00000230: c885 223e 05ba 903e 6133 463f 938e 94bf
00000240: 2d3c d33e 07e4 cb3e e977 183e 129e 81bd
00000250: 2f15 00bf 6c87 d53e 7db2 e73d b913 bbbe
00000260: 46a8 6abe 3eba edbe 57cf 9a3e d67c f83d
00000270: 5620 593e c3a5 d8be c8f5 613b 0fdf 8b3f
00000280: 7713 b8be cd64 a83d 2cf8 87be c6ca 5fbe
00000290: f6aa c13e 6c6d 3cbe a0c1 dfbe 80d4 4d3d
000002a0: 532c acbd 5785 afbe cc41 8fbf 0df7 8bbe
000002b0: 46ed 243f 6f41 d13c 36a2 8dbe 9206 bebe
000002c0: b5f0 2f3e 6b8d acbe 5f4f a2be ea43 23bf
000002d0: bf96 52bd fa04 143e 873a 9abd 79a8 18be
000002e0: 41ac 093d 2dba 343e 22b5 fdbe 9b7d aabe
000002f0: 53b1 f43d 3e23 343e b8d4 3c3e 85fd e9bc
00000300: 91b0 743e 0a28 b3be 97b9 0fbf 5e04 1e3f
00000310: 4c40 ef3e 2f9a 0c3e 932c 04bf a7f5 35be
00000320: 7d53 8c3e bcf9 ba3d 74f1 df3e a7b1 493e
00000330: 5ae9 973e 0b74 ba3e 6815 9b3e 01a2 dabe
00000340: c3b4 e1be 2cb0 6a3e 34f6 09be 43f8 043f
00000350: 11af babd dddb de3e 2ba0 de3e a7ac 07bf
00000360: 3775 8dbd 4baa 3d3e 061a 903e 35fc 133e
00000370: 682d bd3e 6e01 a2bd ea91 45be 1aa5 873e
00000380: d075 dabe 7f32 c83e 07f5 cc3d e373 c53e
00000390: 7249 c73d f359 2ebd 1d8f 4dbd 03b9 06bf
000003a0: c7d9 99be 4b82 a9bd 60ba 88be 01db 46be
000003b0: 10c1 c53d 4267 c53d 091d a83e 7223 cbbe
000003c0: 7f7c 3ebd dddf 1ebe d76e 29bd 00db 84bc
000003d0: 2bda 8a3e a964 013d 992c 06bf 635c d3be
000003e0: b9b1 863e 6aae 433d d09a 1ebe 4ef5 fabd
000003f0: 272e 58be 5c72 f13e 3454 6b3e 3e71 a43e

bias f4 [64]
-0.70713335 -0.4442127 -0.81254405 -0.24967223 -0.33569917 0.2775717 0.3179826 0.33176717
0.6111735 -0.53240114 -0.6387697 -0.27401528 -0.103174195 0.40880144 0.53024477 -0.13521676
-0.44914454 0.8108463 -0.84511447 0.59691304 -0.60016537 -0.47983974 -0.45994648 0.48678148
-0.06845361 -0.42915756 0.35222787 0.92111874 0.5996541 -0.24290973 0.5491369 0.8864953
0.15267165 0.020961693 -0.4293371 -0.71377707 -0.6743492 -0.33475205 -0.806658 -0.5290013
0.8901123 -0.57476324 0.039561145 -0.5642213 0.65610343 -0.4067341 -0.04859583 0.45064127
0.37402877 0.8517689 -0.4848468 0.7127361 0.41307878 -0.22542188 0.6735645 -0.06712309
0.10248836 -1.0607259 -0.6564855 -0.9197408 0.5288053 -0.04421812 -0.44265363 -0.13243012
00000000: b106 35bf d96f e3be e302 50bf 14aa 7fbe
00000010: c3e0 abbe e11d 8e3e 9ece a23e 63dd a93e
00000020: de75 1c3f 714b 08bf 6986 23bf bb4b 8cbe
00000030: fe4c d3bd 6c4e d13e 1fbe 073f 4376 0abe
00000040: 46f6 e5be a093 4f3f 6c59 58bf 4bcf 183f
00000050: 70a4 19bf 8ead f5be 1b7e ebbe 6c3b f93e
00000060: 6831 8cbd 8aba dbbe 3657 b43e 70ce 6b3f
00000070: ee82 193f 54bd 78be 3c94 0c3f 5bf1 623f
00000080: f555 1c3e dbb7 ab3c 13d2 dbbe 18ba 36bf
00000090: 26a2 2cbf 9f64 abbe 2481 4ebf a16c 07bf
000000a0: 66de 633f af23 13bf de0a 223d cf70 10bf
000000b0: 65f6 273f 743f d0be 6c0c 47bd 74ba e63e
000000c0: b380 bf3e 870d 5a3f d73d f8be e075 363f
000000d0: 107f d33e fed4 66be b96e 2c3f d577 89bd
000000e0: 6be5 d13d dec5 87bf 6f0f 28bf 2274 6bbf
000000f0: c95f 073f 0f1e 35bd 7fa3 e2be c39b 07be

weight f4 [64, 2]
0.6969617 16.736103 1.1592789 -8.672746 -0.8452898 -19.36671 -0.35953665 -17.509224
-0.57277423 9.263207 0.7059502 9.283949 -2.0089378 17.593248 0.534644 -1.8295529
0.38998368 9.649513 0.092401855 2.6700442 -0.8162153 -16.912775 0.039779775 -14.642942
-0.022234783 0.80263186 -1.1217535 -13.090432 1.1142466 11.715949 -0.23125155 -20.792757
0.42539325 1.3776404 -3.3897822 -3.6414251 2.1308346 -0.22202083 1.5238708 6.85577
-0.22281021 18.551865 -0.00043114286 -7.871768 -0.07241188 -26.62112 -1.6387397 -4.8346143
-1.0798817 -0.98148614 -0.47665712 5.747707 0.25821584 11.295763 -0.75508416 -27.358278
0.8232406 -1.2032702 -0.050860677 -10.133366 -0.9726694 2.1257362 1.6823778 -7.31119
-0.010502432 -0.10513262 -0.53512126 -21.337994 -0.6691905 -20.987904 -0.5643814 -5.286166
-1.418207 9.248346 -3.2970886 -1.6186587 -1.1076676 21.870922 -0.026152277 -3.973843
-0.28465962 5.6801567 -1.3735327 0.88508934 -1.6452403 -5.7717967 0.9351973 6.185882
0.013728031 9.786567 -0.30368096 5.5032706 1.3517009 2.1533267 0.5410806 0.5601372
0.34240264 -25.275248 1.3461032 4.708042 0.054258246 -3.2352457 0.8760189 -1.4575067
-0.018861119 5.6288943 -2.395668 -4.5976644 -0.60445887 -13.009565 0.077357225 -1.1030797
-2.483607 5.9794087 0.7093451 -0.07074957 -0.02461397 -21.076786 -0.01032491 -13.350169
-0.015289011 0.1579846 -0.66698426 3.7265928 -0.79495025 15.28626 0.80704474 23.816519
00000000: 156c 323f 8ae3 8541 4063 943f 91c3 0ac1
00000010: ea64 58bf 06ef 9ac1 3015 b8be e412 8cc1
00000020: 55a1 12bf 1936 1441 27b9 343f 0e8b 1441
00000030: 7092 00c0 f9be 8c41 6ede 083f ca2e eabf
00000040: f1ab c73e 6864 1a41 2f3d bd3d 01e2 2a40
00000050: 7cf3 50bf 5d4d 87c1 1ef0 223d 7e49 6ac1
00000060: b825 b6bc 4879 4d3f 9e95 8fbf 6972 51c1
00000070: a29f 8e3f 8774 3b41 35cd 6cbe 9157 a6c1
00000080: 25cd d93e 8556 b03f 31f2 58c0 1c0d 69c0
00000090: 985f 0840 6e59 63be 330e c33f 7862 db40
000000a0: 5c28 64be 386a 9441 040b e2b9 86e5 fbc0
000000b0: ae4c 94bd 0ef8 d4c1 39c2 d1bf 29b5 9ac0
000000c0: 9039 8abf ad42 7bbf 670c f4be 37ed b740
000000d0: de34 843e 72bb 3441 324d 41bf c1dd dac1
000000e0: e5bf 523f c204 9abf 4953 50bd 4422 22c1
000000f0: dd00 79bf 100c 0840 2858 d73f 45f5 e9c0
00000100: 6412 2cbc c54f d7bd b5fd 08bf 36b4 aac1
00000110: 1250 2bbf 3ae7 a7c1 4d7b 10bf 4628 a9c0
00000120: cf87 b5bf 3af9 1341 8003 53c0 3530 cfbf
00000130: 0dc8 8dbf a6f7 ae41 4d3d d6bc 7253 7ec0
00000140: e8be 91be d8c3 b540 ebcf afbf 3795 623f
00000150: 3c97 d2bf 8fb2 b8c0 1769 6f3f bff2 c540
00000160: 89eb 603c c795 1c41 127c 9bbe cb1a b040
00000170: 8904 ad3f 1bd0 0940 4284 0a3f 2765 0f3f
00000180: 664f af3e b533 cac1 1c4d ac3f 48a8 9640
00000190: e53d 5e3d 440e 4fc0 c642 603f 948f babf
000001a0: a282 9abc e71f b440 a052 19c0 1120 93c0
000001b0: d1bd 1abf 2e27 50c1 776d 9e3d b731 8dbf
000001c0: 6bf3 1ec0 5157 bf40 a497 353f 27e5 90bd
000001d0: 3da3 c9bc 429d a8c1 d029 29bc 4b9a 55c1
000001e0: c37e 7abc b7c6 213e 7bbf 2abf 7f80 6e40
000001f0: dc81 4bbf 8594 7441 7c9a 4e3f 3b88 be41

bias f4 [64]
2.4135404 2.3335633 1.4813193 -3.353138 -1.1318306 2.9035544 -1.1319816 -3.341777
2.5019252 -2.8749616 -3.220797 -2.2074373 4.0785236 -5.2218647 5.2865357 2.0693767
1.9470863 -6.6359053 -0.059416287 2.1140943 -3.7468307 4.109289 0.6751985 -3.001049
-2.9719293 -2.4965742 -3.2549114 -2.3559768 4.908863 -0.43565026 3.4028995 1.6684338
2.8863685 -1.4579391 -3.2610662 -2.6540291 -3.2524219 -6.515655 2.1893814 3.1268437
-1.4550992 -2.6489813 -3.0219307 1.5308657 -3.7410092 -0.95136636 2.4977508 1.5750974
-1.7176636 2.327797 -3.5022311 -3.1389384 -3.5764284 -2.8143904 -3.0905478 -3.403949
-5.524127 -0.7377125 0.98821795 -3.1561263 2.4399204 -1.4899586 -1.9630926 4.176056
00000000: 7277 1a40 1a59 1540 df9b bd3f d099 56c0
00000010: d3df 90bf d6d3 3940 c6e4 90bf addf 55c0
00000020: 8b1f 2040 5fff 37c0 8a21 4ec0 a746 0dc0
00000030: 4483 8240 8419 a7c0 4d2b a940 ab70 0440
00000040: 203a f93f 5659 d4c0 7e5e 73bd 524d 0740
00000050: 13cc 6fc0 4c7f 8340 cfd9 2c3f 3011 40c0
00000060: 1734 3ec0 dfc7 1fc0 7850 50c0 53c8 16c0
00000070: 6815 9d40 8d0d dfbe 1bc9 5940 3d8f d53f
00000080: 43ba 3840 c09d babf 4fb5 50c0 9ddb 29c0
00000090: ae27 50c0 3f80 d0c0 d31e 0c40 351e 4840
000000a0: b140 babf e988 29c0 5067 41c0 68f3 c33f
000000b0: b26c 6fc0 bf8c 73bf 26db 1f40 cb9c c93f
000000c0: 67dc dbbf a0fa 1440 8e24 60c0 5ee4 48c0
000000d0: 34e4 64c0 f91e 34c0 89cb 45c0 4dda 59c0
000000e0: a6c5 b0c0 bada 3cbf dafb 7c3f f9fd 49c0
000000f0: a827 1c40 f7b6 bebf 9e46 fbbf 40a2 8540

weight f4 [64, 64]
0.35030854 0.14718415 -1.1281415 2.1472816 1.1420748 -2.2591608 0.5121903 1.5605642
-2.9051955 0.5273454 1.253245 2.071779 -1.4766766 -3.264724 3.4524388 -1.3923303
-2.6173763 -1.5252677 -2.7504504 -2.0905569 0.9321845 3.7537217 0.97717315 0.1108622
-0.19656081 2.1911292 1.7135606 -1.7496337 -1.4628226 0.7745147 -1.875012 1.3908707
-2.0588934 -0.9589663 1.7721394 2.2994912 1.5585989 -1.7658702 -2.4821517 -1.5521325
-1.0876416 1.2930776 0.5222446 -1.2050666 1.751677 1.8002445 -2.173616 -2.3708239
2.2589216 -1.9903184 1.8291644 1.2772683 1.6713362 -1.604079 1.2351226 1.6666688
-2.9898148 1.2813472 -1.5055326 3.013983 -0.47000644 1.9829708 -0.8324174 -3.3358839
0.7629534 3.4381413 1.2141023 0.061759867 -0.90299857 0.8896203 -0.67662203 -0.24564758
0.03015828 -0.7212146 -1.3410536 -0.12571748 0.8368666 0.83295566 -1.1709509 2.096764
0.66744477 0.39619052 0.13080472 -0.27252316 -0.9312372 -0.16115904 -0.96991366 -0.76043427
-0.6486141 -0.87984043 -2.1142886 0.36436686 0.4453325 0.43683022 0.7559724 -0.69351524
0.50958395 0.83528244 -0.9820113 -0.26392984 -2.5971735 -0.12802774 1.109969 0.9254987
0.13957654 -0.9525747 -0.20375259 -0.96429306 -2.1818523 -0.11399076 -0.0013633975 0.8256091
-0.9347239 -1.57848 -0.651216 -0.8431878 -1.0318351 -0.36514297 3.945901 -0.34614244
1.0616813 -0.74577963 3.7199776 -0.7131045 -0.8965872 -0.4145041 0.6640826 3.6480074
0.6688709 1.4140038 2.0196476 -1.5877588 -1.6018775 0.6591103 -2.065728 0.35326904
-0.54077977 -1.3035471 0.66828614 -1.9260323 1.344042 -0.20635657 0.03442778 3.1313245
0.44680122 -0.38150603 -0.10664605 -0.33662188 -2.2067678 -1.1544435 0.96495986 1.7224319
1.203027 -1.0754701 -2.5573752 -0.7018501 0.7951176 -0.07560548 1.1697085 0.08568049
0.8463985 -0.21122657 -1.2655294 -1.0269582 -2.883713 -0.4437601 -0.4687732 1.4331515
0.9039456 -0.7948273 2.188161 -0.43856803 -2.1548684 0.32487395 0.95500195 0.49400797
-1.3659015 0.8399116 -1.0284588 -1.298701 -1.4279633 -0.47705397 -0.07682442 -0.68945026
-0.20308696 -0.9555106 2.0372772 -2.2507672 -0.55369925 0.039448038 -0.54296833 2.7196715
-0.43816793 3.0489874 -0.27427468 -0.333756 -0.40702358 -0.18721472 0.31960443 0.034050744
1.56469 0.27939865 -3.595196 -0.94219774 2.559532 -1.7312936 1.6675463 -0.31573465
1.3449912 -3.4151633 0.7050817 2.3504465 -0.053388618 3.5402029 1.318285 -7.4949813
-3.476633 0.12966396 0.9224334 -0.2616295 2.7282882 -0.1290474 0.16806765 1.4946647
0.12709452 -0.9519988 -1.3011687 -0.15364783 -3.491968 -3.3673337 -1.4547321 0.5603546
-2.444152 -8.0342455 -10.775158 1.789736 0.8532564 -1.4247912 9.678984 1.717451
1.1310722 7.689743 0.8746749 0.21830302 -2.592965 -0.6165437 -0.68572587 0.15645903
-6.76311 2.7469244 1.5755113 1.3031107 -0.49226412 -2.2653375 -2.3095655 -1.0053494
00000000: a45b b33e 71b7 163e f166 90bf 106d 0940
00000010: 822f 923f 1796 10c0 e71e 033f 91c0 c73f
00000020: b9ee 39c0 1c00 073f 556a a03f 0798 0440
00000030: bd03 bdbf 3df1 50c0 c2f4 5c40 e137 b2bf
00000040: 1883 27c0 f93b c3bf 6107 30c0 afcb 05c0
00000050: a5a3 6e3f fa3c 7040 0528 7a3f b90b e33d
00000060: 3d47 49be 763b 0c40 f455 db3f fff3 dfbf
00000070: c53d bbbf 9846 463f 6500 f0bf 0d08 b23f
00000080: e9c4 03c0 d17e 75bf 77d5 e23f dd2a 1340
00000090: 2b80 c73f 0908 e2bf 93db 1ec0 47ac c6bf
000000a0: d737 8bbf 9183 a53f d2b1 053f 9f3f 9abf
000000b0: f436 e03f 696e e63f 861c 0bc0 94bb 17c0
000000c0: 2c92 1040 c1c2 febf 0f22 ea3f 877d a33f
000000d0: 58ee d53f 7652 cdbf 7f18 9e3f 6755 d53f
000000e0: 2059 3fc0 2f03 a43f 4bb5 c0bf 19e5 4040
000000f0: afa4 f0be fdd1 fd3f 4f19 55bf 1f7f 55c0
00000100: ea50 433f 820a 5c40 b467 9b3f eaf7 7c3d
00000110: ea2a 67bf 28be 633f 1a37 2dbf 0a8b 7bbe
00000120: 7f0e f73c 85a1 38bf a5a7 abbf 15bc 00be
00000130: e43c 563f 953c 553f b8e1 95bf 6231 0640
00000140: a9dd 2a3f 7cd9 ca3e acf1 053e 2888 8bbe
00000150: 9065 6ebf e006 25be 434c 78bf d2ab 42bf
00000160: 930b 26bf 393d 61bf 8150 07c0 4b8e ba3e
00000170: 9f02 e43e 36a8 df3e 6887 413f 378a 31bf
00000180: 1874 023f 12d5 553f 1865 7bbf d021 87be
00000190: 1738 26c0 b419 03be 7713 8e3f 7ced 6c3f
000001a0: 27ed 0e3e efdb 73bf 85a4 50be e9db 76bf
000001b0: 78a3 0bc0 fd73 e9bd 07b4 b2ba 1e5b 533f
000001c0: 114a 6fbf a20b cabf 17b6 26bf 28db 57bf
000001d0: 2c13 84bf 05f4 babe a489 7c40 9539 b1be
000001e0: 2ce5 873f 6aeb 3ebf 1d14 6e40 048e 36bf
000001f0: bd86 65bf e239 d4be 5101 2a3f f478 6940
00000200: 203b 2b3f 14fe b43f e841 0140 ae3b cbbf
00000210: 520a cdbf 74bb 283f e334 04c0 aedf b43e
00000220: 8b70 0abf a2da a6bf cd14 2b3f 3a88 f6bf
00000230: 9109 ac3f 234f 53be 2504 0d3d 9f67 4840
00000240: 21c3 e43e c254 c3be 3f69 dabd b459 acbe
00000250: af3b 0dc0 cec4 93bf 9c07 773f a678 dc3f
00000260: cafc 993f 01a9 89bf 09ac 23c0 73ac 33bf
00000270: d48c 4b3f 0cd7 9abd 02b9 953f 4179 af3d
00000280: 92ad 583f c74b 58be defc a1bf 5e73 83bf
00000290: c18e 38c0 8634 e3be 0a03 f0be 8271 b73f
000002a0: fb68 673f cd79 4bbf d40a 0c40 fd8b e0be
000002b0: 5de9 09c0 e155 a63e 027b 743f 9dee fc3e
000002c0: dcd5 aebf 7204 573f 8aa4 83bf d63b a6bf
000002d0: 80c7 b6bf 6b40 f4be 1f56 9dbd d07f 30bf
000002e0: 07f6 4fbe 589c 74bf c062 0240 920c 10c0
000002f0: 3cbf 0dbf 4494 213d f9ff 0abf 190f 2e40
00000300: 8c57 e0be 9c22 4340 bb6d 8cbe 11e2 aabe
00000310: 6565 d0be 37b5 3fbe 31a3 a33e cb78 0b3d
00000320: c347 c83f 570d 8f3e b117 66c0 df33 71bf
00000330: 5fcf 2340 079b ddbf 2872 d53f f9a7 a1be
00000340: ac28 ac3f 0992 5ac0 3c80 343f b76d 1640
00000350: 06ae 5abd af92 6240 90bd a83f e3d6 efc0
00000360: 2881 5ec0 a1c6 043e 9824 6c3f 4df4 85be
00000370: 469c 2e40 0025 04be ed19 2c3e 2c51 bf3f
00000380: 1125 023e 31b6 73bf b28c a6bf db55 1dbe
00000390: 677c 5fc0 6582 57c0 a934 babf 6673 0f3f
000003a0: fd6c 1cc0 458c 00c1 0c67 2cc1 1216 e53f
000003b0: 036f 5a3f 8f5f b6bf 1edd 1a41 6fd5 db3f
000003c0: f9c6 903f 6012 f640 b2ea 5f3f d48a 5f3e
000003d0: 23f3 25c0 cfd5 1dbf bb8b 2fbf cc36 203e
000003e0: 666b d8c0 9ccd 2f40 5baa c93f 55cc a63f
000003f0: 0b0a fcbe 4afb 10c0 eccf 13c0 4aaf 80bf

bias f4 [64]
-1.2876836 0.54197395 0.96904933 1.3203065 0.26389328 -0.833617 0.8923717 0.9187966
-1.9744537 0.6926118 -1.0651087 -1.9932182 -1.469774 -0.107914895 1.872417 0.19304076
1.6904055 1.8224651 0.98685354 1.0584643 1.2121066 0.54852253 0.6702352 0.72124195
-0.9203497 -0.5873837 -1.0394026 0.4112074 -0.9536745 -1.5150315 -2.2166994 1.2593051
-1.0978069 0.3358362 1.4736432 1.1902227 -1.0264513 -0.84787357 0.24327452 -0.8793852
-0.79012233 -1.0025685 -0.70153636 0.7662874 -2.5304673 -0.6852244 1.3919067 -0.6777349
-1.321553 -0.56748617 1.3639399 1.2340137 -1.4716139 1.2157272 -1.5335855 0.7513954
0.9946449 2.1624787 1.8553236 0.75469816 0.27382898 -1.9096351 0.20676257 -0.7922962
00000000: d1d2 a4bf cebe 0a3f 9e13 783f ceff a83f
00000010: 051d 873e ec67 55bf 7972 643f 4136 6b3f
00000020: e6ba fcbf 024f 313f 7b55 88bf c621 ffbf
00000030: 8e21 bcbf 7c02 ddbd 5cab ef3f 7aac 453e
00000040: 355f d83f 8946 e93f 6fa2 7c3f c27b 873f
00000050: 4f26 9b3f f96b 0c3f 8994 2b3f 50a3 383f
00000060: 0a9c 6bbf c75e 16bf 250b 85bf c789 d23e
00000070: 0324 74bf 8dec c1bf 67de 0dc0 e930 a13f
00000080: f084 8cbf b9f2 ab3e 57a0 bc3f 3859 983f
00000090: c262 83bf 3e0e 59bf f51c 793e 631f 61bf
000000a0: 7545 4abf 2a54 80bf e397 33bf 692b 443f
000000b0: 2df3 21c0 de6a 2fbf 002a b23f 0980 2dbf
000000c0: a628 a9bf c646 11bf 9595 ae3f 29f4 9d3f
000000d0: d85d bcbf f39c 9b3f 884c c4bf 735b 403f
000000e0: 0ca1 7e3f 0d66 0a40 3e7b ed3f e633 413f
000000f0: 5033 8c3e ec6e f4bf 91b9 533e ecd3 4abf

weight f4 [1, 64]
17.596468 33.24476 -17.615984 -24.011711 23.506088 17.596622 24.592464 -24.158852
16.35459 31.310452 25.604717 25.0637 4.9644938 23.982363 -23.594501 -24.656622
-25.598387 -23.619581 -10.19874 -17.5319 24.686071 -23.159405 36.710472 25.188297
-25.34527 -34.31834 25.23811 43.505005 16.894123 26.343233 23.105234 24.198593
28.666346 40.809826 -16.640648 -22.55579 17.450874 25.542854 -17.978966 27.52454
-23.27768 25.08573 24.475388 42.625767 22.337221 4.609745 32.419327 -34.671013
17.361668 -43.31476 -26.465008 -25.262798 24.922565 -5.3297997 -31.432192 23.369703
-26.486496 39.425625 28.773432 41.23617 -25.499086 26.84762 -24.694748 -24.531063
00000000: 91c5 8c41 a2fa 0442 89ed 8cc1 fc17 c0c1
00000010: 780c bc41 e2c5 8c41 5ebd c441 5445 c1c1
00000020: 33d6 8241 ce7b fa41 76d6 cc41 7582 c841
00000030: 22dd 9e40 e1db bf41 8ac1 bcc1 c340 c5c1
00000040: 7fc9 ccc1 e7f4 bcc1 0a2e 23c1 5541 8cc1
00000050: 137d c541 7646 b9c1 86d7 1242 a281 c941
00000060: 1dc3 cac1 fb45 09c2 a6e7 c941 2005 2e42
00000070: 2a27 8741 f1be d241 85d7 b841 b896 c141
00000080: ad54 e541 433d 2342 0c20 85c1 4272 b4c1
00000090: 649b 8b41 c457 cc41 ecd4 8fc1 4232 dc41
000000a0: b038 bac1 93af c841 98cd c341 c980 2a42
000000b0: a1b2 b241 0883 9340 64ad 0142 1eaf 0ac2
000000c0: b2e4 8a41 5042 2dc2 56b8 d3c1 361a cac1
000000d0: 6a61 c741 b88d aac0 2175 fbc1 27f5 ba41
000000e0: 58e4 d3c1 d7b3 1d42 fd2f e641 d7f1 2442
000000f0: 21fe cbc1 edc7 d641 d88e c5c1 9e3f c4c1
