dir_save_test/we0_model_dist_0.pth (torch, 3091 bytes, 1 tensors)

weight f4 [1, 64]
00000000: 19a8 edbe bbda 893e d348 113e f994 ce3d
00000010: 2099 eb3c ef39 823e 9c51 e63a 86c9 2a3d
00000020: 8e97 1b3a ba33 d3bb 8290 a13d fa31 b73d
00000030: 49bd 103d 57df 9e3e 7ae6 a83d 8e11 9f3c
00000040: 2df7 303d 1992 96bd 4dd7 d8be daad 20be
00000050: 900a d53e e727 163e a3fd 083b 3a8b eb3e
00000060: f5fd 7bbe e47a d33c 7e2e dfbd 7dfe 8f3e
00000070: e4be 103e d553 89bd dced cdbd 033f b63d
00000080: 056f 5abe e3ce b9bd 81a6 8bbc 895d a13d
00000090: 38c2 5bbb dcb9 31bd 67ca ccbe 9e5a 1d3e
000000a0: 6bc1 70bd ccf9 6bbe 13cf 8f3d 71d1 25bb
000000b0: 42e0 1f3c 0a46 98be 5797 123d cddb cabe
000000c0: ae2d fe3e 5b44 abbe 5053 663d 7d44 573e
000000d0: 9363 41be 20b0 a73d be0a 48bd e66b 4cbd
000000e0: f42c 253e ab67 cfbe 8b97 7e3d d3d4 743e
000000f0: 296f bb3d 89c8 7a3e f184 ce3e 5b93 b73b
-0.4641731 0.2692469 0.14187936 0.10087008 0.02875954 0.25434825 0.0017571929 0.041696094
0.0005935364 -0.0064453753 0.07888891 0.08945079 0.035336766 0.3102977 0.08247085 0.01941755
0.043204475 -0.07352085 -0.4235176 -0.15691319 0.4160962 0.14663659 0.0020903132 0.4600466
-0.24608596 0.025815435 -0.108975396 0.28123847 0.14135319 -0.06705443 -0.10055134 0.08898737
-0.21331413 -0.09072664 -0.017047169 0.078791685 -0.0033532511 -0.04339014 -0.3999817 0.15366599
-0.058778208 -0.23044509 0.07021918 -0.0025301839 0.009758057 -0.29740936 0.03578886 -0.3962082
0.49644226 -0.3345059 0.056231797 0.2102222 -0.18885641 0.0818789 -0.04883837 -0.049907587
0.1613043 -0.4050878 0.06215624 0.23909311 0.091520615 0.2449056 0.403358 0.005602283
