dir_save_test/we0_critic_0.pth (torch, 19512 bytes, 4 tensors)

0.weight f4 [64, 2]
0	0x3ee8fe76	0.45506638
1	0x4164e280	14.305298
2	0x3f2e4655	0.6807607
3	0xc11b41d6	-9.703573
4	0xbe88100a	-0.26574737
5	0xc19d9891	-19.699495
6	0x3c8c9b01	0.017163755
7	0xc0fff81b	-7.9990363
8	0xbf25fef6	-0.64842165
9	0x41163a06	9.389166
10	0x3edcc56e	0.43119377
11	0x40db880d	6.8603578
12	0xbf1d2ea1	-0.61399275
13	0x418f1fd1	17.890535
14	0x3f01f068	0.50757456
15	0xbf17f687	-0.59360546
16	0x3f22a058	0.63525915
17	0x40a16347	5.043369
18	0x3c2bb6f8	0.010480635
19	0x401e7cfb	2.4763782
20	0xbf462a6b	-0.77408475
21	0xc11513ea	-9.317362
22	0x3d46028f	0.048342284
23	0xc0ef9527	-7.486957
24	0xbcff5ba3	-0.031171625
25	0x3ee2052c	0.4414457
26	0xbfa46c4a	-1.2845547
27	0xc0f61013	-7.689462
28	0x3fa6f48f	1.3043383
29	0x40e02da5	7.005572
30	0x3e205555	0.15657552
31	0xc181d6db	-16.22991
32	0x3f267628	0.6502404
33	0x3e9b1157	0.30286667
34	0xc0431648	-3.048235
35	0x401e91e3	2.4776542
36	0x3f81339d	1.0093876
37	0xbf52f921	-0.8241139
38	0x3f26cb1b	0.65153664
39	0x40cac54e	6.336585
40	0x3f08d99d	0.5345705
41	0x418c63a3	17.54865
42	0x3f17f69d	0.59360677
43	0xc09b5c70	-4.855034
44	0x3e9a4716	0.3013236
45	0xc18f6204	-17.92286
46	0xbfa9c78b	-1.3264021
47	0xc08ec1c3	-4.4611526
48	0xbf2d4ae9	-0.6769243
49	0x3f1c1a49	0.6097761
50	0xbe8c73db	-0.2743214
51	0x3e1de000	0.1541748
52	0xbe9f6f7c	-0.31139743
53	0x410737de	8.451139
54	0xbf4f99c5	-0.8109401
55	0xc1c20d96	-24.256634
56	0x3f0bff2e	0.5468625
57	0x401ecd5a	2.4812837
58	0xbe9ccf85	-0.30627075
59	0xc0f5fed2	-7.687356
60	0xbf2731fe	-0.6531066
61	0x3f022c2b	0.50848645
62	0x3fafe446	1.3741539
63	0xc116b8e9	-9.420144
64	0xbeb4129b	-0.35170445
65	0xbf6daf85	-0.92845947
66	0xbf0331f8	-0.5124812
67	0xc18569be	-16.676632
68	0xbef0ff05	-0.47069564
69	0xc162ed33	-14.18291
70	0xbedca6bc	-0.43095958
71	0xc06371cf	-3.5538213
72	0xbf2dab34	-0.6783936
73	0x413fb399	11.981347
74	0xc0407323	-3.0070274
75	0x408ed3ed	4.46337
76	0xbfccdc38	-1.6004705
77	0x419adee7	19.358839
78	0xbeb865c4	-0.3601514
79	0xc0ab695e	-5.356612
80	0xbeb5e0b5	-0.35523
81	0x408ad324	4.338274
82	0xbf82d7c0	-1.0222092
83	0x3fb83b01	1.4393007
84	0xbfa9897a	-1.324508
85	0xc0ad46eb	-5.414907
86	0x3efc0298	0.4922073
87	0x40977159	4.7325864
88	0x3efe9d96	0.49729604
89	0x4134cb9d	11.29971
90	0xbec332a1	-0.38124564
91	0x40aded34	5.4352055
92	0x3f6955ab	0.91146344
93	0x3ff38f76	1.9028156
94	0x3ee1d177	0.44105121
95	0xbf54fa36	-0.8319429
96	0x3f1a16b3	0.60190886
97	0xc1cb78b3	-25.433935
98	0x3f67a052	0.90479004
99	0x408b6726	4.3563414
100	0x3c87dff9	0.01658629
101	0xc054ebd7	-3.3268945
102	0x3f1b52f3	0.60673445
103	0xbbc1ad18	-0.005910527
104	0xbe592ed7	-0.21209274
105	0x40b05e1d	5.5114884
106	0xbfe0852b	-1.754064
107	0x3e10f59d	0.14156194
108	0xbf543880	-0.8289871
109	0xc13169b9	-11.088311
110	0x3f026946	0.50941885
111	0x3e313d39	0.17308511
112	0xc03a090f	-2.906803
113	0x412476df	10.279021
114	0x3f84be7a	1.0370629
115	0x3ec211ef	0.37904307
116	0xbc92d768	-0.01792498
117	0xc1917685	-18.18287
118	0x3cb290a4	0.021797486
119	0xc153cea6	-13.237951
120	0xbeaeba73	-0.34126624
121	0xbeaf59b7	-0.34248134
122	0xbec61cfd	-0.3869399
123	0x40823eba	4.070157
124	0xbf2781dc	-0.65432525
125	0x416dec8c	14.870251
126	0xbdb0cab8	-0.086324155
127	0x41af85d9	21.940355

0.bias f4 [64]
0	0x40124e16	2.286016
1	0x3fb082b6	1.378989
2	0x3fe0a48b	1.7550215
3	0xc0511943	-3.2671669
4	0xbf8539a1	-1.0408212
5	0x40166bd9	2.3503325
6	0xbfbd80fb	-1.4804987
7	0xc02b00ac	-2.671916
8	0x40146f8b	2.319308
9	0xc03342dd	-2.800956
10	0xc010bcd0	-2.2615242
11	0xc0564944	-3.3482218
12	0x404c5a1e	3.1930003
13	0xc08f9d7f	-4.4879756
14	0x40922af5	4.567744
15	0x40029d22	2.0408406
16	0x3fd9693e	1.6985242
17	0xbdd9e8e8	-0.106401265
18	0xbf61a133	-0.88136595
19	0x4001ddd0	2.0291634
20	0xc03e8ba8	-2.977274
21	0x405ec77c	3.4809256
22	0x3f9c8f9a	1.2231324
23	0xc018e06d	-2.3886979
24	0xc044c055	-3.074239
25	0xbfd7d28d	-1.686113
26	0xc01ca9d2	-2.447865
27	0xc01e61d3	-2.4747207
28	0x404cd479	3.2004683
29	0xbf09a34d	-0.537648
30	0x40599c72	3.4001737
31	0x3ecb0986	0.39655703
32	0x3ff4d9ce	1.9128969
33	0xbfac8be0	-1.3480186
34	0xc02a8f7e	-2.665008
35	0xc00f54e2	-2.2395558
36	0xbffebe4c	-1.9901824
37	0xbe5a68f0	-0.21329093
38	0x3e9111bd	0.28333846
39	0x3ff5ae90	1.9193897
40	0xbfa00cef	-1.2503947
41	0xbffec59f	-1.9904059
42	0xc01a1152	-2.4073071
43	0x3f997232	1.1987975
44	0xc02be1e7	-2.685663
45	0xbe986a2a	-0.29768497
46	0x3ffbbe2a	1.9667408
47	0x3fb6fd86	1.4296119
48	0xbf289363	-0.65849894
49	0x3fecbca5	1.849507
50	0xc02f2bfa	-2.737059
51	0xc04aa7b8	-3.1664867
52	0xc03c03fc	-2.9377432
53	0xbdf2b618	-0.11851138
54	0xc02865d7	-2.6312158
55	0xc02c631b	-2.693549
56	0xbec31293	-0.38100109
57	0xbeb115ec	-0.34587038
58	0x3f7d2699	0.9888702
59	0xc054628c	-3.3185148
60	0x3fedc683	1.8576206
61	0xbf709b2c	-0.93986773
62	0xbfa82ff2	-1.3139632
63	0x407cfd57	3.9529626

2.weight f4 [64, 64]
0	0x3eb33e86	0.3500864
1	0x3e167ad7	0.14695297
2	0xbf906073	-1.1279434
3	0x40096d3f	2.1472929
4	0x3f9235ff	1.1422728
5	0xc0109747	-2.2592332
6	0x3f032cf8	0.5124049
7	0x3fc7ba13	1.560366
8	0xc039ef79	-2.9052413
9	0x3f06f20f	0.527131
10	0x3fa070d3	1.2534431
11	0x400496ff	2.071716
12	0xbfbcfd40	-1.4764786
13	0xc050f00c	-3.2646513
14	0x405cf391	3.452366
15	0xbfb23163	-1.3921322
16	0xc027841b	-2.617438
17	0xbfc3357b	-1.5250696
18	0xc0300892	-2.750523
19	0xc005cce0	-2.0906296
20	0x3f6e95b4	0.9319718
21	0x40703e2b	3.7537944
22	0x3f7a3603	0.97738665
23	0x3de387d6	0.11109893
24	0xbe490aa3	-0.19632964
25	0x400c3c1d	2.191169
26	0x3fdb4f76	1.7133625
27	0xbfdfed81	-1.7494355
28	0xbfbb4413	-1.463015
29	0x3f464ecd	0.7746399
30	0xbfeff9e7	-1.8748139
31	0x3fb2018f	1.3906726
32	0xc003c3c1	-2.0588229
33	0xbf7570c2	-0.9587518
34	0x3fe2dbf1	1.7723371
35	0x40132bff	2.2995603
36	0x3fc786a9	1.558797
37	0xbfe2018b	-1.7656721
38	0xc01eda62	-2.482079
39	0xbfc6a5cf	-1.5519351
40	0xbf8b374a	-1.0876248
41	0x3fa58a0f	1.2932757
42	0x3f05bfe3	0.5224592
43	0xbf9a461d	-1.2052647
44	0x3fe03077	1.751479
45	0x3fe673b8	1.8004065
46	0xc00b1db7	-2.1736887
47	0xc017bcbe	-2.370895
48	0x40109102	2.2588506
49	0xbffec93f	-1.9905165
50	0x3fea1b95	1.8289667
51	0x3fa37709	1.2770702
52	0x3fd5e7de	1.6711385
53	0xbfcd4bf8	-1.6038809
54	0x3f9e1eee	1.2353189
55	0x3fd54eeb	1.6664709
56	0xc03f57ef	-2.989742
57	0x3fa3fcb1	1.281149
58	0xbfc0aeec	-1.5053382
59	0x4040e3fd	3.0139153
60	0xbef087ed	-0.46978703
61	0x3ffdd876	1.9831684
62	0xbf550b42	-0.83220303
63	0xc055804f	-3.3359563
64	0x3f162432	0.5864898
65	0x40654b69	3.5827277
66	0x3f88e93e	1.069618
67	0x3e556e21	0.20842792
68	0xbf861d22	-1.0477641
69	0x3f3baa64	0.7330687
70	0xbf51dabf	-0.81974405
71	0xbdce8241	-0.10083438
72	0x3e0d6e7a	0.13811675
73	0xbf139077	-0.5764231
74	0xbfbc490d	-1.4709793
75	0x3ca242fb	0.01980733
76	0x3f312a22	0.69204915
77	0x3f47050c	0.77742076
78	0xbf8e703d	-1.1128002
79	0x400ff7dc	2.2495031
80	0x3f4cbd59	0.7997642
81	0x3e80b486	0.25137728
82	0x3e8d1ea2	0.27562433
83	0xbe3b4a7f	-0.18290137
84	0xbf495a2e	-0.7865323
85	0xbd393a64	-0.0452217
86	0xbf536085	-0.8256915
87	0xbf67ae5a	-0.90500414
88	0xbf4028e9	-0.75062424
89	0xbf4d7427	-0.8025536
90	0xc00ca2ab	-2.1974285
91	0x3ea1ce5a	0.31602746
92	0x3f046b4f	0.5172624
93	0x3f1af56f	0.6053075
94	0x3f1c7420	0.6111469
95	0xbf0c7680	-0.54868317
96	0x3ebac90e	0.36481518
97	0x3f4ebbf3	0.8075554
98	0xbf46869d	-0.77549154
99	0xbe7e32b6	-0.24824032
100	0xc02f72eb	-2.741389
101	0xbe8bb1cf	-0.27284095
102	0x3f771383	0.9651415
103	0x3f47e83a	0.78088725
104	0x3d83326d	0.06406102
105	0xbf8c7479	-1.0973045
106	0xbeb26b84	-0.34847653
107	0xbf6ecaf6	-0.93278444
108	0xc0025e30	-2.0369987
109	0xbe845e70	-0.258533
110	0x3e1132a4	0.14179474
111	0x3f72862f	0.94736
112	0xbf4a3684	-0.78989434
113	0xbfb7ae78	-1.4350119
114	0xbf01a33d	-0.50639707
115	0xbf32c7cb	-0.6983611
116	0xbf631cbc	-0.8871572
117	0xbf028d36	-0.5099672
118	0x4076cb33	3.8561523
119	0xbe4e28e1	-0.20132782
120	0x3f6ab6e5	0.91685325
121	0xbf19d79a	-0.60094607
122	0x407865f0	3.8812218
123	0xbf1179dd	-0.56826574
124	0xbf854bb3	-1.0413727
125	0xbf0d14e4	-0.5511
126	0x3f0501df	0.5195598
127	0x40601936	3.5015388
128	0x3f58aad6	0.84635675
129	0x3fcf328b	1.61873
130	0x3fe85697	1.8151425
131	0xbfc5ef3c	-1.5463634
132	0xbfe770e0	-1.8081322
133	0x3f54a4a3	0.83063716
134	0xc01152cd	-2.2706788
135	0x3f0f0c5d	0.5587824
136	0xbe98233d	-0.29714385
137	0xbf8cbf4b	-1.0995878
138	0x3eee186c	0.46503007
139	0xbfdca0df	-1.7236594
140	0x3f91eca2	1.140034
141	0xbed20fcb	-0.41027674
142	0x3e741742	0.23836997
143	0x404290c8	3.0400867
144	0x3f26f01b	0.6521012
145	0xbf1624bc	-0.586498
146	0x3dcc8edf	0.09988188
147	0xbe073714	-0.13204604
148	0xbff78162	-1.933636
149	0xbf9e79df	-1.2380942
150	0x3f4dbc79	0.8036571
151	0x3fc25a68	1.518384
152	0x3f7fbabd	0.99894315
153	0xbf9fe49a	-1.2491639
154	0xc01bed70	-2.436367
155	0xbf679617	-0.90463394
156	0x3f7f71c7	0.99782985
157	0xbe17a3d6	-0.14808592
158	0x3f76edb9	0.96456486
159	0x3e9623bf	0.29324147
160	0x3f23c3de	0.63970745
161	0xbecde0b5	-0.402105
162	0xbfb32142	-1.3994524
163	0xbf9c1540	-1.2193985
164	0xc045b12c	-3.0889387
165	0xbf2610db	-0.6486947
166	0xbf2d05b0	-0.67586803
167	0x3f9d2dc8	1.2279596
168	0x3f400275	0.7500375
169	0xbf7fd423	-0.9993307
170	0x3ffdf74e	1.9841096
171	0xbe6d7595	-0.23189385
172	0xbff96196	-1.9482906
173	0x3df25e15	0.11834351
174	0x3f94b930	1.1619015
175	0x3f328484	0.6973345
176	0xbf945632	-1.1588805
177	0x3f85e6d2	1.0461066
178	0xbf52e428	-0.8237939
179	0xbf8c17f7	-1.0944813
180	0xbf9cdb29	-1.2254382
181	0xbf2eaf6d	-0.6823643
182	0xbe92299e	-0.28547376
183	0xbef84765	-0.4849197
184	0xbed22d0b	-0.4104999
185	0xbf4031cc	-0.75075984
186	0x3fe9df82	1.8271334
187	0xc002f20c	-2.0460234
188	0xbf42d471	-0.7610541
189	0xbe2a2dc2	-0.16619018
190	0xbf402e37	-0.7507052
191	0x4031db0d	2.7789948
192	0xbf338786	-0.7012867
193	0x400e3d95	2.2225087
194	0xbea604f4	-0.32425654
195	0xbe0acc0d	-0.13554402
196	0xbe0e403d	-0.13891692
197	0xbedd237b	-0.43191132
198	0x3ea8f4eb	0.32999358
199	0x3e6b1855	0.229585
200	0x3fa00b6e	1.2503488
201	0x3ef25d3a	0.4733675
202	0xc051af60	-3.276329
203	0xbf3ef140	-0.7458687
204	0x4017486a	2.3637948
205	0xbfc1d6e9	-1.514371
206	0x3fb9488b	1.4475263
207	0xbf49b5f8	-0.7879329
208	0x3f0a65c6	0.54061544
209	0xbf1b7df7	-0.6073908
210	0x3f613787	0.87975353
211	0x3f8bac48	1.0911951
212	0x3e233aab	0.15940349
213	0x4052c4f4	3.293271
214	0x3f971dd9	1.1805984
215	0xc073c9eb	-3.809199
216	0xc02e8962	-2.7271352
217	0x3f07d673	0.530616
218	0x3f960d5f	1.172283
219	0x3a49fc04	0.0007705095
220	0x402069e8	2.506464
221	0xbdfdc993	-0.12391963
222	0xbce87513	-0.028376138
223	0x3fd258f5	1.6433398
224	0xbd87cde6	-0.06631069
225	0xbf1c85e1	-0.61141783
226	0xbf8c6417	-1.0968045
227	0x3e34232c	0.17591542
228	0xbe504cae	-0.20341751
229	0xbf4c52cc	-0.7981384
230	0xbfd35a83	-1.6511997
231	0x3ebe2811	0.37139943
232	0xbffe3b50	-1.9861851
233	0xc07734da	-3.8626008
234	0xc0a04f29	-5.009663
235	0x3f7e1530	0.9925108
236	0x3f864e9e	1.0492742
237	0xbf18b0d7	-0.59644836
238	0x3fc706ca	1.5548947
239	0x3f21d743	0.6321909
240	0x3fa81b51	1.3133336
241	0x40688533	3.6331298
242	0x3f891964	1.0710874
243	0x3ed441da	0.4145649
244	0xc0196cc0	-2.3972626
245	0xbf240297	-0.6406645
246	0xbecc8a52	-0.3994928
247	0x3eb42fce	0.35192722
248	0xbf6eaa95	-0.9322904
249	0x40386c27	2.881601
250	0x3f6f24b1	0.9341536
251	0x3fbff84e	1.4997652
252	0xbf30a9d8	-0.6900916
253	0xbf88c987	-1.0686501
254	0xbfe6cfa7	-1.803212
255	0xbf99fdef	-1.2030619

2.bias f4 [64]
0	0xbfa4cc53	-1.2874855
1	0x3ecb589d	0.39716044
2	0x3f43da37	0.76504844
3	0x3f8fd6da	1.1237442
4	0x3eb3f773	0.35149726
5	0xbf5567ec	-0.833617
6	0x3f5bae7e	0.8581313
7	0x3f7dca96	0.99137247
8	0xbfede233	-1.8584656
9	0x3ed0f1c2	0.40809447
10	0xbf5ac95b	-0.85463494
11	0xc00262d3	-2.0372818
12	0xbf9ecf72	-1.2407057
13	0x3d214b85	0.03937866
14	0x3fe82b1a	1.8138154
15	0x3e8142a0	0.25246143
16	0x3fb82b23	1.4388164
17	0x3fdf5be0	1.7449913
18	0x3f741ddb	0.95358056
19	0x3f7913aa	0.9729563
20	0x3f99c6b5	1.2013766
21	0x3e11ecd6	0.14250502
22	0x3f27ed17	0.65596145
23	0x3f180187	0.5937733
24	0xbf8f900b	-1.1215833
25	0xbf165ec7	-0.5873837
26	0xbf8b83a1	-1.0899545
27	0x3eaf9015	0.34289613
28	0xbf3a6772	-0.72814095
29	0xbfb04ac3	-1.3772815
30	0xc005f260	-2.0929184
31	0x3fb642a0	1.4239082
32	0xbf45d6b6	-0.7728075
33	0x3e907773	0.28216133
34	0x3fa38a43	1.2776569
35	0x3f95c623	1.1701092
36	0xbf82b3c1	-1.0211107
37	0xbf4c37a1	-0.7977238
38	0x3e931313	0.2872549
39	0xbf27dbe4	-0.655699
40	0xbf3853ee	-0.72003067
41	0xbf64d68d	-0.8938988
42	0xbee8013c	-0.45313442
43	0x3f442b69	0.7662874
44	0xc01b0eff	-2.4227903
45	0xbf159327	-0.5842766
46	0x3fb24e4c	1.3930144
47	0xbf2d8009	-0.6777349
48	0xbfa7841a	-1.3087189
49	0xbea53e25	-0.32273975
50	0x3fc16294	1.5108209
51	0x3f87f391	1.0621206
52	0xbfb46934	-1.4094605
53	0x3f899746	1.074929
54	0xbfc43621	-1.5329019
55	0x3f2f8bdd	0.6857279
56	0x3f76c21d	0.96389943
57	0x3fff2553	1.9933265
58	0x3fed7b3e	1.8553236
59	0x3f0a21a4	0.5395758
60	0x3f07602a	0.5288111
61	0xbfdba3d7	-1.7159375
62	0xbe5d288a	-0.21597496
63	0xbf5c7647	-0.86117977
