dir_save_test/we0_model_base_-160.pth (torch, 41568 bytes, 9 tensors)

weight f4 [64, 2]
000000 55 9b b5 3e 54 a8 2f 3f 7f 63 16 3f 9a 4c 32 3f
       0.3547007 0.68616223 0.5874557 0.69648135
000010 6a 5b bf 3e bb 2c 86 3f 95 e3 0d be 0d 43 74 3f
       0.3737443 1.0482401 -0.13856347 0.9541481
000020 02 00 8e be 2f 4d 85 bf c6 70 a3 3c 0a a7 59 3f
       -0.2773438 -1.041418 0.019951236 0.85020506
000030 41 df 93 3e 11 18 5b bf 02 7e ea 3d 6d 9a 2c bf
       0.28881267 -0.855836 0.11449815 -0.67423135
000040 6f e6 7c 3f 4d ed a9 3d a8 a2 1d 3f ec 48 28 3f
       0.98789114 0.08297215 0.6157632 0.6573627
000050 c8 dd 30 bf 83 5e 1e 3f 47 9b 42 be 14 1e 74 bf
       -0.6908841 0.61862963 -0.19004546 -0.95358396
000060 d0 d2 d3 be a6 78 55 3f 4f 76 26 bf 1e 98 25 3f
       -0.41371775 0.8338722 -0.65024275 0.6468524
000070 e6 0d 7c 3f f2 f4 eb bd d1 76 7b bf 9c 71 db bd
       0.9845871 -0.11521329 -0.98228174 -0.10715029
000080 64 24 10 bd fb 96 7b 3f 22 7d f1 bd d9 e2 6b 3f
       -0.035190955 0.9827725 -0.11791445 0.9214302
000090 5d 31 2f be 31 a0 7c 3f a3 3d 4b 3e 07 e7 82 bf
       -0.17108674 0.9868193 0.19847731 -1.0226754
0000a0 a8 07 32 3e e7 8e 7e bf 8c 98 f9 3e 71 70 58 3f
       0.17385733 -0.994368 0.48749197 0.8454657
0000b0 5e 43 f6 bd d5 35 31 3f 6a 1c 48 3d 85 6e 56 bf
       -0.12024568 0.69222766 0.048855223 -0.8376239
0000c0 8d 9a 33 3e b4 a3 4c bf 43 5e be 3e ba 8f 83 bf
       0.17539425 -0.7993729 0.3718129 -1.0278237
0000d0 b8 77 7c 3f 58 c9 9c bd 7e 6e 72 3f 02 14 90 be
       0.98620176 -0.07655591 0.9469985 -0.28140265
0000e0 39 4f cf 3d 7b bd 7b 3f 22 28 58 3f 12 ca ed be
       0.101225324 0.98336 0.8443624 -0.4644323
0000f0 dc 32 7a bf 71 e8 27 3e fb 03 77 3f 2b d0 4d 3e
       -0.97733855 0.16397263 0.9649045 0.20098941
000100 92 14 18 3f bc ad 7d bf 7b f3 3f bf cd e4 16 bf
       0.5940639 -0.9909322 -0.74980897 -0.5894287
000110 3f 03 23 3e 63 21 67 bf 81 2a bf 3e 76 89 4b bf
       0.15919207 -0.9028532 0.37337115 -0.79506624
000120 36 1d 62 be ca ac 86 3f 55 b9 32 3f 3c 03 21 bf
       -0.22081456 1.0521481 0.69814044 -0.6289556
000130 e1 98 ac bd 22 48 80 bf 45 14 98 bd a8 d9 4e 3f
       -0.08427597 -1.0022013 -0.07425741 0.8080087
000140 66 17 42 3e e5 aa 6b 3f db 0c 62 3f e4 f5 d6 3e
       0.18954238 0.9205764 0.88300866 0.41984475
000150 eb b6 74 bf 50 8c 80 3e 5c 0f 3d 3e 43 fc 64 bf
       -0.9559161 0.2510705 0.1846289 -0.8944742
000160 ea d6 39 3c 32 f6 82 3f 76 e1 5d 3f f9 64 e4 be
       0.011342743 1.0231383 0.8667215 -0.44608286
000170 73 3b 74 bf 5c 47 87 be 2e c6 55 bb a9 12 46 bf
       -0.9540321 -0.2642163 -0.0032619345 -0.77372223
000180 9e 6e d3 bd 8f 30 53 3f 6d 13 36 3e d1 3f 83 bf
       -0.10323833 0.8249597 0.17780848 -1.025385
000190 54 c4 0d 3f ee ee 83 bf a6 59 09 be 58 b1 83 bf
       0.553777 -1.030729 -0.13413104 -1.0288496
0001a0 b9 e4 ae be 22 2d 3e 3f bd dc ba be 76 b3 64 3f
       -0.34158877 0.7428762 -0.36496535 0.89336336
0001b0 36 53 67 3f 07 ea c7 be d5 be 65 3f 9e 1c cd be
       0.90361345 -0.39045736 0.8974431 -0.40060896
0001c0 93 1d 6e bf 05 d8 a7 be 4c 8e d3 3b a0 90 57 3f
       -0.93013877 -0.32781997 0.006456172 0.84205055
0001d0 45 42 cd be 99 69 7e bf 9d 57 00 3f 36 d4 7d bf
       -0.40089622 -0.9937988 0.5013369 -0.99151933
0001e0 e2 57 67 bf 5f e5 bd 3e 67 c4 c8 3e 91 a4 3f bf
       -0.90368474 0.3708906 0.39212343 -0.74860483
0001f0 47 c8 7c 3f 65 23 b0 bc dd 0f 4f bf db 6b 05 bf
       0.987431 -0.021501252 -0.8088358 -0.521177

bias f4 [64]
000000 dc 74 ea be 27 9e 79 3c 1c 99 e8 3e 77 34 62 bf
       -0.45792282 0.01523546 0.45429313 -0.88361305
000010 ce 1b 1b bf 47 f1 92 3e e5 44 da 3e 77 82 bc 3e
       -0.605893 0.28699705 0.42630687 0.36818287
000020 e0 64 fb 3a ad 23 dd 3c 8e 5f a1 bc 5e cc 57 bf
       0.0019179843 0.02699455 -0.019698884 -0.84296215
000030 9b 6a 2b 3f 92 6d b6 bc e9 c9 fb 3a a6 a7 35 bb
       0.6695954 -0.022269044 0.0019209954 -0.0027718334
000040 3a 20 7e 3e 84 7d 6e 3f 83 10 49 bf 73 fa 52 bf
       0.24816981 0.9316027 -0.7854082 -0.82413405
000050 33 ac 61 bf da 89 17 bf da 18 32 bf 82 82 a3 3e
       -0.8815338 -0.5919472 -0.6956917 0.31935507
000060 14 53 44 bf ae 1f 10 3e 01 38 22 3b 81 41 34 3b
       -0.7668927 0.14074585 0.002475262 0.0027504864
000070 9b 19 0f bc e5 9b 15 3c b2 ab 00 bb 8b 78 5d 3b
       -0.008734132 0.009131406 -0.0019633588 0.0033793773
000080 14 b3 aa be c3 5b 40 bc 63 8d 55 3f 65 ee 62 bd
       -0.3333975 -0.011740628 0.83418864 -0.055403132
000090 0e d9 c0 3e a5 0b 86 3c c7 42 30 bf c8 93 eb 3e
       0.376656 0.016362974 -0.68851894 0.46011186
0000a0 b9 80 70 bf 3a a8 ad 3b 99 70 35 bb af bc 8c bf
       -0.93946415 0.005299595 -0.0027685522 -1.0995082
0000b0 aa 5a 21 3e ee ce d4 3b 02 3a 12 bb d0 dc a0 3e
       0.15757242 0.0064943945 -0.0022312407 0.31418467
0000c0 aa 68 d7 3c ef 22 75 bf bd 11 e1 be 75 24 b6 bd
       0.026295025 -0.9575643 -0.43958846 -0.088936724
0000d0 7d cf 0f bf 6d ea 3f bf ff be 77 3b fc 63 77 3b
       -0.56175977 -0.7496708 0.0037803052 0.0037748804
0000e0 14 01 53 bb e9 5d 73 bf 47 cf 88 be a8 52 ed be
       -0.0032196688 -0.9506517 -0.2672064 -0.46352124
0000f0 71 0e ba bb fc a8 52 be e1 05 3b 3b dc 90 22 bc
       -0.005677991 -0.20572275 0.002853744 -0.0099222325

weight f4 [64, 64]
000000 29 5e c3 3e 13 4c 62 3e 6b 38 dc 3c 7f 7e 3d be
       0.38157776 0.22099333 0.026882371 -0.18505286
000010 82 cb 18 3d b6 b8 03 be ca 1a 27 3e 96 c7 ed be
       0.037303455 -0.1286343 0.16318813 -0.46441334
000020 1c 89 75 3b 65 53 2a 3e ec fe 71 be ab 8b 0f be
       0.0037465757 0.16633375 -0.23632401 -0.14018123
000030 3b d9 6a be 90 57 9c be a5 b3 ee 3d d2 3c 84 be
       -0.2293443 -0.30535555 0.11655358 -0.25827652
000040 6b 8a 22 bc 8f a3 37 3e 27 3a 66 be 12 06 6a be
       -0.009920697 0.17933486 -0.22483121 -0.22853878
000050 a0 b0 be bd dc 5e 61 3e 75 12 94 3e 37 8f a9 3d
       -0.09311032 0.22008842 0.28920332 0.08279269
000060 10 d7 1b bd bf 58 b0 be b6 28 12 3e ad 02 02 3d
       -0.038046896 -0.34442708 0.14273342 0.031740833
000070 0c 41 1d be f2 ce 81 3d 65 4e d3 be a9 95 fc 3d
       -0.15356845 0.063383 -0.41270748 0.12333233
000080 85 61 84 3e e1 f8 56 be 09 0b 4b 3e 1f f1 78 be
       0.25855651 -0.20993377 0.19828428 -0.2431073
000090 bd 85 09 3e 8f 55 87 3e 95 b1 9e bd 96 dc 55 3c
       0.13429923 0.26432464 -0.07748715 0.01305308
0000a0 96 66 62 be a9 c6 47 3e 98 23 80 be 65 8e 6b bd
       -0.22109446 0.19509377 -0.25027156 -0.057508845
0000b0 07 4d 43 be cf 25 7a bd fc 12 94 3d 46 84 8f 3d
       -0.19072352 -0.061071213 0.072301835 0.07007651
0000c0 ce 5b 84 3d 5b 67 7c be 1d fa 34 3e c6 ff 16 be
       0.06462823 -0.24648802 0.17673536 -0.14746007
0000d0 eb 9e 3a be 1b 90 77 be 14 9a 10 bc 7c be 92 3e
       -0.18224685 -0.24176066 -0.008825798 0.28660953
0000e0 d2 ad 3e be 84 7c 47 3e 7b f6 09 3e 9e 44 ef 3d
       -0.18620995 0.19481093 0.13472931 0.116830096
0000f0 67 86 1b be 92 9d 1f be 8f 76 17 3e 55 b6 85 be
       -0.15187989 -0.15587452 0.1479132 -0.2611567
000100 12 1c d4 bd b7 2e 00 3e 18 08 00 3b cd af ec ba
       -0.103569165 0.1251782 0.0019536074 -0.0018057764
000110 13 50 32 3d d6 2d 51 3d f9 c0 74 be 31 e7 33 3e
       0.043533396 0.051069103 -0.23901738 0.17568661
000120 b7 d0 74 3e fb f9 cb 3e b5 bc 44 be 27 d8 9b 3c
       0.23907743 0.39839157 -0.19212611 0.019023968
000130 b0 32 19 3e cb 59 4f bc 5e 6e 26 3e 35 ec 55 bd
       0.14960742 -0.012655686 0.16253039 -0.052227218
000140 ba eb f5 bc 14 09 99 3e ac d5 84 be 0f 44 1b be
       -0.03001963 0.2988974 -0.2594427 -0.15162681
000150 83 eb d4 bc 6d 12 9d bc 57 77 26 3b c1 48 a7 bd
       -0.025991207 -0.019173825 0.0025400722 -0.081681736
000160 14 89 62 3c 05 9b 0e 3d 33 06 ed 3e d0 d0 87 3e
       0.013826627 0.034815807 0.46293792 0.265265
000170 55 de e6 3b 1c f7 99 3e 31 72 c4 be d3 1f d3 3d
       0.007045547 0.30071342 -0.3836837 0.10308804
000180 23 97 3a 3d 90 f7 56 be 1d 52 78 be 4e 87 06 3d
       0.04555429 -0.20992875 -0.24250074 0.03284388
000190 17 2c 19 3e 47 e1 3d 3e 84 ad 56 bc ba 9d 2f 3d
       0.14958225 0.18542968 -0.013102893 0.04287503
0001a0 15 c3 8d 3d e5 08 65 3e 7d 1e 7d bb 03 7a d3 bd
       0.069219746 0.22366674 -0.0038622909 -0.10326006
0001b0 d7 cf 7d bd 8b b9 b1 3d a6 34 49 be b2 5d 31 3c
       -0.06196579 0.08677968 -0.1964899 0.010825561
0001c0 9a 1f 27 3d 2c 0c aa 3d 57 a5 0d 3d 19 23 d7 bd
       0.040801622 0.08303103 0.03458151 -0.10504741
0001d0 70 41 85 bc 7d e5 0c 3d 30 59 82 3e f6 45 55 3e
       -0.016266555 0.034398545 0.2545867 0.20827469
0001e0 8a b3 86 be e7 ec 7e 3d 04 4c 79 3e d0 e8 b1 3d
       -0.26308852 0.062237646 0.24345404 0.086869836
0001f0 0a f7 88 be c1 27 fb bd 8d c5 87 3e d7 71 48 be
       -0.26750976 -0.12263442 0.26517907 -0.19574676
000200 00 59 8b bd 8b c4 d0 3d 60 3a 35 3e 02 06 7b bd
       -0.06804085 0.101937376 0.1769805 -0.061285026
000210 60 2c 38 3e 83 02 66 3d da d7 9a 3c b6 26 9a 3e
       0.17985678 0.05615474 0.018901754 0.3010766
000220 e4 e8 f2 3e 59 91 ee 3e 9a ca a6 be 51 83 9d be
       0.47443306 0.46595266 -0.32576448 -0.3076425
000230 15 8b 13 3b b9 3c 75 be f0 0e a8 3e 55 67 bb be
       0.002251332 -0.23948945 0.32823896 -0.36602274
000240 d5 11 4c 3d 80 cb 18 3e 27 ea 86 bd 37 22 0d 3e
       0.049821693 0.14921379 -0.0658763 0.13782583
000250 99 bc c2 bd ea c8 6a 3d fe 08 d3 be 3a 44 4f bd
       -0.095086284 0.057320513 -0.41217798 -0.050602175
000260 fb 06 38 be 89 33 0a be 9d 34 aa 3e f4 b0 a1 3e
       -0.17971413 -0.13496222 0.33243266 0.31580317
000270 3d df a3 bd 62 5a 60 bb 14 9e 16 be 05 6c 42 3e
       -0.08001564 -0.003423356 -0.1470874 0.18986519
000280 8e 5d c4 3d e8 bc 5a bd 5b 15 27 bb ac bd 8e be
       0.09588157 -0.05340281 -0.0025494907 -0.27879083
000290 6e ad 01 be a4 35 b7 3e 25 aa 49 be e9 90 35 3e
       -0.12663814 0.35783112 -0.19693811 0.1773106
0002a0 7d 21 86 be 44 4b 3e 3e bf 56 ef be 7b 51 ac bd
       -0.26197425 0.18583399 -0.4674587 -0.08413979
0002b0 9c 83 4d 3d 2c c4 78 3e 4d 76 2c be 61 1d 3a 3e
       0.05017434 0.24293584 -0.16842003 0.1817527
0002c0 7e 85 d1 3d 79 9b 24 be d3 a0 2c bd 5d b9 35 bd
       0.1023054 -0.16074933 -0.04214556 -0.04436623
0002d0 3d c1 55 be 8f 39 79 be 46 6a 67 3e 01 20 1b 3e
       -0.20874496 -0.24338363 0.22599134 0.15148927
0002e0 85 26 36 be d4 64 9d bd 5f 08 2c bd d1 03 cc 3d
       -0.17788132 -0.07685247 -0.04200017 0.099616654
0002f0 36 0a 8a be a1 ce 83 bd a0 eb 8b 3e 8e 12 4a be
       -0.26960915 -0.06435896 0.27328205 -0.1973364
000300 33 1e c9 3d 60 d7 42 be d3 f0 ec bd 2e 94 6f 3e
       0.09820213 -0.19027472 -0.11569371 0.2339637
000310 af 92 23 3e 2b c7 8e be b8 67 3e be 1d de 0e be
       0.15973924 -0.27886328 -0.18594253 -0.13951917
000320 ce f1 a5 be 78 b2 39 be 57 4b 85 3e 7e 40 df 3d
       -0.32411045 -0.18134487 0.26034042 0.10900973
000330 2c 1a 1d 3c 1f 57 94 3e 36 c0 07 be a9 ec b0 3d
       0.009588759 0.28972718 -0.13256916 0.08638889
000340 bd 4c e0 bc b4 80 9b 3d 68 1b 85 3d ea 2e 38 3d
       -0.027380342 0.075929075 0.06499368 0.044966616
000350 2b 8a 9f 3d d3 fb 34 3e 7f 80 8b 3e a2 8d 21 be
       0.07790025 0.17674188 0.27246472 -0.15776685
000360 70 8b e7 3d fa 72 81 3c 59 e2 29 bd be ea 96 3c
       0.113058925 0.015801895 -0.041475628 0.01842248
000370 5b 2f a8 3b fd 48 29 be 2e fb 3b 3e df 96 83 be
       0.0051325983 -0.16531749 0.18357536 -0.25701043
000380 f5 f4 24 bd 8b 95 c5 3d e9 63 1a be 0c 8d 03 3e
       -0.04027267 0.09647664 -0.15077175 0.12846774
000390 de a6 fa 3d 77 64 bb bc 58 1c 91 3d 62 1c 57 be
       0.12238859 -0.022875054 0.07085484 -0.21006921
0003a0 85 8b 6d bd a2 c3 b3 3d 9a b8 24 3e 1b a7 e4 3d
       -0.057994384 0.087775484 0.16086045 0.11164685
0003b0 da 9a f3 3d 5b 02 b0 be 9d f8 5e 3e 7b fb 18 be
       0.1189477 -0.34376797 0.21774526 -0.14939682
0003c0 f8 0b 9d be 55 a8 04 3b 4e 62 92 3d 8e da 38 be
       -0.30673194 0.0020241935 0.071476564 -0.18052122
0003d0 15 09 f9 3e 4e 32 9a 3e e0 ae ac be 81 e7 18 be
       0.48639742 0.30116504 -0.3372717 -0.14932062
0003e0 bf 23 38 3e 8f 0f c7 3c 4a 07 1a 3e 94 de 80 3d
       0.17982386 0.024299411 0.15041843 0.062924534
0003f0 24 9c 50 3e 23 02 2e 3e ae 3d 1a be f0 c8 2f 3e
       0.20372063 0.16993003 -0.15062591 0.17166495

bias f4 [64]
000000 39 12 26 be 61 b5 3e be ec 06 74 be ad 16 4c 3e
       -0.16217889 -0.18623878 -0.23830765 0.19930525
000010 ea c2 f5 bd 61 32 69 3e dd 41 80 3e f1 4f 54 be
       -0.120000675 0.22773124 0.2505025 -0.2073362
000020 47 84 30 3e bb 25 3d be ac 48 8a be f2 7c a3 bd
       0.1723796 -0.18471424 -0.2700857 -0.07982816
000030 b0 27 85 be 89 31 51 be 1e 63 6a bd 92 1c 8b 3e
       -0.26006842 -0.20429052 -0.05722343 0.27170235
000040 e6 e3 00 3e 00 d3 64 be 97 a0 50 3e dd bb 20 3e
       0.12586936 -0.22346115 0.2037376 0.15696664
000050 05 2f a2 3d bf aa 96 3d aa dd 21 3e 1f 3f 32 be
       0.079191245 0.07356786 0.15807214 -0.17406891
000060 48 8b 5f be b2 bc 28 3e 8e da 47 be 65 3f d8 bd
       -0.21830475 0.16478232 -0.19516966 -0.105589665
000070 28 03 4f bd 11 e8 d0 3d 06 2c 83 3e dd 0d 42 3e
       -0.05054012 0.10200513 0.25619525 0.18950601
000080 b5 73 b5 be 5d 01 18 bd 22 24 42 be 3e be 76 be
       -0.3543984 -0.037110675 -0.18959096 -0.24096009
000090 a6 d2 3d be 75 1c 24 3e 91 6a 70 3e 19 dd 0c 3e
       -0.18537387 0.1602648 0.23478152 0.13756217
0000a0 85 cf 74 be 4a ea 9a bc 93 e5 e6 3d be 25 ce bd
       -0.23907287 -0.018910546 0.112742566 -0.100657925
0000b0 66 c7 59 3e 2d 05 0b be 59 dd 1a 3e f1 6d 42 3e
       0.2126747 -0.13576193 0.151235 0.18987252
0000c0 ec 2e 47 3e ee d7 52 3e 5c 6a 5a be 6c 3d 4c be
       0.19451493 0.20590183 -0.21329635 -0.19945306
0000d0 3e e3 5c be bd 4e 26 be fd 17 48 be 4b 96 88 be
       -0.21571061 -0.16240974 -0.19540401 -0.26677164
0000e0 44 12 5d be 6e a7 31 3e 1b f8 0b 3e fe 7f 2a be
       -0.21588999 0.17349026 0.13668863 -0.16650388
0000f0 6e 55 61 3e 99 61 8c 3e bc 4a 2d be 31 a5 58 3e
       0.22005245 0.2741821 -0.1692304 0.21156766

weight f4 [64, 2]
000000 97 7c 62 3f 7b 95 06 3f 23 c1 80 3f 37 30 15 bb
       0.8847136 0.5257184 1.0058941 -0.0022764334
000010 75 dd 77 3f 58 2b 94 3e 57 14 73 3f 7d 03 a0 be
       0.9682229 0.2893932 0.9495291 -0.3125266
000020 47 2e f7 be ea 01 64 3f 66 9c 75 bf 75 2d 81 3e
       -0.48277494 0.8906542 -0.9594177 0.25229993
000030 8f 1c 25 bf 25 d0 49 3f 9d 0b 7e 3f 73 71 52 3e
       -0.644967 0.7883323 0.9923647 0.2055109
000040 15 b9 48 3f 3c 3c 0f bf 70 04 68 bf 12 68 e8 3e
       0.7840741 -0.55951285 -0.9063177 0.453919
000050 db 83 b7 3e a4 de 69 3f fc 22 61 3f 5b e9 e9 be
       0.35842785 0.9135535 0.87944007 -0.4568585
000060 96 63 a8 be 66 2c 7b 3f aa 6b 6d bf dc 72 d3 be
       -0.32888478 0.9811462 -0.9274241 -0.41298568
000070 7d f8 2d 3f 42 4b 51 3f 29 cf 00 3f 20 ab 6d bf
       0.6795729 0.8175546 0.503161 -0.9283924
000080 a8 ed 76 bf 17 83 8b 3e 61 e5 63 bf f9 9e 02 bf
       -0.96456385 0.2724845 -0.8902188 -0.51023823
000090 32 d2 5d bf 99 d1 0e 3f 87 a7 5f 3f bc 35 e1 be
       -0.8664886 0.5578857 0.87365 -0.4398631
0000a0 91 59 6c bf 59 fd e7 be 61 69 2d be 83 33 7f bf
       -0.9232417 -0.45310476 -0.1693473 -0.99687976
0000b0 06 fa bd 3e 54 32 69 bf 4c 95 8b 3e 5d cf 7e 3f
       0.37104815 -0.9109242 0.27262342 0.9953516
0000c0 5a 5b 7c 3e d2 42 7f 3f fe b1 67 3f 3d a0 e5 3e
       0.24644223 0.99711335 0.9050597 0.44848815
0000d0 d9 38 e8 be ca a2 71 3f 55 58 01 3f eb f1 59 3f
       -0.4535587 0.9438902 0.5052541 0.8513476
0000e0 d6 f1 a1 be 05 f9 79 3f d9 62 7c bf 11 c5 00 be
       -0.3162982 0.976456 -0.9858833 -0.12575175
0000f0 ef 09 d3 be 50 ec 6b 3f b8 7d 67 3f 13 60 ea 3e
       -0.41218516 0.9215746 0.90426207 0.45776424
000100 ed f6 3b bf f2 16 3e bf 33 76 47 bf 0a 09 28 bf
       -0.73423654 -0.7425376 -0.7791473 -0.6563879
000110 1f 8e fb 3e 3a 92 54 3f ed 70 4a 3f 34 67 2a 3f
       0.49131867 0.83035624 0.7907856 0.66563725
000120 c9 e1 16 bf 67 4e 63 3f e3 fb 7d bf 3c 00 48 3e
       -0.5893827 0.8879151 -0.99212474 0.1953134
000130 66 30 c9 be a0 82 76 3f 38 ee ee be cb 56 70 bf
       -0.39294738 0.9629307 -0.4666612 -0.93882436
000140 1f df 74 3e 00 94 7e 3f 59 04 c8 3e 8f 19 77 3f
       0.23913239 0.9944458 0.39065817 0.96523374
000150 b1 3f 96 3e 56 cc 79 3f 57 79 4f 3f 97 9b 1e 3f
       0.29345468 0.97577417 0.81044525 0.6195616
000160 be 44 a9 be a1 4e 70 3f c7 ff 64 3f a2 33 e6 be
       -0.3306026 0.9386998 0.89452785 -0.44961268
000170 ce e4 75 bf 35 1b 95 be d7 bd 44 bf fe 87 15 3f
       -0.96052253 -0.2912232 -0.7685217 0.5841063
000180 c6 bd 65 3f 77 87 d8 be 23 eb 5a bf 30 52 0f 3f
       0.89742696 -0.4229085 -0.8551504 0.55984783
000190 1a bc b1 be 7f 93 6d 3f 68 42 6b bf cc b2 d1 be
       -0.34713823 0.92803186 -0.918982 -0.40956724
0001a0 ce 7d e8 3e c0 3b 6f 3f 81 9a 80 bf a9 0f 87 bd
       0.4540848 0.93450546 -1.0047151 -0.06594784
0001b0 86 39 1e bf b0 58 56 bf b1 67 73 bf 79 24 9b 3e
       -0.61806524 -0.83729076 -0.95080096 0.30301264
0001c0 38 7c c4 be cb 5e 77 3f 5e 15 9a be 0b 3e 7d 3f
       -0.3837602 0.9662902 -0.30094427 0.98922795
0001d0 eb 1d 80 3f 16 66 ff 3d a6 d2 59 3f 04 d6 02 bf
       1.000913 0.12470643 0.8508705 -0.5110781
0001e0 25 ba f6 3e 23 a2 66 3f 49 e1 5f 3f ee bd f5 be
       0.48188892 0.9009115 0.8745313 -0.47996467
0001f0 7d 2f ec be e0 9e 61 3f 2e 46 16 bf 00 ae 42 3f
       -0.4612998 0.8813305 -0.58700836 0.7604675

bias f4 [64]
000000 a7 29 03 bc ea 0e 96 ba b7 4e 0c bb c2 2b 5c b8
       -0.008005536 -0.0011448537 -0.0021409222 -5.249284e-05
000010 65 47 86 3c 16 0e b8 ba b6 32 4e 3c 8a ba 32 bb
       0.016391465 -0.0014042284 0.012585333 -0.002727183
000020 19 c3 3a 3c 3b f6 47 3b c6 06 7e 3d 9e 4e ef 3a
       0.011399054 0.0030511755 0.06201818 0.0018257683
000030 d2 c2 03 3e 2d f6 58 3b 0a 95 8c bd d6 97 e3 bd
       0.12867287 0.0033105717 -0.068643644 -0.11112945
000040 18 77 0f 3a d9 d8 d3 3b 57 77 07 3c 84 84 af 3b
       0.00054727634 0.0064650592 0.008268199 0.0053563733
000050 7f fe e4 3b f6 90 fb bc a8 31 75 3d 23 fd 1c be
       0.006988346 -0.030708771 0.05986181 -0.15330939
000060 96 ad 98 3c 82 2f 18 bb 8b 25 ed 3d 17 2e 61 3c
       0.01863746 -0.0023221676 0.115794264 0.013743899
000070 09 e0 82 3d 60 35 8a ba 6c bc 29 3c f4 b0 44 bb
       0.063903876 -0.0010544471 0.010359865 -0.00300127
000080 e9 83 93 3c c9 e9 e3 3b f1 e3 57 3d 1f 58 60 bc
       0.018007236 0.0069553596 0.052707616 -0.013692885
000090 ad e6 db 3d c6 60 0f 3b b2 99 ef 3d 37 11 e6 3d
       0.10737357 0.002187775 0.11699237 0.11233752
0000a0 e4 c9 c2 3d ce 54 00 be f6 f4 a4 3d 47 a9 c5 bb
       0.09511164 -0.1253235 0.08054535 -0.0060321423
0000b0 9b 84 3d bd e9 5d 9e b9 5a 4b 4f 3a 03 96 47 bc
       -0.04626904 -0.00030206077 0.00079076516 -0.012181762
0000c0 9f 02 cd 3a a3 47 bf 3b 77 55 75 bd 2d 10 b5 3a
       0.001564104 0.005837397 -0.05989596 0.0013814025
0000d0 51 a1 b5 bd ec 86 ac 3a 82 d3 df 3c 17 a4 ad b9
       -0.08868659 0.0013162768 0.027322534 -0.00033119388
0000e0 31 46 fe 3d 23 0e 16 3e 98 4c da ba a1 f6 bb 3a
       0.12415732 0.1465383 -0.0016654907 0.0014340469
0000f0 61 aa f9 bc 3b eb ba 39 df e9 85 bc 2a cb ea bc
       -0.03047675 0.00035651945 -0.01634687 -0.02866133

weight f4 [64, 64]
000000 b6 5a 80 bd b8 d5 bc 3c fd 80 69 be 3a 09 b5 3c
       -0.06267302 0.023051128 -0.22803111 0.022099126
000010 01 7a 66 bd da b5 28 3e 13 0e 1b 3e e1 ae ce be
       -0.056268696 0.16475621 0.15142088 -0.40367797
000020 69 8a 48 3d 27 b0 d3 3d 56 88 0e be ba d6 9d 3c
       0.048960123 0.10336333 -0.13919196 0.019267429
000030 05 89 7e 3e ba c7 0f 3e 72 bf 38 3d c6 27 26 be
       0.24856956 0.14041033 0.04510445 -0.1622611
000040 fd 94 ff bd f7 e1 46 3e 47 5d 70 3d 76 91 f5 bd
       -0.12479589 0.19422136 0.058682706 -0.11990635
000050 58 bd 9a 3d 51 07 40 be ed 05 75 3d 2a b6 2e be
       0.07555646 -0.18752791 0.059820104 -0.17061678
000060 6f 46 4b be f6 4d f0 bd 88 6a 13 3d d5 07 c2 bd
       -0.19851087 -0.1173362 0.035990268 -0.0947415
000070 74 07 69 3e 01 57 09 3e 6a e0 fe bb 38 3e 8d be
       0.2275675 0.13412096 -0.007778217 -0.27586532
000080 34 95 ca bc 65 7c 22 3e 4f ac a0 be 3a 59 94 bd
       -0.024729349 0.15867765 -0.3138146 -0.07243581
000090 e8 5f 41 3e 48 0f 50 3e 78 27 f8 3a 35 c8 58 3e
       0.18884242 0.2031833 0.0018932661 0.21170123
0000a0 28 49 44 bd 58 9e b9 be d1 75 93 bd 6c a0 23 3d
       -0.04792133 -0.3625362 -0.07200206 0.039947912
0000b0 aa ff 8b bd 63 3d 6d be 13 98 91 3e 70 fb df 3d
       -0.068358734 -0.23167948 0.28436336 0.1093663
0000c0 7f 40 28 be 71 2e 9c 3c 3f 45 24 3e 3e b3 81 3c
       -0.16430853 0.019065114 0.1604204 0.01583254
0000d0 96 73 0e be be 87 8b 3e 71 8c 62 3e 17 52 16 3e
       -0.1391128 0.27252 0.22123887 0.14679752
0000e0 78 05 48 3c 29 af e9 3c 7c a7 39 be 9b bc 30 bd
       0.012208335 0.028525906 -0.18130296 -0.04314862
0000f0 62 de 4e bd 91 ab 96 bc 41 a7 a7 3d 55 94 48 3e
       -0.05050505 -0.018392356 0.08186198 0.19587834
000100 6d 56 50 bd 68 10 50 3e 06 be 64 3e 54 98 8e 3e
       -0.050863672 0.20318758 0.22338113 0.27850592
000110 91 16 08 be 62 f6 73 bd 06 c7 b5 bc f0 b6 49 3d
       -0.13289858 -0.05956114 -0.022189628 0.04924673
000120 84 e9 6f 3e 28 c9 7d 3d f9 85 ec bc a1 4c 85 bc
       0.23428923 0.061959416 -0.028872477 -0.016271891
000130 7e 45 10 3b b8 d2 1f be 7d af bc bd ac 20 06 3d
       0.0022014077 -0.15607727 -0.09213159 0.032746002
000140 5d 78 f9 bc 88 1f 8d bd af 24 f3 bc 36 8f 77 bd
       -0.030452901 -0.0689078 -0.029680578 -0.06043931
000150 e6 20 43 be e5 2a 0f bc a4 53 cf 3d 45 11 82 3e
       -0.19055519 -0.008738254 0.10123375 0.254038
000160 32 6f f7 3d 25 c1 2f 3e f6 cf 80 be 19 7c 8a 3d
       0.12081756 0.17163523 -0.25158662 0.06761951
000170 ea 90 b3 bd 2f 71 cb 3d d6 60 c3 3d c0 dd 5b 3d
       -0.087678745 0.099336974 0.09539954 0.053678274
000180 71 21 14 bd 70 6a 83 be ba 1c a6 3e b0 55 3c 3e
       -0.036164705 -0.25667143 0.32443792 0.18392062
000190 eb 19 2f be 75 8c 92 be 06 c6 93 bd 2b 51 b3 be
       -0.1709973 -0.28622785 -0.07215504 -0.35022864
0001a0 8e 9f 6a bd ac 1b 4b 3d 44 ec 8d 3e a1 bf 87 3d
       -0.05728107 0.049586937 0.2771932 0.06628347
0001b0 e6 87 cf bc 34 02 5a 3e 04 c0 1f be e2 a8 73 3d
       -0.025333356 0.21289903 -0.15600592 0.05948723
0001c0 f4 45 dc 3e 1d 6b 48 be 33 21 dc bd 92 29 87 bc
       0.4302212 -0.1957211 -0.1074852 -0.016499314
0001d0 c6 8f f0 3d 87 61 44 be b5 d3 14 be ad 09 8d be
       0.117461726 -0.19177829 -0.14533885 -0.27546445
0001e0 41 79 54 39 2e 41 6d be 3e 3e 3b 3d 4e ba 96 3d
       0.00020263066 -0.23169395 0.045713656 0.073597535
0001f0 40 2b 20 3e f6 0b ad bd 85 89 a5 be fd 54 7f bd
       0.15641499 -0.08449547 -0.32331482 -0.06233691
000200 3f 48 0e 3e 90 06 b1 3e 97 c4 9c bc 8c ea 44 3e
       0.13894747 0.3457532 -0.01913671 0.19230098
000210 28 f3 e5 3d 39 9a 4c bd 99 5c ca bd 8f 25 68 3e
       0.11228019 -0.049951766 -0.09880943 0.22670577
000220 9d 6b 8e bd be 02 d6 bd 8c 82 61 3e 51 68 5e 3c
       -0.06954119 -0.10449742 0.22022456 0.013574676
000230 08 93 f2 bd a9 b8 83 be e0 8f da bc 50 73 29 3e
       -0.1184445 -0.25726822 -0.026679933 0.16547894
000240 59 1b 7a bd b3 01 ac bd db c0 39 3e d1 c0 3b 3d
       -0.061061237 -0.083987616 0.18139975 0.04583818
000250 b7 a0 32 bd 0a 79 e8 bd 7a f2 0c 3e 0f e4 84 3d
       -0.0436103 -0.11351211 0.13764372 0.06488811
000260 6a 0b 40 3e 1e 74 55 3e e1 bb c4 be 9a ed 88 3e
       0.18754354 0.20845076 -0.3842459 0.26743776
000270 71 53 dd bd 8d 88 85 bd ec e2 86 bd 16 0d 27 3e
       -0.10806931 -0.065201856 -0.06586251 0.16313586
000280 6d 96 51 be 78 97 10 bd 76 5e 9d 3d a4 34 7f 3e
       -0.20467539 -0.0353007 0.076840326 0.24922425
000290 54 34 ff bc 02 6f 60 be 50 4d 45 be 40 79 f6 bb
       -0.031152882 -0.21917346 -0.19267774 -0.0075217783
0002a0 22 0d d3 3d 2f 9e 16 3e 5d e3 fd 3d e0 06 1a 3d
       0.10305239 0.1470878 0.12396882 0.037604213
0002b0 7b 27 e1 bd dd 4c 82 3d 25 06 3b be a5 db 02 be
       -0.109938584 0.06362317 -0.18264063 -0.127791
0002c0 93 0c d7 3e c8 ce 2a be 4f 35 09 bc 58 6f 03 be
       0.4200178 -0.16680443 -0.008374526 -0.12835443
0002d0 1f e5 b5 3d 32 15 73 be ba 32 c0 bd cf 89 6c 3d
       0.08881592 -0.23738554 -0.09384675 0.057748612
0002e0 cc 07 97 be 46 14 13 be 38 93 7a bd 3c 72 1c bd
       -0.29498136 -0.14363202 -0.061175555 -0.03819488
0002f0 93 25 84 3c 1c 31 4b be 4d 2e c5 be c2 b4 20 be
       0.016131198 -0.19842952 -0.38511887 -0.15693954
000300 14 85 6c be 84 59 b4 bd 4b 91 81 be b0 cb 26 3e
       -0.2309764 -0.08806136 -0.25306162 0.16288638
000310 2b 87 a3 3e 86 87 45 bd ab 50 22 3e 19 99 9f be
       0.31939062 -0.04822495 0.15851085 -0.31171492
000320 5e 82 3b be ce 32 25 3e c4 ab 9c bd a2 be ca be
       -0.1831145 0.16132662 -0.07649949 -0.39598566
000330 84 eb 1e 3e bc 90 63 3e dc 34 24 be 1e a0 21 3e
       0.1551953 0.2222318 -0.16035789 0.15783736
000340 85 eb bf 3d e7 ea ed ba f4 47 5a 3e e4 20 91 bd
       0.09371094 -0.0018151671 0.2131651 -0.070863515
000350 8d cb 2f 3e 42 57 24 bd 64 e9 91 3c c8 4c 5f be
       0.17167492 -0.040122278 0.017811485 -0.21806633
000360 37 3b 32 be 30 d8 9e bd b5 33 7d bb 77 fc 0f be
       -0.17405401 -0.07756078 -0.0038635556 -0.14061151
000370 38 d7 52 3e 11 c1 38 3e 1f e6 52 3a 73 3f 6f bd
       0.20589912 0.18042399 0.0008045155 -0.05841012
000380 82 90 2c 3e 82 f3 18 3e e9 9b 04 bd 8a f8 36 be
       0.16852 0.14936641 -0.03237525 -0.17868248
000390 97 39 33 3c 30 96 fa bd a4 1d a9 3d e4 f9 49 3e
       0.010939023 -0.12235677 0.082576066 0.19724232
0003a0 60 6e 1a be 33 80 08 3c 99 8d 4c bc 24 74 5f bd
       -0.15081167 0.008331346 -0.012484931 -0.05455412
0003b0 02 2a aa bc 11 f8 09 bc 62 b6 6c 3e 23 b2 7c 3e
       -0.020771984 -0.00842096 0.23116449 0.24677329
0003c0 82 16 5b be 3c 55 9d 3e 2c 3d 61 3e 1b 0d 23 bd
       -0.21395305 0.3072909 0.21995991 -0.03980742
0003d0 8f 6e 33 be e5 58 a2 bd cf f3 3a 3d ca 3b ba 3d
       -0.17522644 -0.079271115 0.04564267 0.09093435
0003e0 32 8d 5c 3d 32 e3 c1 3d 7f a5 eb bd 56 b7 1e 3e
       0.05384559 0.09467162 -0.11506175 0.15499625
0003f0 c9 f3 9d bd 86 86 d6 3d 35 eb 5a 3d 89 ed a2 3e
       -0.07712514 0.10474877 0.053446967 0.3182185

bias f4 [64]
000000 5c c5 82 3d a3 5d 00 be 2b c8 c3 bd 7c 63 c4 3d
       0.063852996 -0.1253572 -0.095596634 0.09589288
000010 15 39 b8 3d 99 a4 cd 3d e9 19 b9 3d d7 b8 d8 3d
       0.089952625 0.1004116 0.09038145 0.105821304
000020 11 99 f6 bd 9b 91 da 3d 5e 1d a9 bd b6 76 f2 bd
       -0.12040914 0.10672303 -0.082575545 -0.118390486
000030 f3 4c 0a 3e 16 06 ec 3d a9 37 b1 3d 65 93 c3 bd
       0.13505916 0.11524598 0.086531945 -0.09549598
000040 46 4a ea 3d a9 01 c6 3d 3f 71 dc bd 10 02 c2 bd
       0.11439948 0.096682854 -0.107637875 -0.0947305
000050 ff 43 cf 3d aa a5 d3 bd 54 bb e2 bd cd 94 d6 3d
       0.10120391 -0.10334332 -0.11070886 0.104776
000060 64 ac b7 bd 8e 50 b9 3d 84 fc 00 be de 42 02 be
       -0.08968428 0.09048568 -0.12596327 -0.1272082
000070 95 40 c4 3d 5e 8b ad bd c1 0d d4 bd f9 fe ce 3d
       0.095826305 -0.08473848 -0.10354186 0.10107226
000080 9e 2a eb bd d6 ab e0 bd f3 9f a3 bd 18 0b dd 3d
       -0.11482738 -0.10970275 -0.07989492 0.107931316
000090 c8 c2 e0 3d 43 b3 0a be 59 7d d4 bd 98 de d0 bd
       0.109746516 -0.13544945 -0.10375471 -0.101987064
0000a0 ac 9c d1 bd 5f 05 e4 3d 43 09 dc 3d e6 33 b5 bd
       -0.10234961 0.11133837 0.10743954 -0.088477895
0000b0 58 de d6 bd 2b b6 f2 3d 04 0b c4 3d 5c f6 c6 3d
       -0.104916275 0.11851152 0.095724136 0.09714958
0000c0 b8 0b d0 3d 21 83 df 3d 90 05 da 3d 22 60 bc 3d
       0.10158485 0.10913683 0.10645592 0.091980234
0000d0 09 c3 00 be 13 ea fd bd 08 d3 de bd 20 ab bb 3d
       -0.125744 -0.12398162 -0.10880095 0.09163499
0000e0 9d ed c2 bd e5 b6 c7 3d 9a c3 be 3d e9 52 05 be
       -0.095179774 0.09751681 0.09314652 -0.13019909
0000f0 e4 b8 eb bd 5e a9 b5 bd cc 9a cf bd ba 1e cf bd
       -0.115098745 -0.08870195 -0.10136947 -0.101132825

weight f4 [1, 64]
000000 92 3d db 3d 9f 64 d6 3b 9d 49 17 bd d4 46 79 3c
       0.10705103 0.0065427567 -0.036935437 0.015214641
000010 29 29 1e 3d 04 d8 9c 3c bd 39 d2 ba 75 49 e6 bd
       0.038613472 0.019145973 -0.0016038936 -0.112444796
000020 67 90 8e bb 36 ae 7b bd 77 ae 0e 3e 2f fb ec bd
       -0.00435071 -0.061445437 0.1393374 -0.11571347
000030 22 db 3a 3d 34 97 ca 3d 6e ab b9 3c 70 28 1c bd
       0.045619138 0.09892121 0.022664752 -0.0381245
000040 33 b1 3d 3d 77 f5 54 bd 1a 25 ee 38 6f 57 57 3d
       0.04631157 -0.051991906 0.00011355635 0.052573618
000050 09 05 36 bd 64 d8 0b 3e 3d 7f 20 3d dd 5d 21 3d
       -0.044438396 0.13656765 0.039183844 0.039396156
000060 14 10 a6 3d ab 19 69 3d b9 8d 68 3e 7c f6 b8 3d
       0.081085354 0.056909245 0.22710313 0.09031388
000070 9e 76 83 3d d8 00 2a 3d 4d 55 ea 3d 79 2a 94 3c
       0.06419109 0.04150471 0.11442051 0.018086659
000080 7b c0 1a 3c 5a 5e a7 3d 46 f2 90 3d 3c 85 c5 bd
       0.009445305 0.08172293 0.0707746 -0.09644553
000090 12 6e 23 3d 44 4e 37 bd 98 a1 16 bd 1d f3 06 3e
       0.039899893 -0.044752374 -0.0367752 0.13178678
0000a0 f5 0c a9 bd 37 a0 87 bd 34 2e 37 be db e0 75 3d
       -0.082544245 -0.066223554 -0.17888719 0.060028892
0000b0 2a 9a 4c 3d c8 d8 7a 3d b6 44 86 bd 23 c4 b8 3d
       0.04995171 0.061241895 -0.06556074 0.09021785
0000c0 7e 51 07 bd d9 f9 84 3d 99 28 f4 3c 72 0c 0e 3c
       -0.0330367 0.06492967 0.029804515 0.008669959
0000d0 38 3a 80 3d 48 9f 0c 3e ef f4 1c bd a3 64 c8 3c
       0.06261104 0.13732636 -0.038319524 0.02446205
0000e0 d1 2a d7 bd 73 89 6e 3c 05 3f bc 3c f5 65 3f bd
       -0.105062135 0.014559138 0.022979269 -0.046728093
0000f0 6a 32 0d bc 07 19 fe 3b 16 f5 7c bd 60 64 c6 bc
       -0.008617977 0.0077544483 -0.06175717 -0.024217784
