dir_save_test/we0_actor_pre_train.pth (torch, 19568 bytes, 4 tensors)

0.weight f4 [64, 2]
00000000: 0d69 e33e 582c 9c3f 2f01 5b3e 5b2c d63f
00000010: 734e 8cbe dd2a 5740 3b82 d73e 207e ec3f
00000020: 0177 b9bd 2a95 90c0 d065 023f 213d dc3e
00000030: c1ff babe c799 efbf 3ddc 073e d587 d8bf
00000040: d046 e23f 3fae 833f c634 f63e 9a4a cd3e
00000050: a21f a83e b2cc 7dbd 377c 913e 544f 1bc0
00000060: 3b6e 8dbe 607e 723f c967 27bd f423 c43f
00000070: 38eb 2c3e 285c ecbd f747 b5bf 21dd 10bf
00000080: 4140 1f3e 107c 3f40 5ce4 5f3e 70d4 a23f
00000090: afa0 8abd 66a0 9040 f268 e9bd 3c6d 92c0
000000a0: cd47 e9be c91e 0fc0 a228 e73e 72d7 d13f
000000b0: bcbc aa3e 0a2e a73f 6f34 bcbe 5f74 10bf
000000c0: d2c2 3cbe 3240 8fbf 2275 b6bb a4a5 b2c0
000000d0: 5b81 d03e 9f9a 28bd 6ace 2c3f 2439 c5be
000000e0: 21fd 333e 0a4a 6140 fc54 9c3e 25a6 1cbf
000000f0: c3c1 fdbd 0c50 083f 456b c83f 63d5 7c3f
00000100: 9502 acbc 41e4 cfc0 c850 72be e02b a6bf
00000110: cfbc 853d 935a 88c0 3d30 ac3e edf3 08c0
00000120: 3107 a3bb c38a d140 796a f2be bf62 7fbf
00000130: 35a6 77be 29df d5bf c82a 783e 09f8 953f
00000140: e1fb eabc b283 8e40 c66f cabe 7af3 303f
00000150: 0a93 47bf 184c 283e b3aa 5bbe ba4f 67bf
00000160: ed42 1fbc 1d2e e340 31fb 0b3e 1279 edbf
00000170: ee5b 973e 6b90 f9bf 371e a3be 9478 5ebf
00000180: d2d9 b6be 685e 7a3f 9099 16bf 359b a6bf
00000190: 0837 c2bd 6762 a2c0 6689 8a3c a30f 9ec0
000001a0: de94 c8bd 59ac 7540 e4a4 0bbd 7148 8740
000001b0: 77f2 6b3e 2931 cebe b2e7 61bd 0ebf f4be
000001c0: 6fb0 4bbe b510 88be 26b3 363e fa38 1240
000001d0: de24 a9be b5eb 0ec0 ef1f 6abe 9cd3 e4bf
000001e0: bf71 93bd 1a23 8f3f e616 a73e 0b08 f4bf
000001f0: 3819 503e 8c68 463d 88c1 6fbe dfe6 01bf
0.44416085 1.2201033 0.2138717 1.6732286 -0.27403602 3.3619912 0.42091545 1.847599
-0.09055901 -4.5182085 0.50936604 0.43015388 -0.3652325 -1.8718804 0.13267608 -1.6916453
1.767786 1.0287551 0.48087138 0.4009598 0.32836634 -0.06196279 0.2841508 -2.4267168
-0.27623162 0.9472408 -0.04087046 1.5323472 0.16886604 -0.11541015 -1.4162587 -0.56587416
0.15551855 2.9919472 0.21864456 1.2721081 -0.06768929 4.51958 -0.1139697 -4.5758343
-0.45562592 -2.236254 0.45148188 1.6393874 0.33347118 1.3060925 -0.36758754 -0.5642757
-0.18433693 -1.1191466 -0.0055681625 -5.58272 0.4072369 -0.041163083 0.6750246 -0.38520157
0.1757703 3.520144 0.30533588 -0.61191016 -0.12390473 0.5324714 1.5657736 0.987631
-0.020997325 -6.496613 -0.23663628 -1.298214 0.06530153 -4.2610564 0.33630553 -2.139888
-0.0049752225 6.5481887 -0.47346857 -0.9976005 -0.24184497 -1.6708728 0.2423507 1.1716319
-0.028684558 4.453576 -0.395384 0.69121516 -0.7795874 0.16435277 -0.21451835 -0.9035603
-0.009720546 7.099379 0.1367004 -1.8552573 0.29562324 -1.9497198 -0.3185899 -0.8690274
-0.3571306 0.978003 -0.5882807 -1.3016115 -0.09483153 -5.074512 0.01691122 -4.939409
-0.09794019 3.8386443 -0.0340928 4.227593 0.23041712 -0.4027188 -0.055152602 -0.47802013
-0.19891523 -0.26575246 0.17841777 2.2847276 -0.3303594 -2.2331364 -0.22863744 -1.7877078
-0.0719943 1.1182587 0.32634658 -1.9064955 0.2032212 0.048439547 -0.2341367 -0.50742906

0.bias f4 [64]
00000000: 31c6 f0bc 4e52 383f d0cb c53e fb67 4fbd
00000010: acd0 d6be d529 5c3e 6b5f 3e3e 5642 9d3e
00000020: c4e8 14bf 9d1c 383f 192a c3be df92 f1be
00000030: d858 843f 0f52 46be 5d22 953e b538 d93d
00000040: 800c 723e 929e 493f c456 2dbe 0ba1 b6be
00000050: 8c53 21be cedf dcbd 7b16 e0bd 53bd 0f3f
00000060: 9196 07bf 8c77 51be 1e6c 373f bcba d53e
00000070: 5b14 763e b640 fa3f 9ee4 bd3c 6967 69bd
00000080: 5411 c9bd aebc 85bf 14c7 d23d 6406 ecbe
00000090: 88a0 973d 716e 30bd ab34 88bf 6eef 883f
000000a0: a6fc 783d ae21 1b3e f016 80be 8a7d f7be
000000b0: 6268 663d c5ae e03e db0d 61bf 98c0 cb3e
000000c0: aa8c 6a3f 5b58 13bf d0f6 1abe 983c b33d
000000d0: ed8d a0be 2caa cb3c 9b4b 913f 931b be3f
000000e0: 27ea 1dbf 4e1f af3e bfbd 42be 33d7 54bf
000000f0: d7ca e23d d11a 11bf 36e6 413f ff0c 84bf
-0.02939138 0.72000587 0.3863206 -0.050636273 -0.4195608 0.21500333 0.18591087 0.30714673
-0.5816767 0.7191866 -0.38118055 -0.47182366 1.0339613 -0.1936724 0.2912778 0.10606519
0.23637581 0.78757584 -0.1692763 -0.3566974 -0.15754527 -0.10784875 -0.10941788 0.5614826
-0.5296412 -0.2045576 0.7164935 0.4174403 0.24031202 1.9550998 0.023180302 -0.056983385
-0.09817758 -1.0448205 0.102918774 -0.46098626 0.07403666 -0.043074075 -1.0641073 1.0698068
0.06078782 0.15149567 -0.250175 -0.48337966 0.05625189 0.4388334 -0.87911767 0.39795375
0.91620886 -0.57556695 -0.15133214 0.08751792 -0.3135828 0.024861418 1.1351198 1.4852165
-0.61685413 0.3420357 -0.19017695 -0.8314087 0.11073845 -0.56681544 0.757419 -1.0316466

2.weight f4 [64, 64]
00000000: 9338 853e 2787 d1be e6c6 b0be e553 123d
00000010: 8de9 093f cc14 a4be 98fc 87be e990 b0be
00000020: 66f2 203f e3ed e8be 05ec 653e 4050 9e3e
00000030: dbb4 1ebf 41a2 febc 1004 833e 40d3 4cbf
00000040: 774f 3abd 2a33 f4bd 98f6 403d 3211 7b3e
00000050: d994 ab3d 361e eabd 578b 9e3e c253 b4be
00000060: b1f1 ce3e 2a73 cb3e 40d3 dcbe c3ab e7be
00000070: 657b bcbe 44e9 71be c131 64be c09b 363f
00000080: 9886 8a3d 5794 ca3e d871 ee3e 9820 a73e
00000090: f40a 57be 20b9 62bd d534 033f 0eb9 2bbf
000000a0: 7619 94be c821 9cbe db5f 05bf a4b9 ad3e
000000b0: 38e8 b1be e2d8 bdbe 3fc2 1d3f b38a c4be
000000c0: f731 13bf f841 8f3e 4f1c b1bb 0690 233e
000000d0: 78f5 703d 5fff 84be d908 09bf 7a98 dfbe
000000e0: 37b8 df3e 85e3 f33c 82b3 e83d 7809 ca3e
000000f0: 88eb ac3c 061a 203f 3579 05bf eb4b d23e
00000100: 0005 af3e da5b 9ebe 5622 95bf 76d4 6a3e
00000110: 5f8d 2f3f d031 c63d 9ffe dfbe 0e55 273e
00000120: d2d2 173f 3725 af3e 541e 0d3f af5f 783f
00000130: c878 903c feb7 a73d a112 d73e 5228 b7be
00000140: 3aaa edbe 6f45 963e 49de 6dbf c05b c53e
00000150: 9bf5 5dbe 889e 743e 0049 643e a498 27bf
00000160: df17 483d ec32 433f ca88 c23e 3b2d 2d3e
00000170: 4a62 073d b74f 083d f32e e7bd 3f1e dc3e
00000180: 2d17 103f 18f3 e03e 398c c03e a6f4 7b3f
00000190: dda7 07bf 81c7 a5be a53e b0bd 83ef b2be
000001a0: 9ffb 32bf 1a51 eebe de31 9ebe 2867 63be
000001b0: 5cb5 0abf a6b2 903e f086 1a3f c0b9 47be
000001c0: 09a1 f6bd 9825 5abc c22d fa3d 6951 8a3e
000001d0: a9f3 f7be 8c29 f2be 2522 0dbe a197 c5be
000001e0: 8cdd 2b3d 00dc dd3d 91e5 8b3c 4337 4abd
000001f0: a496 75be aeda 1e3f b5ff 8d3e 72bc 453e
00000200: ff64 113f 22b8 2e3e caa0 7d3e 2314 bc3e
00000210: add2 cfbc 01ee 743e a57a f6be c135 31be
00000220: b26d ee3f 587c b23e 73d3 0c3e 8862 62be
00000230: c885 223e 05ba 903e 6133 463f 938e 94bf
00000240: 2d3c d33e 07e4 cb3e e977 183e 129e 81bd
00000250: 2f15 00bf 6c87 d53e 7db2 e73d b913 bbbe
00000260: 46a8 6abe 3eba edbe 57cf 9a3e d67c f83d
00000270: 5620 593e c3a5 d8be c8f5 613b 0fdf 8b3f
00000280: 7713 b8be cd64 a83d 2cf8 87be c6ca 5fbe
00000290: f6aa c13e 6c6d 3cbe a0c1 dfbe 80d4 4d3d
000002a0: 532c acbd 5785 afbe cc41 8fbf 0df7 8bbe
000002b0: 46ed 243f 6f41 d13c 36a2 8dbe 9206 bebe
000002c0: b5f0 2f3e 6b8d acbe 5f4f a2be ea43 23bf
000002d0: bf96 52bd fa04 143e 873a 9abd 79a8 18be
000002e0: 41ac 093d 2dba 343e 22b5 fdbe 9b7d aabe
000002f0: 53b1 f43d 3e23 343e b8d4 3c3e 85fd e9bc
00000300: 91b0 743e 0a28 b3be 97b9 0fbf 5e04 1e3f
00000310: 4c40 ef3e 2f9a 0c3e 932c 04bf a7f5 35be
00000320: 7d53 8c3e bcf9 ba3d 74f1 df3e a7b1 493e
00000330: 5ae9 973e 0b74 ba3e 6815 9b3e 01a2 dabe
00000340: c3b4 e1be 2cb0 6a3e 34f6 09be 43f8 043f
00000350: 11af babd dddb de3e 2ba0 de3e a7ac 07bf
00000360: 3775 8dbd 4baa 3d3e 061a 903e 35fc 133e
00000370: 682d bd3e 6e01 a2bd ea91 45be 1aa5 873e
00000380: d075 dabe 7f32 c83e 07f5 cc3d e373 c53e
00000390: 7249 c73d f359 2ebd 1d8f 4dbd 03b9 06bf
000003a0: c7d9 99be 4b82 a9bd 60ba 88be 01db 46be
000003b0: 10c1 c53d 4267 c53d 091d a83e 7223 cbbe
000003c0: 7f7c 3ebd dddf 1ebe d76e 29bd 00db 84bc
000003d0: 2bda 8a3e a964 013d 992c 06bf 635c d3be
000003e0: b9b1 863e 6aae 433d d09a 1ebe 4ef5 fabd
000003f0: 272e 58be 5c72 f13e 3454 6b3e 3e71 a43e
0.26019725 -0.40923426 -0.34526747 0.03572454 0.53871995 -0.32047117 -0.265599 -0.34485558
0.6286987 -0.45493993 0.22453316 0.309206 -0.61994714 -0.031083228 0.25589037 -0.8000984
-0.04548594 -0.11923821 0.04711017 0.24518278 0.08378 -0.114315435 0.30965683 -0.35220152
0.4041877 0.397363 -0.4312992 -0.4524823 -0.36812893 -0.2362414 -0.22284605 0.71331406
0.06763953 0.395663 0.4657123 0.32642055 -0.21000272 -0.05535233 0.5125249 -0.67079246
-0.28925675 -0.30494523 -0.5209939 0.33930695 -0.3474748 -0.3707953 0.6162452 -0.3838707
-0.57498115 0.27980018 -0.005404986 0.1597291 0.058827847 -0.25976083 -0.53529125 -0.43671018
0.43695232 0.029771576 0.113623634 0.3946035 0.021108404 0.6253971 -0.5213807 0.41073546
0.34183502 -0.30929452 -1.1651103 0.2293261 0.6857509 0.0967747 -0.43748948 0.1634104
0.5930606 0.3420808 0.551244 0.97021 0.017635718 0.081893906 0.420064 -0.3577295
-0.46418935 0.2934985 -0.92917305 0.38546562 -0.21675722 0.238886 0.22293472 -0.65467286
0.04885089 0.76249576 0.37994987 0.16911785 0.03305272 0.033279147 -0.11288252 0.42991826
0.56285363 0.43935466 0.3760698 0.9842018 -0.52990514 -0.32378772 -0.086056985 -0.34948358
-0.69915193 -0.4654625 -0.3089742 -0.2220732 -0.5418298 0.28261298 0.6036215 -0.19504452
-0.12042434 -0.013314627 0.12215759 0.27015236 -0.48428085 -0.47297323 -0.13782556 -0.38592246
0.04195933 0.10832977 0.01707724 -0.049369108 -0.23983246 0.6205243 0.2773415 0.19310167
0.5679473 0.17062429 0.24768367 0.36734113 -0.025369013 0.23918916 -0.48140445 -0.17305662
1.8627226 0.34860492 0.13752536 -0.22107899 0.15871346 0.28266922 0.7742215 -1.160601
0.41256848 0.3982241 0.14889492 -0.06328978 -0.50032324 0.4170488 0.11313341 -0.36538485
-0.22915754 -0.46431154 0.30236313 0.121331856 0.21203741 -0.42313966 0.0034478772 1.0927447
-0.3595235 0.08222351 -0.26556528 -0.21854696 0.37825745 -0.18401116 -0.43702412 0.050251484
-0.08406892 -0.34281418 -1.1191955 -0.27336922 0.6442455 0.025543896 -0.2766282 -0.37114388
0.17181666 -0.33701643 -0.3170118 -0.63775504 -0.051413294 0.14455023 -0.075306945 -0.14908017
0.03361154 0.17649145 -0.49552256 -0.33298954 0.119478844 0.17591569 0.18440521 -0.02856327
0.2389548 -0.34991485 -0.5614256 0.61725414 0.46728742 0.13730691 -0.51630515 -0.1776949
0.27407447 0.09129664 0.43738902 0.19696675 0.2967022 0.3641666 0.3028977 -0.42701724
-0.44083223 0.22918767 -0.13472825 0.5194132 -0.091154225 0.43527117 0.43481573 -0.5299782
-0.069071226 0.18521993 0.28144854 0.14451678 0.36948705 -0.07910429 -0.19293943 0.2649315
-0.4266801 0.39101025 0.10007673 0.38564977 0.097308055 -0.04256625 -0.05018531 -0.52626055
-0.30048963 -0.082768045 -0.26704693 -0.19419481 0.096559644 0.096388355 0.32834652 -0.3967548
-0.046505447 -0.15515085 -0.04136547 -0.016217709 0.27119574 0.031590138 -0.524118 -0.41281423
0.26307467 0.047773756 -0.15488744 -0.122538194 -0.21111356 0.47157562 0.2298134 0.32117647

2.bias f4 [64]
00000000: b106 35bf d96f e3be e302 50bf 14aa 7fbe
00000010: c3e0 abbe e11d 8e3e 9ece a23e 63dd a93e
00000020: de75 1c3f 714b 08bf 6986 23bf bb4b 8cbe
00000030: fe4c d3bd 6c4e d13e 1fbe 073f 4376 0abe
00000040: 46f6 e5be a093 4f3f 6c59 58bf 4bcf 183f
00000050: 70a4 19bf 8ead f5be 1b7e ebbe 6c3b f93e
00000060: 6831 8cbd 8aba dbbe 3657 b43e 70ce 6b3f
00000070: ee82 193f 54bd 78be 3c94 0c3f 5bf1 623f
00000080: f555 1c3e dbb7 ab3c 13d2 dbbe 18ba 36bf
00000090: 26a2 2cbf 9f64 abbe 2481 4ebf a16c 07bf
000000a0: 66de 633f af23 13bf de0a 223d cf70 10bf
000000b0: 65f6 273f 743f d0be 6c0c 47bd 74ba e63e
000000c0: b380 bf3e 870d 5a3f d73d f8be e075 363f
000000d0: 107f d33e fed4 66be b96e 2c3f d577 89bd
000000e0: 6be5 d13d dec5 87bf 6f0f 28bf 2274 6bbf
000000f0: c95f 073f 0f1e 35bd 7fa3 e2be c39b 07be
-0.70713335 -0.4442127 -0.81254405 -0.24967223 -0.33569917 0.2775717 0.3179826 0.33176717
0.6111735 -0.53240114 -0.6387697 -0.27401528 -0.103174195 0.40880144 0.53024477 -0.13521676
-0.44914454 0.8108463 -0.84511447 0.59691304 -0.60016537 -0.47983974 -0.45994648 0.48678148
-0.06845361 -0.42915756 0.35222787 0.92111874 0.5996541 -0.24290973 0.5491369 0.8864953
0.15267165 0.020961693 -0.4293371 -0.71377707 -0.6743492 -0.33475205 -0.806658 -0.5290013
0.8901123 -0.57476324 0.039561145 -0.5642213 0.65610343 -0.4067341 -0.04859583 0.45064127
0.37402877 0.8517689 -0.4848468 0.7127361 0.41307878 -0.22542188 0.6735645 -0.06712309
0.10248836 -1.0607259 -0.6564855 -0.9197408 0.5288053 -0.04421812 -0.44265363 -0.13243012
