dir_save_test/we0_model_base_final.pth (torch, 41582 bytes, 9 tensors)

weight f4 [64, 2]
0.42883825 1.2230793 0.25275302 1.6316853 -0.361793 3.3691056 0.39436868 1.8552859
-0.13913086 -4.636361 0.4236093 0.44483054 -0.39919817 -1.8740265 0.097559854 -1.9117484
1.6772798 1.0136977 0.30128214 0.4178667 0.34986714 -0.0706438 0.32861352 -2.4281049
-0.2019382 0.95069146 -0.017432623 1.599534 0.20837297 -0.21934286 -1.3328114 -0.5632866
0.12108323 3.0649266 0.26712036 1.2330734 -0.062713645 5.1502275 -0.17020904 -4.6831346
-0.42950925 -2.2515094 0.38872284 1.643383 0.30254668 1.3254297 -0.43094572 -0.5523234
-0.24260624 -1.1054882 0.0070133787 -6.033763 0.24405788 -0.052795418 0.68076813 -0.35874933
0.18179308 3.614516 0.37159383 -0.9562981 -0.0016520212 0.5501312 1.4969333 0.9856426
0.008295948 -7.129314 -0.28389406 -1.217679 0.056211088 -4.8362026 0.36987278 -2.1468418
-0.02210812 7.228027 -0.44996518 -1.001853 -0.30828357 -1.6399211 0.3055865 1.1014181
-0.03502863 5.0050774 -0.3763588 0.6997967 -0.7098283 0.15867183 -0.2204363 -0.89736426
-0.022279685 7.88171 0.14353846 -2.1035624 0.29641244 -1.9602704 -0.3846296 -0.8698185
-0.4313803 0.9841461 -0.58302975 -1.325145 -0.05583706 -5.323101 0.03568242 -5.506599
-0.0775094 4.3857784 -0.0270911 4.7231073 0.26956218 -0.59760994 -0.13227648 -0.48453575
-0.21942699 -0.19983412 0.19186653 2.3241155 -0.3942855 -2.246977 -0.27230224 -1.772745
0.015886288 1.1692812 0.42074576 -1.9176426 0.23825775 -0.037307564 -0.2830424 -0.42062873
00000000: b090 db3e dd8d 9c3f d868 813e 10db d03f
00000010: ef3c b9be 6d9f 5740 b1ea c93e 027a ed3f
00000020: 5278 0ebe 125d 94c0 51e3 d83e d4c0 e33e
00000030: b463 ccbe 1ae0 efbf 76cd c73d 2cb4 f4bf
00000040: 1bb1 d63f d9c0 813f a741 9a3e a0f2 d53e
00000050: c921 b33e b2ad 90bd 0840 a83e 1266 1bc0
00000060: e3c8 4ebe 8460 733f dcce 8ebc 88bd cc3f
00000070: b95f 553e 6a9b 60be 9099 aabf 8d33 10bf
00000080: 7cfa f73d c227 4440 00c4 883e 59d5 9d3f
00000090: 0370 80bd aace a440 474b 2ebe 3ddc 95c0
000000a0: a3e8 dbbe bb18 10c0 ae06 c73e 605a d23f
000000b0: 66e7 9a3e aea7 a93f eba4 dcbe 1165 0dbf
000000c0: c56d 78be a380 8dbf 7cd0 e53b 9614 c1c0
000000d0: 4fea 793e 0240 58bd d246 2e3f fead b7be
000000e0: f727 3a3e 3b54 6740 8c41 be3e f4cf 74bf
000000f0: a288 d8ba 66d5 0c3f 839b bf3f 1353 7c3f
00000100: baeb 073c 5723 e4c0 905a 91be e8dc 9bbf
00000110: 993d 663d 2cc2 9ac0 f75f bd3e db65 09c0
00000120: 171c b5bc ff4b e740 d661 e6be b83c 80bf
00000130: 58d7 9dbe efe8 d1bf d575 9c3e 45fb 8c3f
00000140: 2e7a 0fbd 9829 a040 1ab2 c0be e025 333f
00000150: 4fb7 35bf de7a 223e 0eba 61be aab9 65bf
00000160: e383 b6bc f836 fc40 bffb 123e c4a0 06c0
00000170: 5fc3 973e 24ea fabf 2cee c4be 6dac 5ebf
00000180: e1dd dcbe 00f1 7b3f 7041 15bf 5a9e a9bf
00000190: 67b5 64bd d856 aac0 bb27 123d 0f36 b0c0
000001a0: 40bd 9ebd 4c58 8c40 28ee ddbc b223 9740
000001b0: 0e04 8a3e f7fc 18bf 7c73 07be 1215 f8be
000001c0: 78b1 60be 51a1 4cbe a978 443e 4fbe 1440
000001d0: cadf c9be 79ce 0fc0 336b 8bbe 4fe9 e2bf
000001e0: f623 823c 02ab 953f fd6b d73e 5075 f5bf
000001f0: d7f9 733e d1cf 18bd efea 90be a65c d7be

bias f4 [64]
-0.045080278 0.9134654 0.46484447 -0.041811325 -0.484111 0.27553406 0.20965002 0.46749985
-0.71738106 0.8284217 -0.4644746 -0.5390636 1.2651731 -0.17216292 0.4153233 0.1267481
0.40497425 0.9077893 -0.21726769 -0.44401342 -0.2058476 -0.09996681 -0.061862476 0.6437227
-0.66320384 -0.19055328 0.8757132 0.508015 0.35851708 2.1573498 -0.021091983 -0.07301923
-0.09591735 -1.3078793 0.15181354 -0.5343167 0.053437673 -0.042638324 -1.248223 1.305298
0.034661848 0.23058231 -0.291548 -0.6373383 0.02944029 0.52832806 -1.0482922 0.41934776
0.99143404 -0.6444413 -0.19174075 0.1078515 -0.3741218 0.0050372984 1.3772414 1.6820335
-0.84274995 0.46784028 -0.20605806 -0.93375754 0.088420086 -0.64637405 0.9362804 -1.2902964
00000000: 19a6 38bd ded8 693f 1800 ee3e 5a42 2bbd
00000010: 66dd f7be cd12 8d3e 7fae 563e 245c ef3e
00000020: 49a6 37bf 7213 543f 9dcf edbe 1200 0abf
00000030: 31f1 a13f 7a4b 30be 41a5 d43e 41ca 013e
00000040: c958 cf3e e164 683f 6c7b 5ebe ba55 e3be
00000050: b7c9 52be 66bb ccbd 8263 7dbd 03cb 243f
00000060: bac7 29bf 6620 43be be2e 603f 450d 023f
00000070: 8d8f b73e 0512 0a40 18c9 acbc 1b8b 95bd
00000080: 5170 c4bd 9768 a7bf 0275 1b3e fbc8 08bf
00000090: 76e1 5a3d 86a5 2ebd c5c5 9fbf 0114 a73f
000000a0: 95f9 0d3d c51d 6c3e c845 95be 9a28 23bf
000000b0: c32c f13c 8240 073f 702e 86bf c0b4 d63e
000000c0: 9fce 7d3f 1bfa 24bf b057 44be 3fe1 dc3d
000000d0: e48c bfbe ec0f a53b 7249 b03f e04c d73f
000000e0: 76be 57bf c388 ef3e e200 53be bc0a 6fbf
000000f0: 9715 b53d c578 25bf 13b0 6f3f 6f28 a5bf

weight f4 [64, 64]
0.257552 -0.43203288 -0.34313512 0.03298974 0.56104046 -0.32316744 -0.26284763 -0.39434347
0.6261581 -0.4610584 0.22172068 0.30611405 -0.6107256 -0.0063011544 0.23185547 -0.7975578
-0.057458013 -0.13808209 0.050544474 0.26507464 0.08647913 -0.117083274 0.30664343 -0.34937313
0.41797078 0.41655102 -0.4437997 -0.45501527 -0.37804362 -0.26321128 -0.19475806 0.71077335
0.12487548 0.41664606 0.4460469 0.32358232 -0.2697751 -0.05274223 0.52938247 -0.6923689
-0.27473798 -0.3023521 -0.5184565 0.35791507 -0.42567688 -0.41345304 0.6091878 -0.38104346
-0.57141995 0.28234097 0.016313815 0.16309343 0.079200834 -0.2372071 -0.5590042 -0.42460057
0.4621394 0.013052139 0.116451174 0.40834823 0.041404564 0.62258637 -0.5433642 0.44036153
0.38438928 -0.3218474 -1.2838867 0.2701757 0.6949928 0.119138464 -0.4906804 0.17965727
0.57950807 0.3345843 0.6468279 1.0787563 -0.029346647 0.056370772 0.43633473 -0.34263068
-0.45929888 0.28110388 -0.9698147 0.39088634 -0.2336361 0.28701386 0.26930365 -0.77791214
0.04994979 0.78847545 0.37414387 0.16690168 0.036764666 0.006155533 -0.117051005 0.40882456
0.58918005 0.45997152 0.41647273 1.1220068 -0.5604574 -0.36051613 -0.06564454 -0.370114
-0.72800946 -0.5364015 -0.31225958 -0.22088523 -0.573146 0.294931 0.67304254 -0.28053293
-0.2626528 -0.0032980633 0.13060129 0.30223754 -0.5131144 -0.50141096 -0.15781386 -0.41823906
0.04857734 0.1102565 -0.0035480685 -0.035135277 -0.22959815 0.77326334 0.26666796 0.21254806
0.56803054 0.17384234 0.24968341 0.3679701 -0.027856668 0.24112812 -0.48135072 -0.17189717
1.8578048 0.35086152 0.13543849 -0.22324838 0.16233072 0.2808564 0.7760756 -1.1572955
0.4138298 0.40171206 0.14901468 -0.06572972 -0.50303316 0.4177249 0.1141069 -0.36264282
-0.23172963 -0.4663271 0.30540726 0.12501924 0.21446162 -0.41915342 0.0043648905 1.0892849
-0.36169496 0.07871841 -0.26572236 -0.22085829 0.38022017 -0.18603992 -0.44053742 0.05376247
-0.08291004 -0.34207615 -1.1196389 -0.2758714 0.646226 0.027936274 -0.28007072 -0.3694343
0.17525864 -0.34078586 -0.31875113 -0.6383961 -0.05233448 0.14558516 -0.07173882 -0.14521545
0.03061664 0.17888373 -0.4982784 -0.33661273 0.11987634 0.17307179 0.187805 -0.03196204
0.26934272 -0.32087663 -0.5564866 0.64598984 0.44117352 0.17174797 -0.54005027 -0.1605459
0.33830422 0.12438396 0.44712088 0.1914396 0.31781062 0.35445684 0.3246698 -0.47682706
-0.41687223 0.25877523 -0.13463055 0.49317527 -0.12425124 0.46454963 0.45530447 -0.5371689
-0.09682085 0.16609097 0.3122363 0.18176608 0.39520803 -0.04783595 -0.19749093 0.3120425
-0.44525018 0.36060634 0.09773225 0.38674742 0.11422589 -0.07516492 -0.080978 -0.49578324
-0.28876927 -0.104327865 -0.3069148 -0.2207307 0.113770366 0.116632506 0.310325 -0.4063196
-0.03341308 -0.18987378 -0.06300928 -0.023809157 0.26118624 0.041204758 -0.49390018 -0.3845787
0.23587404 0.07333728 -0.18517944 -0.15271822 -0.20593117 0.46764058 0.258129 0.29104418
00000000: dbdd 833e 6a33 ddbe 68af afbe 4020 073d
00000010: 59a0 0f3f 3476 a5be f793 86be 63e7 c9be
00000020: e64b 203f d90f ecbe bf0a 633e fbba 9c3e
00000030: 8358 1cbf ea79 cebb 856b 6d3e bf2c 4cbf
00000040: 1859 6bbd 6465 0dbe b907 4f3d ddb7 873e
00000050: f81b b13d 5bc9 efbd 5e00 9d3e 09e1 b2be
00000060: 4400 d63e 2d46 d53e b739 e3be c3f7 e8be
00000070: ef8e c1be a1c3 86be a86e 47be 3ef5 353f
00000080: b7be ff3d a252 d53e 4260 e43e 95ac a53e
00000090: f61f 8abe 3d08 58bd 9c85 073f 173f 31bf
000000a0: 75aa 8cbe e5cd 9abe 91b9 04bf a540 b73e
000000b0: 52f2 d9be 1eb0 d3be bbf3 1b3f 2118 c3be
000000c0: 9448 12bf ff8e 903e 8da4 853c f701 273e
000000d0: 0c34 a23d 6be6 72be e61a 0fbf 3f65 d9be
000000e0: 899d ec3e a4d8 553c f47d ee3d 0513 d13e
000000f0: d597 293d d261 1f3f eb19 0bbf 1177 e13e
00000100: acce c43e 2fc9 a4be 6656 a4bf 7854 8a3e
00000110: 0ceb 313f defe f33d 763a fbbe 13f8 373e
00000120: a45a 143f a24e ab3e 8396 253f b014 8a3f
00000130: 6168 f0bc 0ae5 663d 4467 df3e 4a6d afbe
00000140: 3929 ebbe d9ec 8f3e c745 78bf 4122 c83e
00000150: 4d3e 6fbe 7bf3 923e 2be2 893e 4025 47bf
00000160: 2798 4c3d 87d9 493f c98f bf3e 46e8 2a3e
00000170: 8c96 163d 5ab4 c93b 70b8 efbd 7451 d13e
00000180: 81d4 163f 6381 eb3e ea3b d53e eb9d 8f3f
00000190: 237a 0fbf 9295 b8be a570 86bd 957f bdbe
000001a0: d45e 3abf 9c51 09bf 7de0 9fbe bd2f 62be
000001b0: b2b9 12bf 3201 973e 844c 2c3f 03a2 8fbe
000001c0: 6e7a 86be 5224 58bb 58bc 053e e1be 9a3e
000001d0: 775b 03bf 785c 00bf f599 21be 6e23 d6be
000001e0: 08f9 463d 29ce e13d b686 68bb 02ea 0fbd
000001f0: c71b 6bbe 96f4 453f b488 883e 33a6 593e
00000200: 736a 113f ba03 323e 02ad 7f3e 9466 bc3e
00000210: ab33 e4bc 4aea 763e 9a73 f6be d005 30be
00000220: 8ccc ed3f 1fa4 b33e 63b0 0a3e 399b 64be
00000230: 063a 263e 69cc 8f3e e4ac 463f 4222 94bf
00000240: 80e1 d33e 34ad cd3e 4e97 183e 4e9d 86bd
00000250: c8c6 00bf 0ae0 d53e e1b0 e93d 52ac b9be
00000260: 884a 6dbe 6dc2 eebe 575e 9c3e 0b05 003e
00000270: d49b 5b3e 479b d6be 5b07 8f3b b06d 8b3f
00000280: 1530 b9be 1e37 a13d c30c 88be ad28 62be
00000290: 38ac c23e 4081 3ebe 1f8e e1be 0936 5c3d
000002a0: bdcc a9bd 9b24 afbe 5450 8fbf 043f 8dbe
000002b0: 116f 253f 9dda e43c 6e65 8fbe 7e26 bdbe
000002c0: 0077 333e 7c7b aebe 5933 a3be ed6d 23bf
000002d0: ae5c 56bd 4714 153e cdeb 92bd 5cb3 14be
000002e0: bfcf fa3c 4c2d 373e 591e ffbe 8158 acbe
000002f0: ba81 f53d bb39 313e f44f 403e a1ea 02bd
00000300: 4ae7 893e f149 a4be e875 0ebf 975f 253f
00000310: 7fe1 e13e b3de 2f3e bc40 0abf 2566 24be
00000320: 3636 ad3e 05bd fe3d 07ed e43e be08 443e
00000330: 13b8 a23e 5e7b b53e 1f3b a63e ad22 f4be
00000340: 4770 d5be 307e 843e 97dc 09be 7881 fc3e
00000350: 6f77 febd 73d9 ed3e ab1d e93e e783 09bf
00000360: 034a c6bd c013 2a3e 70dd 9f3e e320 3a3e
00000370: b558 ca3e a1ef 43bd 103b 4abe 09c4 9f3e
00000380: d5f7 e3be 65a1 b83e d927 c83d c203 c63e
00000390: 43ef e93d 11f0 99bd cbd7 a5bd 4dd7 fdbe
000003a0: 91d9 93be d9a9 d5bd f023 9dbe 3b07 62be
000003b0: 7000 e93d 06dd ee3d ebe2 9e3e 1f09 d0be
000003c0: 27dc 08bd 466e 42be 020b 81bd 6c0b c3bc
000003d0: 34ba 853e 52c6 283d 7ce0 fcbe 80e7 c4be
000003e0: f788 713e db31 963d ae9f 3dbe 2a62 1cbe
000003f0: 9fdf 52be 966e ef3e 7c29 843e be03 953e

bias f4 [64]
-0.69285494 -0.47334865 -0.8083897 -0.2184509 -0.31307366 0.2839918 0.3092385 0.30326614
0.6483125 -0.5108879 -0.61083513 -0.27271348 -0.10533439 0.3375561 0.5753196 -0.14578016
-0.43826616 0.748701 -0.9034431 0.7569175 -0.7395194 -0.5127325 -0.57901794 0.45451215
0.20436125 -0.40251788 0.37727314 0.9501053 0.539346 -0.0378637 0.5564462 0.8749741
0.15751585 -0.018666347 -0.4378035 -0.73825973 -0.6986731 -0.27768537 -0.7951711 -0.75273705
0.85828257 -0.561287 0.14998753 -0.6132742 0.7020914 -0.40160155 0.0007216082 0.47365752
0.41324446 1.0805349 -0.49294567 0.7106422 0.37470418 -0.22924854 0.5864814 -0.045444097
0.12282122 -1.1082169 -0.61085474 -1.0236509 0.5661459 -0.10874016 -0.4724008 -0.14070116
00000000: f15e 31bf c15a f2be a1f2 4ebf 98b1 5fbe
00000010: 314b a0be 6067 913e 8254 9e3e b345 9b3e
00000020: cff7 253f 8dc9 02bf b15f 1cbf 1aa1 8bbe
00000030: 8fb9 d7bd 27d4 ac3e 2548 133f 6547 15be
00000040: 6c64 e0be deaa 3f3f 0c48 67bf 58c5 413f
00000050: 2551 3dbf 7042 03bf 853a 14bf d1b5 e83e
00000060: 1344 513e d316 cebe f229 c13e 1a3a 733f
00000070: 9412 0a3f f816 1bbd 4273 0e3f 4dfe 5f3f
00000080: d64b 213e 2bea 98bc c827 e0be 97fe 3cbf
00000090: 3edc 32bf c72c 8ebe 5590 4bbf 60b3 40bf
000000a0: 68b8 5b3f 81b0 0fbf 5596 193e 8aff 1cbf
000000b0: 43bc 333f b89e cdbe 4e2a 3d3a 3d83 f23e
000000c0: c794 d33e f84e 8a3f 6063 fcbe a6ec 353f
000000d0: 3ad9 bf3e 21c0 6abe a523 163f 9723 3abd
000000e0: b189 fb3d 0dda 8dbf fa60 1cbf fe06 83bf
000000f0: f0ee 103f 29b3 debd 85de f1be f713 10be

weight f4 [64, 2]
0.79327905 16.424274 1.0638497 -8.444576 -0.814493 -18.813475 -0.39582202 -19.155605
-0.5724541 8.856948 0.64158154 8.883574 -2.0699658 17.588747 0.52306265 -1.9677168
0.29275087 10.778005 0.08419519 2.6913354 -1.1058418 -16.740582 0.22902046 -14.702381
-0.0034325658 0.8069435 -1.1438483 -14.179463 1.0883099 12.661442 -0.14434817 -20.992529
0.50721115 1.6449567 -3.3843048 -3.7398245 2.084581 -0.2266116 1.4578255 6.9672966
-0.040948685 18.70101 0.20945013 -7.8780684 0.037693333 -26.147179 -1.6471903 -4.895627
-1.2020679 -0.9177005 -0.5914246 6.8194304 0.0632231 11.233738 -0.75191224 -27.534168
0.8286249 -2.0138767 0.04805279 -10.066429 -1.0554165 1.9823318 1.6760095 -7.2584357
0.0033601983 -0.118930034 -0.4606621 -21.636168 -0.75200003 -20.692228 -0.6087134 -4.9820004
-1.452112 9.106975 -3.2773552 -1.7263154 -1.0336207 21.58311 -0.031406242 -3.8484106
-0.22169782 5.85495 -1.382312 0.80096054 -1.677655 -5.8213058 0.9783419 6.2916384
-0.3803234 10.029689 -0.3847968 5.358785 1.3884152 2.226559 0.47911936 0.96053404
0.30252233 -25.158081 1.3717417 4.77379 0.090739965 -3.2222881 0.9422868 -1.3526468
-0.18433563 5.7238708 -2.3946984 -4.606827 -0.68062663 -13.635279 0.08835412 -1.1104443
-2.493466 5.908947 0.7359674 0.10986846 -0.04928646 -21.81847 0.18460396 -13.346862
-0.009171286 0.13784419 -0.7296951 3.662784 -0.5584324 15.178621 0.9888252 23.732239
00000000: 5614 4b3f ea64 8341 3a2c 883f fc1c 07c1
00000010: 9d82 50bf ff81 96c1 2fa9 cabe ae3e 99c1
00000020: 5a8c 12bf 0fb6 0d41 b03e 243f 1e23 0e41
00000030: 527a 04c0 c1b5 8c41 6fe7 053f 25de fbbf
00000040: 71e3 953e b572 2c41 876e ac3d d73e 2c40
00000050: 398c 8dbf b6ec 85c1 5784 6a3e f43c 6bc1
00000060: e6f4 60bb d993 4e3f 9f69 92bf 15df 62c1
00000070: bd4d 8b3f 4495 4a41 02d0 13be b3f0 a7c1
00000080: 97d8 013f f18d d23f 7398 58c0 4959 6fc0
00000090: c669 0540 df0c 68be 079a ba3f 18f4 de40
000000a0: cfb9 27bd ab9b 9541 187a 563e 2319 fcc0
000000b0: 5364 1a3d 6c2d d1c1 22d7 d2bf faa8 9cc0
000000c0: 5cdd 99bf 6cee 6abf 9a67 17bf c638 da40
000000d0: 1d7b 813d 64bd 3341 527d 40bf fa45 dcc1
000000e0: c320 543f 5be3 00c0 01d3 443d 1810 21c1
000000f0: e317 87bf 0cbd fd3f 7b87 d63f 1b45 e8c0
00000100: c636 5c3b 9791 f3bd e7db ebbe df16 adc1
00000110: 1383 40bf af89 a5c1 a4d4 1bbf 8c6c 9fc0
00000120: cede b9bf 2bb6 1141 30c0 51c0 e7f7 dcbf
00000130: af4d 84bf 36aa ac41 d5a3 00bd 5c4c 76c0
00000140: c104 63be c05b bb40 9aef b0bf c00b 4d3f
00000150: 66bd d6bf 2348 bac0 9d74 7a3f 1a55 c940
00000160: c0b9 c2be 9b79 2041 1604 c5be 2b7b ab40
00000170: 97b7 b13f f17f 0e40 224f f53e 8fe5 753f
00000180: 35e4 9a3e c043 c9c1 3b95 af3f e3c2 9840
00000190: e0d5 b93d f839 4ec0 b539 713f 8823 adbf
000001a0: 7bc2 3cbe f329 b740 bd42 19c0 206b 93c0
000001b0: 8c3d 2ebf 1a2a 5ac1 01f3 b43d 0a23 8ebf
000001c0: f294 1fc0 1816 bd40 5c68 3c3f b702 e13d
000001d0: 99e0 49bd 3a8c aec1 d208 3d3e bf8c 55c1
000001e0: 2943 16bc 0727 0d3e 4ccd 3abf 0e6b 6a40
000001f0: 6df5 0ebf a2db 7241 a623 7d3f a0db bd41

bias f4 [64]
2.4245098 2.489678 1.9990742 -3.5725675 -1.2907227 3.142806 -1.1384251 -3.381179
2.645427 -2.9511347 -2.7835202 -2.153772 4.122924 -5.0959973 5.167679 2.06376
2.038118 -6.7150226 -0.065721184 2.2243161 -3.7653317 4.092742 0.5960609 -3.0483272
-2.9658031 -2.6452546 -3.3269353 -2.3103085 5.500468 -0.6048477 3.3552005 1.7530674
2.9257004 -1.4064559 -3.1996286 -2.7677422 -3.3097935 -6.6065183 1.8558346 3.2289643
-1.4826366 -2.713508 -3.0533786 1.5504943 -3.5995853 -1.025126 2.5418274 1.6338316
-2.4986656 2.3763494 -3.593354 -3.1156607 -3.5260618 -2.944612 -2.9384294 -3.4761646
-5.5834055 -0.60280585 0.93537354 -3.1712587 2.495369 -1.449568 -2.174561 4.0635934
00000000: 2b2b 1b40 e256 1f40 aae1 ff3f f2a4 64c0
00000010: 6736 a5bf bc23 4940 eab7 91bf 3d65 58c0
00000020: ad4e 2940 64df 3cc0 3225 32c0 67d7 09c0
00000030: feee 8340 6912 a3c0 a05d a540 a514 0440
00000040: 8670 0240 77e1 d6c0 d498 86bd 325b 0e40
00000050: 32fb 70c0 bef7 8240 7297 183f cb17 43c0
00000060: b8cf 3dc0 da4b 29c0 82ec 54c0 18dc 13c0
00000070: d503 b040 4dd7 1abf 9bbb 5640 8364 e03f
00000080: ad3e 3b40 bf06 b4bf b7c6 4cc0 b022 31c0
00000090: a8d3 53c0 9968 d3c0 fd8b ed3f 5aa7 4e40
000000a0: 09c7 bdbf 1daa 2dc0 8e6a 43c0 9976 c63f
000000b0: 9b5f 66c0 5437 83bf 4dad 2240 6521 d13f
000000c0: 23ea 1fc0 1c16 1840 83f9 65c0 fc66 47c0
000000d0: ffaa 61c0 8674 3cc0 3a0f 3cc0 7b79 5ec0
000000e0: 42ab b2c0 7c51 1abf a474 6f3f e7f5 4ac0
000000f0: 20b4 1f40 728b b9bf 022c 0bc0 f508 8240

weight f4 [64, 64]
0.3503201 0.14719783 -1.1281415 2.1472816 1.1420748 -2.2591608 0.51217824 1.5605642
-2.9051955 0.52735746 1.253245 2.071779 -1.4766766 -3.264724 3.4524388 -1.3923303
-2.6173763 -1.5252677 -2.7504504 -2.0905569 0.9321965 3.7537217 0.97716117 0.110847
-0.1965745 2.1911292 1.7135606 -1.7496337 -1.4628226 0.77451456 -1.875012 1.3908707
-2.0588934 -0.95897835 1.7721394 2.2994912 1.5585989 -1.7658702 -2.4821517 -1.5521325
-1.0876416 1.2930776 0.52223253 -1.2050666 1.751677 1.8002445 -2.173616 -2.3708239
2.2589216 -1.9903184 1.8291644 1.2772683 1.6713362 -1.604079 1.2351226 1.6666688
-2.9898148 1.2813472 -1.5055326 3.013983 -0.4700179 1.9829708 -0.83242947 -3.3358839
0.77051246 3.4484835 1.2037323 0.071515776 -0.9133376 0.88644314 -0.68700165 -0.2352683
0.02601478 -0.7109656 -1.3511478 -0.115344666 0.826513 0.8235774 -1.1625034 2.089717
0.67345953 0.3858126 0.14118406 -0.26214528 -0.9255192 -0.17131235 -0.9640835 -0.7708139
-0.65899324 -0.8884284 -2.1041226 0.358625 0.4432446 0.4426134 0.7455928 -0.6831356
0.4995714 0.84813106 -0.98001146 -0.2662656 -2.6075156 -0.13840708 1.0995988 0.9153547
0.15054 -0.9629545 -0.21413192 -0.95391613 -2.1686928 -0.12272041 0.009015137 0.83299595
-0.9243448 -1.5681098 -0.64084995 -0.8328082 -1.0250747 -0.37552086 3.9483392 -0.3357876
1.0513111 -0.7354006 3.708523 -0.7027269 -0.90629524 -0.4248635 0.6538285 3.6531105
0.6688709 1.4140038 2.0196476 -1.5877588 -1.6018775 0.6591103 -2.065728 0.35326904
-0.54077977 -1.3035471 0.66828614 -1.9260323 1.344042 -0.20635657 0.034427803 3.1313245
0.44680122 -0.38150603 -0.10664603 -0.33662188 -2.2067678 -1.1544435 0.96495986 1.7224319
1.203027 -1.0754701 -2.5573752 -0.7018501 0.7951176 -0.07560547 1.1697085 0.085680515
0.8463985 -0.21122657 -1.2655294 -1.0269582 -2.883713 -0.4437601 -0.4687732 1.4331515
0.9039456 -0.7948273 2.188161 -0.43856803 -2.1548684 0.32487395 0.95500195 0.49400797
-1.3659015 0.8399116 -1.0284588 -1.298701 -1.4279633 -0.47705397 -0.076824434 -0.68945026
-0.20308696 -0.9555106 2.0372772 -2.2507672 -0.55369925 0.039448015 -0.54296833 2.7196715
-0.42677045 3.1317432 -0.278378 -0.33664203 -0.4497012 -0.1753341 0.32213965 0.031345747
1.5694937 0.27683967 -3.5950084 -0.9449078 2.5622451 -1.7343408 1.6706326 -0.3188604
1.3643739 -4.9469028 0.7025284 2.493305 -0.05591081 3.5429394 1.2733263 -8.848136
-3.5741258 0.09909015 0.9198237 -0.26803455 2.7319145 -0.13610162 0.17079668 1.5003626
0.12991135 -0.9722112 -1.3043858 -0.1688298 -3.7661483 -4.653399 -1.4520066 0.56285834
-2.4444125 -8.311743 -12.535825 2.1565938 0.84946465 -1.547174 10.015789 1.7596738
1.1282884 8.047457 0.8719366 0.2155852 -2.59574 -0.6404825 -0.6901155 0.15374365
-10.553339 2.7485323 1.3140916 1.3003645 -0.488983 -2.2779582 -2.4462502 -1.0024655
00000000: 285d b33e 07bb 163e f166 90bf 106d 0940
00000010: 822f 923f 1796 10c0 1d1e 033f 91c0 c73f
00000020: b9ee 39c0 e600 073f 556a a03f 0798 0440
00000030: bd03 bdbf 3df1 50c0 c2f4 5c40 e137 b2bf
00000040: 1883 27c0 f93b c3bf 6107 30c0 afcb 05c0
00000050: 6ea4 6e3f fa3c 7040 3c27 7a3f c003 e33d
00000060: d34a 49be 763b 0c40 f455 db3f fff3 dfbf
00000070: c53d bbbf 9646 463f 6500 f0bf 0d08 b23f
00000080: e9c4 03c0 9b7f 75bf 77d5 e23f dd2a 1340
00000090: 2b80 c73f 0908 e2bf 93db 1ec0 47ac c6bf
000000a0: d737 8bbf 9183 a53f 08b1 053f 9f3f 9abf
000000b0: f436 e03f 696e e63f 861c 0bc0 94bb 17c0
000000c0: 2c92 1040 c1c2 febf 0f22 ea3f 877d a33f
000000d0: 58ee d53f 7652 cdbf 7f18 9e3f 6755 d53f
000000e0: 2059 3fc0 2f03 a43f 4bb5 c0bf 19e5 4040
000000f0: 30a6 f0be fdd1 fd3f 191a 55bf 1f7f 55c0
00000100: 4e40 453f f4b3 5c40 e613 9a3f dd76 923d
00000110: 7ed0 69bf f0ed 623f 57df 2fbf 2cea 70be
00000120: f31c d53c d701 36bf 69f2 acbf d339 ecbd
00000130: 5b96 533f f8d5 523f e9cc 94bf ecbd 0540
00000140: d867 2c3f 3b89 c53e 8e92 103e e837 86be
00000150: d4ee 6cbf 816c 2fbe 2dce 76bf 0f54 45bf
00000160: c8b3 28bf 0b70 63bf f2a9 06c0 b29d b73e
00000170: f5f0 e23e 399e e23e 2bdf 3e3f fae1 2ebf
00000180: d3c7 ff3e 1e1f 593f 08e2 7abf f753 88be
00000190: 89e1 26c0 96ba 0dbe a7bf 8c3f b054 6a3f
000001a0: 2827 1a3e 3084 76bf 6645 5bbe d933 74bf
000001b0: ddcb 0ac0 d754 fbbd 3ab4 133c 393f 553f
000001c0: dca1 6cbf d2b7 c8bf be0e 24bf eb32 55bf
000001d0: a635 83bf 4544 c0be 97b1 7c40 5aec abbe
000001e0: 5d91 863f 3743 3cbf 7158 6d40 e9e5 33bf
000001f0: f702 68bf b587 d9be 4e61 273f 90cc 6940
00000200: 203b 2b3f 14fe b43f e841 0140 ae3b cbbf
00000210: 520a cdbf 74bb 283f e334 04c0 aedf b43e
00000220: 8b70 0abf a2da a6bf cd14 2b3f 3a88 f6bf
00000230: 9109 ac3f 234f 53be 2b04 0d3d 9f67 4840
00000240: 21c3 e43e c254 c3be 3c69 dabd b459 acbe
00000250: af3b 0dc0 cec4 93bf 9c07 773f a678 dc3f
00000260: cafc 993f 01a9 89bf 09ac 23c0 73ac 33bf
00000270: d48c 4b3f 0ad7 9abd 02b9 953f 4479 af3d
00000280: 92ad 583f c74b 58be defc a1bf 5e73 83bf
00000290: c18e 38c0 8634 e3be 0a03 f0be 8271 b73f
000002a0: fb68 673f cd79 4bbf d40a 0c40 fd8b e0be
000002b0: 5de9 09c0 e155 a63e 027b 743f 9dee fc3e
000002c0: dcd5 aebf 7204 573f 8aa4 83bf d63b a6bf
000002d0: 80c7 b6bf 6b40 f4be 2156 9dbd d07f 30bf
000002e0: 07f6 4fbe 589c 74bf c062 0240 920c 10c0
000002f0: 3cbf 0dbf 3e94 213d f9ff 0abf 190f 2e40
00000300: a881 dabe 7b6e 4840 9087 8ebe 585c acbe
00000310: 3c3f e6be c88a 33be 7def a43e 6664 003d
00000320: 2be5 c83f eebd 8d3e 9e14 66c0 7ae5 71bf
00000330: d3fb 2340 e1fe ddbf 4ad7 d53f ac41 a3be
00000340: cea3 ae3f 074d 9ec0 e7d8 333f 4f92 1f40
00000350: bc02 65bd 85bf 6240 5bfc a23f f791 0dc1
00000360: 7abe 64c0 c7ef ca3d 9179 6b3f d33b 89be
00000370: b0d7 2e40 395e 0bbe 53e5 2e3e e20b c03f
00000380: 7b07 053e d5e2 78bf 1df6 a6bf b8e1 2cbe
00000390: 9308 71c0 a5e8 94c0 5adb b9bf 7c17 103f
000003a0: 4171 1cc0 e6fc 04c1 bd92 48c1 a205 0a40
000003b0: 8476 593f cc09 c6bf ac40 2041 fe3c e13f
000003c0: c16b 903f 62c2 0041 3d37 5f3f 5ec2 5c3e
000003d0: 9b20 26c0 a9f6 23bf 69ab 30bf fa6e 1d3e
000003e0: 7ada 28c1 f4e7 2f40 2734 a83f 5872 a63f
000003f0: fb5b fabe 11ca 11c0 5d8f 1cc0 ca50 80bf

bias f4 [64]
-1.2876836 0.5315944 0.96904933 1.3230463 0.30523887 -0.833617 0.8869659 0.9309075
-1.9351382 0.6390404 -1.0661951 -2.044645 -1.4749085 -0.16412108 1.8828388 0.16939437
1.685351 1.8274225 0.9910464 1.0602709 1.2285284 0.5224637 0.59387726 0.7474813
-0.9240927 -0.5873854 -1.0736846 0.4112074 -0.95367557 -1.5307932 -2.2186754 1.2689238
-1.0954647 0.35215873 1.473666 1.1942787 -1.0277925 -0.7980575 0.24230896 -0.90968555
-0.7947746 -1.0026659 -0.7040921 0.7662874 -2.5329854 -0.69545 1.3868673 -0.6777349
-1.3224484 -0.56748617 1.3232464 1.2674881 -1.4859067 1.2157276 -1.5336212 0.70522237
1.0088211 2.1687706 1.8553236 0.6883149 0.24468167 -1.8650011 0.19180804 -0.8163692
00000000: d1d2 a4bf 9216 083f 9e13 783f 9559 a93f
00000010: 4548 9c3e ec67 55bf 3210 633f f44f 6e3f
00000020: 9cb2 f7bf 2798 233f 1579 88bf 77db 02c0
00000030: cdc9 bcbf 5b0f 28be dd00 f13f b875 2d3e
00000040: 95b9 d73f fbe8 e93f 38b5 7d3f f5b6 873f
00000050: 6b40 9d3f 2ec0 053f 5708 183f ef5a 3f3f
00000060: 5791 6cbf e45e 16bf 7f6e 89bf c789 d23e
00000070: 1524 74bf 08f1 c3bf c7fe 0dc0 186c a23f
00000080: 3038 8cbf 264e b43e 16a1 bc3f 20de 983f
00000090: b48e 83bf 7f4d 4cbf d71f 783e 27e1 68bf
000000a0: 5976 4bbf 5b57 80bf 613f 34bf 692b 443f
000000b0: 6f1c 22c0 0309 32bf de84 b13f 0980 2dbf
000000c0: fd45 a9bf c646 11bf 2360 a93f 0d3d a23f
000000d0: 3132 bebf f69c 9b3f b34d c4bf 7489 343f
000000e0: 0d21 813f 23cd 0a40 3e7b ed3f 6835 303f
000000f0: d58d 7a3e 5bb8 eebf 5469 443e 92fd 50bf

weight f4 [1, 64]
17.170364 33.670948 -17.18988 -23.993177 23.145288 17.170519 24.192635 -24.273846
15.609946 31.33028 25.564575 24.815031 4.5383854 23.714666 -23.168398 -24.98259
-25.361433 -23.19348 -9.772673 -17.1058 24.803108 -22.621473 37.136414 24.726824
-25.508541 -34.74458 25.37497 43.931244 16.46802 25.99818 22.67913 24.304012
28.240242 41.236046 -16.214544 -22.129688 17.02477 25.101444 -17.101446 27.939049
-23.47779 24.659626 24.078959 43.052006 21.911118 4.1836367 32.845562 -35.09725
16.935568 -43.740997 -26.569822 -24.869059 25.10922 -4.9036946 -31.858295 23.478075
-26.11804 39.290863 29.199535 41.64758 -25.027155 26.601177 -24.517838 -24.245787
00000000: e85c 8941 0daf 0642 e084 89c1 07f2 bfc1
00000010: 8d29 b941 395d 8941 848a c141 d630 c2c1
00000020: 57c2 7941 6aa4 fa41 4084 cc41 2f85 c641
00000030: 743a 9140 a3b7 bd41 e158 b9c1 58dc c7c1
00000040: 37e4 cac1 3f8c b9c1 de5c 1cc1 aed8 88c1
00000050: c46c c641 c7f8 b4c1 b08b 1442 89d0 c541
00000060: 7e11 ccc1 73fa 0ac2 f0ff ca41 98b9 2f42
00000070: 81be 8341 46fc cf41 dc6e b541 9e6e c241
00000080: 04ec e141 b6f1 2442 63b7 81c1 9a09 b1c1
00000090: bb32 8841 c2cf c841 c3cf 88c1 2c83 df41
000000a0: 84d2 bbc1 ea46 c541 b5a1 c041 4135 2c42
000000b0: f849 af41 5ae0 8540 db61 0342 9663 0cc2
000000c0: 0b7c 8741 c8f6 2ec2 ff8e d4c1 d5f3 c6c1
000000d0: afdf c841 11eb 9cc0 cadd fec1 19d3 bb41
000000e0: bff1 d0c1 d829 1d42 a698 e941 1f97 2642
000000f0: 9d37 c8c1 36cf d441 8824 c4c1 5ff7 c1c1
