dir_save_test/we0_actor_330.pth (torch, 19520 bytes, 4 tensors)

0.weight f4 [64, 2]
0.42979 1.2145638 0.23097041 1.6532705 -0.36564973 3.365116 0.41025645 1.8438526
-0.12177545 -4.59289 0.45795053 0.43510762 -0.38808253 -1.8664876 0.08285543 -1.8368155
1.7096316 1.0180533 0.3988739 0.41088763 0.38131166 -0.06920968 0.3132746 -2.4269807
-0.15210605 0.9518442 -0.0032915121 1.5738689 0.19855693 -0.19999717 -1.3795948 -0.56072664
0.12710305 3.0419874 0.25927648 1.2402711 -0.05653658 4.935891 -0.14939824 -4.647305
-0.4509359 -2.2377858 0.41915596 1.6354767 0.2922066 1.3109529 -0.44632676 -0.5530561
-0.24519293 -1.0997069 0.008149764 -5.860458 0.2599007 -0.041848224 0.6768523 -0.37303847
0.19517641 3.5718641 0.369069 -0.8607596 -0.061517194 0.5488267 1.5373487 0.983164
0.0041482006 -6.8886595 -0.26999325 -1.2556689 0.052012123 -4.6385436 0.39947888 -2.1442075
-0.019833528 6.9822826 -0.45017657 -0.9923189 -0.306469 -1.6480714 0.2845148 1.12932
-0.02555892 4.818447 -0.38622043 0.70233655 -0.74005723 0.16505928 -0.21276484 -0.89799297
-0.021444775 7.593697 0.12644261 -2.034941 0.25486746 -1.958521 -0.37553743 -0.8650835
-0.42841843 0.98110074 -0.5906632 -1.3114989 -0.070978716 -5.2123566 0.029569289 -5.30061
-0.07403892 4.19758 -0.024656564 4.548472 0.25701824 -0.53110003 -0.0945569 -0.4839321
-0.19610308 -0.23113064 0.18590848 2.3038957 -0.37958884 -2.2331362 -0.26764637 -1.774123
-0.005321394 1.1548488 0.44656354 -1.9147217 0.21876006 -0.0071257665 -0.2618248 -0.4571596
00000000: 6f0d dc3e d476 9b3f 8283 6c3e 5e9e d33f
00000010: 7136 bbbe 0f5e 5740 220d d23e 5d03 ec3f
00000020: 6865 f9bd f4f8 92c0 7e78 ea3e 6dc6 de3e
00000030: c1b2 c6be 11e9 eebf 1cb0 a93d c51c ebbf
00000040: 35d5 da3f 924f 823f 3339 cc3e dd5f d23e
00000050: 483b c33e cebd 8dbd 8765 a03e a753 1bc0
00000060: b0c1 1bbe 10ac 733f 69b6 57bb 8974 c93f
00000070: 8252 4b3e 0fcc 4cbe 9096 b0bf c88b 0fbf
00000080: 4d27 023e ecaf 4240 e3bf 843e 34c1 9e3f
00000090: e792 67bd d2f2 9d40 dafb 18be b9b6 94c0
000000a0: 12e1 e6be e237 0fc0 9c9b d63e 4d57 d13f
000000b0: 1a9c 953e 4ecd a73f f184 e4be 1695 0dbf
000000c0: db13 7bbe 32c3 8cbf 9686 053c df88 bbc0
000000d0: b411 853e 0b69 2bbd 3146 2d3f e6fe bebe
000000e0: 53dc 473e 6c99 6440 9df6 bc3e be5a 5cbf
000000f0: 74f9 7bbd e87f 0c3f d8c7 c43f a3b0 7b3f
00000100: a1ed 873b e66f dcc0 8e3c 8abe c2b9 a0bf
00000110: aa0a 553d f36e 94c0 7f88 cc3e b23a 09c0
00000120: ec79 a2bc dc6e df40 8b7d e6be 9d08 7ebf
00000130: 81e9 9cbe 01f4 d2bf edab 913e 8f8d 903f
00000140: f160 d1bc b830 9a40 afbe c5be 54cc 333f
00000150: 6474 3dbf 4d05 293e 07df 59be dee2 65bf
00000160: f4ac afbc 91ff f240 2c7a 013e 793c 02c0
00000170: fd7d 823e d1b0 fabf 7146 c0be 1d76 5dbf
00000180: a959 dbbe 6b29 7b3f b435 17bf 32df a7bf
00000190: 4a5d 91bd a0cb a6c0 4b3b f23c 999e a9c0
000001a0: b8a1 97bd 9352 8640 90fc c9bc 158d 9140
000001b0: e597 833e 2cf6 07bf 0ca7 c1bd f3c5 f7be
000001c0: 3fcf 48be 83ad 6cbe cb5e 3e3e 0773 1340
000001d0: 7859 c2be b4eb 0ec0 f208 89be 7616 e3bf
000001e0: 175f aebb 16d2 933f faa3 e43e 9a15 f5bf
000001f0: a302 603e 437f e9bb e60d 86be d310 eabe

0.bias f4 [64]
-0.07957654 0.868263 0.41738245 -0.08817102 -0.45582584 0.24405864 0.2358978 0.43583125
-0.67850626 0.76560223 -0.43915886 -0.49968573 1.1969038 -0.20164797 0.36416775 0.15556595
0.33674476 0.8596184 -0.20331159 -0.4024355 -0.16314328 -0.13036002 -0.1086988 0.63057536
-0.59478307 -0.2042746 0.8099828 0.4745881 0.28088737 2.0624719 -0.029278899 -0.101537414
-0.105465814 -1.2168257 0.13704342 -0.49208325 0.06770604 -0.008660621 -1.1664315 1.2341231
0.046958156 0.22321206 -0.24685715 -0.576315 0.04288579 0.504361 -1.004341 0.43529186
0.95802444 -0.6121171 -0.17269598 0.09949925 -0.35786074 0.010195436 1.3023024 1.6225655
-0.78672886 0.39415702 -0.17511117 -0.88875353 0.07731705 -0.61592567 0.8846527 -1.2141969
00000000: 06f9 a2bd 7c46 5e3f 27b3 d53e 0293 b4bd
00000010: 0162 e9be 82ea 793e 318f 713e 4625 df3e
00000020: 96b2 2dbf 82fe 433f 6ed9 e0be cfd6 ffbe
00000030: 2534 993f ce7c 4ebe 3274 ba3e ae4c 1f3e
00000040: cf69 ac3e f40f 5c3f ea30 50be 070c cebe
00000050: 080f 27be 197d 05be 7a9d debd 636d 213f
00000060: b443 18bf 5c2d 51be 085b 4f3f 36fd f23e
00000070: 78d0 8f3e 8aff 0340 4dda efbc d9f2 cfbd
00000080: 76fe d7bd f2c0 9bbf 1c55 0c3e 56f2 fbbe
00000090: 77a9 8a3d 47e5 0dbc a14d 95bf bff7 9d3f
000000a0: 3257 403d b491 643e 1fc8 7cbe 6189 13bf
000000b0: 03a9 2f3d cd1d 013f 3f8e 80bf 93de de3e
000000c0: 1741 753f b5b3 1cbf 37d7 30be 43c6 cb3d
000000d0: 8639 b7be c20a 273c d8b1 a63f 3ab0 cf3f
000000e0: 1067 49bf f3ce c93e 5850 33be 5a85 63bf
000000f0: 6758 9e3d 4ead 1dbf 9978 623f ce6a 9bbf

2.weight f4 [64, 64]
0.262055 -0.40942916 -0.34768108 0.037567083 0.5391403 -0.31857094 -0.26738638 -0.36459723
0.63051265 -0.4525839 0.2262704 0.31091815 -0.6175923 -0.003681793 0.24840495 -0.8019123
-0.040820554 -0.12026385 0.04970693 0.24709117 0.08191956 -0.11251521 0.31176874 -0.3538077
0.40397972 0.399215 -0.42739108 -0.4506559 -0.36634898 -0.22997336 -0.20910132 0.71512794
0.08687786 0.39204 0.4560084 0.32811242 -0.231255 -0.057215855 0.5115244 -0.66961044
-0.2761402 -0.30686307 -0.5228112 0.338639 -0.3777455 -0.3854256 0.6151613 -0.3855699
-0.57598984 0.27794126 -0.0034128411 0.15724376 0.06458191 -0.24459368 -0.53073114 -0.43253037
0.43760413 0.03146862 0.11161886 0.39278007 0.0432671 0.62703323 -0.5209138 0.4118419
0.36313128 -0.32903513 -1.2457277 0.24956232 0.70274633 0.10276348 -0.4669183 0.16741839
0.5718368 0.32592008 0.6164681 1.0407413 -0.026168004 0.06751664 0.4212866 -0.3357309
-0.4696292 0.27369598 -0.9580903 0.39976034 -0.21860483 0.26459453 0.24882987 -0.7407013
0.060255114 0.7889327 0.36548728 0.15710291 0.025840707 0.0025670687 -0.11801103 0.40365732
0.589596 0.46518114 0.40635332 1.0816257 -0.55912846 -0.34080213 -0.060364123 -0.37530503
-0.72469205 -0.51120156 -0.3004367 -0.21081181 -0.57194394 0.28176326 0.6559035 -0.2521635
-0.22315644 0.00466186 0.13638386 0.2969725 -0.50010824 -0.49837214 -0.1632344 -0.41963342
0.05728036 0.09995744 0.012326273 -0.028211676 -0.23993059 0.72939336 0.2587925 0.21804588
0.5668231 0.17099525 0.24832791 0.3666175 -0.025540954 0.23834752 -0.48048472 -0.1729773
1.8599349 0.34841257 0.13635361 -0.22178563 0.15952922 0.28209832 0.7742268 -1.1570294
0.41235468 0.39875615 0.14891396 -0.06340208 -0.49988663 0.41633648 0.11308842 -0.36408415
-0.22938605 -0.4645291 0.30257484 0.12043446 0.21262838 -0.4224711 0.003496631 1.0886961
-0.3599485 0.08168317 -0.26545238 -0.21938512 0.37856635 -0.18361115 -0.43751487 0.050752226
-0.083910696 -0.3418812 -1.1165376 -0.27372554 0.64457 0.026057709 -0.2774746 -0.37005466
0.17274928 -0.33642647 -0.3171596 -0.6377398 -0.05148838 0.14471652 -0.074705094 -0.14828323
0.033133578 0.17698 -0.49540338 -0.3334782 0.11943803 0.1749191 0.18498603 -0.029065404
0.27225196 -0.3084715 -0.54753965 0.6494972 0.43020746 0.17836997 -0.541307 -0.15506086
0.33730212 0.13567975 0.44165677 0.18206084 0.33110017 0.35401765 0.3315546 -0.4826349
-0.40803292 0.2709336 -0.13203469 0.48256576 -0.13152695 0.46718347 0.45742443 -0.5300355
-0.107030086 0.15672147 0.32349253 0.19116251 0.40413052 -0.03305705 -0.19744475 0.31972268
-0.454354 0.34694552 0.09433879 0.37779364 0.12296619 -0.0792143 -0.094564326 -0.48208627
-0.28224942 -0.10204755 -0.3145576 -0.2306295 0.12269078 0.12311345 0.29733887 -0.40301675
-0.021478537 -0.2011659 -0.07170713 -0.02871604 0.259798 0.04696756 -0.48035827 -0.37046456
0.22466506 0.08248894 -0.19236659 -0.16523251 -0.20311545 0.45813224 0.26991358 0.27755946
00000000: 132c 863e b3a0 d1be 4103 b2be f1df 193d
00000010: 1905 0a3f bb1b a3be dee6 88be 7dac babe
00000020: 4769 213f 14b9 e7be 6eb3 673e aa30 9f3e
00000030: 871a 1ebf 3d4a 71bb de5d 7e3e 204a 4dbf
00000040: 7433 27bd e54c f6bd 7e99 4b3d 7805 7d3e
00000050: 71c5 a73d 606e e6bd 27a0 9f3e 4826 b5be
00000060: 6ed6 ce3e e965 cc3e 01d3 dabe 5fbc e6be
00000070: 1892 bbbe 237e 6bbe a81e 56be a012 373f
00000080: 05ed b13d 78b9 c83e ef79 e93e 5afe a73e
00000090: 1cce 6cbe 2c5b 6abd 43f3 023f 976b 2bbf
000000a0: 4062 8dbe 281d 9dbe f4d6 05bf 1762 ad3e
000000b0: dc67 c1be 8156 c5be 367b 1d3f 6b69 c5be
000000c0: 1274 13bf 514e 8e3e f9a9 5fbb 8204 213e
000000d0: 8543 843d c476 7abe ffdd 07bf 9f74 ddbe
000000e0: a60d e03e 3de5 003d 6e98 e43d 781a c93e
000000f0: d838 313d 4085 203f 9b5a 05bf f1dc d23e
00000100: 58ec b93e 4b77 a8be 0174 9fbf 448d 7f3e
00000110: 2fe7 333f a975 d23d ea0f efbe ba6f 2b3e
00000120: e663 123f ffde a63e dad0 1d3f 0337 853f
00000130: 485e d6bc 2a46 8a3d e1b2 d73e ece4 abbe
00000140: 3d73 f0be e121 8c3e 6845 75bf 63ad cc3e
00000150: f2d9 5fbe ef78 873e 42cd 7e3e 9a9e 3dbf
00000160: 11ce 763d 7ef7 493f 2621 bb3e 96df 203e
00000170: e4af d33c 443c 283b c4af f1bd 2cac ce3e
00000180: c3ef 163f 392c ee3e 8b0d d03e b672 8a3f
00000190: 0b23 0fbf 9e7d aebe 5f40 77bd fb27 c0be
000001a0: 6b85 39bf 1bde 02bf d7d2 99be 0ddf 57be
000001b0: eb6a 12bf 4643 903e 4be9 273f 931b 81be
000001c0: 1f83 64be 84c2 983b 36a8 0b3e c80c 983e
000001d0: 1807 00bf a22a ffbe eb26 27be 31da d6be
000001e0: d09e 6a3d 7cb6 cc3d 23f4 493c 2c1c e7bc
000001f0: 5db0 75be 86b9 3a3f 7380 843e 6b47 5f3e
00000200: 521b 113f 6119 2f3e ac49 7e3e 4ab5 bb3e
00000210: 433b d1bc 5f11 743e 1802 f6be f620 31be
00000220: 5912 ee3f 2263 b23e 48a0 0b3e c61b 63be
00000230: a15b 233e 316f 903e ba33 463f 8a19 94bf
00000240: 2720 d33e c429 cc3e e77c 183e f3d8 81bd
00000250: 24f1 ffbe 0e2a d53e e79a e73d 3d69 babe
00000260: 2de4 6abe c2d6 edbe 17eb 9a3e 58a6 f63d
00000270: 41bb 593e 224e d8be bc27 653b 655a 8b3f
00000280: 2b4b b8be 8149 a73d 60e9 87be 7ea6 60be
00000290: 73d3 c13e 9004 3cbe f301 e0be 91e1 4f3d
000002a0: 5fd9 abbd 0d0b afbe b4ea 8ebf c125 8cbe
000002b0: 8a02 253f fa76 d53c 2711 8ebe ce77 bdbe
000002c0: 30e5 303e 1740 acbe be62 a2be ea42 23bf
000002d0: 7be5 52bd 9130 143e fcfe 98bd 8fd7 17be
000002e0: 13b7 073d 3f3a 353e 83a5 fdbe a8bd aabe
000002f0: ed9b f43d fe1d 333e fa6c 3d3e 921a eebc
00000300: 9c64 8b3e faef 9dbe 8f2b 0cbf 7345 263f
00000310: 2744 dc3e 9ea6 363e 1893 0abf 46c8 1ebe
00000320: ddb2 ac3e a2ef 0a3e d620 e23e 286e 3a3e
00000330: f685 a93e cd41 b53e 86c1 a93e ec1b f7be
00000340: b1e9 d0be cfb7 8a3e 1a34 07be dc12 f73e
00000350: 00af 06be ac32 ef3e 8933 ea3e 68b0 07bf
00000360: 9732 dbbd 987b 203e d0a0 a53e 1bc0 433e
00000370: 32ea ce3e d466 07bd f52e 4abe b1b2 a33e
00000380: 16a1 e8be d8a2 b13e b234 c13d 2b6e c13e
00000390: b3d5 fb3d 1b3b a2bd f1aa c1bd 03d4 f6be
000003a0: ff82 90be 4efe d0bd b20d a1be 242a 6cbe
000003b0: 4e45 fb3d e822 fc3d cd3c 983e 3658 cebe
000003c0: c2f3 afbc 6ffe 4dbe 30db 92bd e73d ebbc
000003d0: 3e04 853e 0e61 403d 85f1 f5be 88ad bdbe
000003e0: 990e 663e f6ef a83d bffb 44be b632 29be
000003f0: 7ffd 4fbe 4f90 ea3e 1d32 8a3e 461c 8e3e

2.bias f4 [64]
-0.70110106 -0.47642595 -0.8117723 -0.20331137 -0.32471716 0.3007348 0.30684084 0.32272896
0.6256518 -0.5216501 -0.5993297 -0.28123292 -0.11154067 0.38842916 0.5527905 -0.15418497
-0.44433087 0.7321238 -0.9211372 0.69721377 -0.681948 -0.46686897 -0.53663987 0.4667938
0.114885435 -0.40762183 0.3737283 0.94821674 0.54931015 -0.17280409 0.56158876 0.8793773
0.14224802 -0.0033504236 -0.4366962 -0.7478682 -0.67674106 -0.30550766 -0.79703593 -0.67655987
0.8708826 -0.58101445 0.08510386 -0.5836548 0.6720906 -0.39521635 -0.015978664 0.47286195
0.4189072 1.0100485 -0.48252073 0.7171452 0.3894706 -0.23498191 0.58858514 -0.059896637
0.119577914 -1.1116753 -0.63190013 -0.98454267 0.544611 -0.04490612 -0.46708176 -0.13550732
00000000: 5c7b 33bf 1aee f3be 4fd0 4fbf db30 50be
00000010: 5441 a6be e9f9 993e 3e1a 9d3e bb3c a53e
00000020: b72a 203f dc8a 05bf ac6d 19bf c3fd 8fbe
00000030: 6f6f e4bd 30e0 c63e ae83 0d3f aae2 1dbe
00000040: 567f e3be 776c 3b3f a6cf 6bbf 9a7c 323f
00000050: 2594 2ebf 7309 efbe 3b61 09bf 99ff ee3e
00000060: 0e49 eb3d cfb3 d0be 5159 bf3e 55be 723f
00000070: 979f 0c3f 8ef3 30be 48c4 0f3f df1e 613f
00000080: 77a9 113e c892 5bbb a596 dfbe 4a74 3fbf
00000090: e73e 2dbf 806b 9cbe 8c0a 4cbf 0733 2dbf
000000a0: 29f2 5e3f 5dbd 14bf ef4a ae3d 676a 15bf
000000b0: 210e 2c3f cc59 cabe b0e5 82bc f61a f23e
000000c0: 017b d63e 4549 813f f50c f7be d496 373f
000000d0: b168 c73e 199f 70be 84ad 163f 2d56 75bd
000000e0: 44e5 f43d 604b 8ebf 35c4 21bf fd0a 7cbf
000000f0: a06b 0b3f 7bef 37bd 5725 efbe 6ec2 0abe
