dir_save_test/we0_model_dist_330.pth (torch, 3105 bytes, 1 tensors)

weight f4 [1, 64]
0	0xbec3e096	-0.38257283
1	0x3e78ee60	0.24309683
2	0x3e071c41	0.13194372
3	0x3d56fc7b	0.052486878
4	0x3d110ebd	0.035414446
5	0x3e41acdd	0.18913598
6	0xbafd2636	-0.0019313756
7	0xba0ae494	-0.0005298343
8	0xbd5f655e	-0.05454003
9	0x3b021537	0.001984907
10	0x3ca8bba0	0.02059728
11	0x3d514ebd	0.05110048
12	0x3d179f68	0.037017256
13	0x3e63becd	0.22240753
14	0x3d95a66b	0.07307132
15	0x3c8378b8	0.016048774
16	0x3d28896e	0.04114669
17	0xbdbb1527	-0.09134894
18	0xbe51938d	-0.20466442
19	0xbe33799e	-0.17526862
20	0x3ef8cc52	0.48593384
21	0x3d5c601a	0.053802587
22	0xbbd4855e	-0.006485625
23	0x3ec15326	0.3775875
24	0xbe9cdd71	-0.30637696
25	0x3d3b2657	0.04569086
26	0xbde2494d	-0.11049137
27	0x3e1a8fc3	0.15093903
28	0xbb86d53b	-0.0041147745
29	0xbb2bee1a	-0.002623445
30	0xbd33d224	-0.043901578
31	0x3da874d8	0.08225411
32	0xbe57140e	-0.21003744
33	0xbddbacb6	-0.10726301
34	0xbb99e5c7	-0.004696581
35	0x3da20a95	0.079121746
36	0x3c8df04c	0.017326497
37	0xba55b607	-0.00081524294
38	0xbea2bd22	-0.31784922
39	0x3e41377f	0.18868826
40	0xbd957601	-0.07297898
41	0xbdaadd93	-0.08343043
42	0x3da7a85d	0.081864096
43	0x3bb5b7a9	0.0055455756
44	0xbd3cb15d	-0.046067584
45	0xbed2af2d	-0.41149274
46	0x3d38ccaa	0.045117058
47	0xbe160f46	-0.14654264
48	0x3eba647a	0.36404783
49	0xbecf7401	-0.4051819
50	0x3d0b1d47	0.033963468
51	0x3d9aa3e0	0.07550788
52	0xbde7f590	-0.11326134
53	0x3d318ee8	0.043349177
54	0xbd340231	-0.043947402
55	0xbcae1368	-0.021249488
56	0x3e538ca2	0.20659116
57	0xbea3268a	-0.3186534
58	0x3d97243f	0.0737996
59	0x3e9cad76	0.3060109
60	0x3da0fe2a	0.07860978
61	0x3dd1fc94	0.102532536
62	0x3e67930a	0.22614685
63	0x3c251e2d	0.010077995
