dir_save_test/we0_model_base_-100.pth (torch, 41568 bytes, 9 tensors)

weight f4 [64, 2]
000000 2c c0 3d be 93 4d c3 3f 6a 9c 2a 3d e5 59 8e 3f
       -0.18530339 1.5258049 0.041653074 1.1121184
000010 f8 3f 20 3d 4e 3b cb 3f 4c 50 2c be 59 e1 e9 3f
       0.039123505 1.5877473 -0.16827506 1.8271896
000020 8c 7f 1d 3e a0 f0 2d c0 fa c2 6e bd 0c a2 2a 3f
       0.15380687 -2.7178116 -0.058291413 0.66653514
000030 3b d6 13 3e 54 5e f9 bf d6 9a 17 3e b0 f7 9d bf
       0.14437191 -1.9481912 0.14805159 -1.2341213
000040 cb dd 86 3f 4a b8 e8 3e 8e 8c a7 3d 62 25 0d 3f
       1.0536436 0.454531 0.081811056 0.55135167
000050 a1 03 56 bd c3 0f 34 3f 0b 36 a4 3d 37 89 8a bf
       -0.052249555 0.7033655 0.080181204 -1.0823125
000060 88 8e 46 bd 8c fe 20 3f 86 93 fd bd 76 49 a9 3f
       -0.048475772 0.6288841 -0.123816535 1.3225543
000070 9b de 25 3f d3 75 9a 3c 0b e8 49 bf f7 28 8a be
       0.64792794 0.018855011 -0.78869694 -0.2698438
000080 e9 9d 6c bd 95 ad f5 3f ed 09 8e 3d 85 51 92 3f
       -0.057767782 1.9193598 0.06935487 1.1431128
000090 34 8e 3a be fa 85 15 40 b8 41 bb 3d 8f 80 17 c0
       -0.18218309 2.3363023 0.09143394 -2.3672216
0000a0 0e 58 79 3d fa 59 ef bf 31 77 db bd 2b 04 be 3f
       0.06087499 -1.8699334 -0.10716093 1.4845022
0000b0 8f 73 1d be 53 c8 ae 3f 8c 4a f3 3d ab f5 95 bf
       -0.15376113 1.3654884 0.11879453 -1.1715597
0000c0 49 a9 74 3b 8b 15 74 bf 97 96 2e 3e 08 cf 46 c0
       0.0037332347 -0.9534537 0.17049633 -3.1063862
0000d0 d3 bb 06 3e 72 8f 34 bc 35 83 2b 3e ba cb 9a be
       0.13157587 -0.011020528 0.1674927 -0.30233556
0000e0 c6 3e 2a be 31 94 29 40 a0 18 24 3f 98 38 10 bf
       -0.16625509 2.64967 0.64100075 -0.56336355
0000f0 1b 30 d7 bb a3 75 b1 3e c2 44 66 3f 55 c4 f2 3e
       -0.006567014 0.34660062 0.89948666 0.47415414
000100 ea 37 27 3e db b7 77 c0 04 6d 5c be f2 09 e3 be
       0.16329923 -3.8705966 -0.21525961 -0.44343525
000110 f9 ba 18 3e 15 df 10 c0 f3 dc 6b bd ae 9d 5a bf
       0.14915074 -2.2636158 -0.05758376 -0.8539685
000120 02 ad 3e be 7a 72 6c 40 d0 8d 26 3e 92 65 a1 bf
       -0.18620685 3.694487 0.16265035 -1.2609122
000130 0b 5e d9 bc 30 59 a3 bf cc 34 ef 3c 26 b9 4b 3f
       -0.026534101 -1.2761593 0.02919998 0.7957939
000140 7e 44 53 be 08 9b 20 40 f7 ec a6 3d 49 c8 71 bc
       -0.20631596 2.5094624 0.08150666 -0.014757224
000150 80 01 3c bf 5c b6 4e 3e 6e af 42 3d 01 40 68 bf
       -0.7343979 0.20186752 0.047530584 -0.9072266
000160 ba 28 33 be 70 69 7e 40 cb 05 b1 3d 97 37 85 bf
       -0.17496005 3.9751854 0.08643683 -1.040759
000170 ff 2a 0d bf a9 31 ba be 62 24 bc 3d ff 1a 85 bf
       -0.5514373 -0.36366013 0.09186627 -1.0398864
000180 27 24 64 3d 46 26 73 3f 13 ba 45 bd fa 28 8d bf
       0.05569854 0.94980276 -0.048273157 -1.102813
000190 17 1b f0 3d c7 5e 36 c0 e7 ba 00 3e f1 04 2f c0
       0.11723917 -2.8495347 0.12571298 -2.7346766
0001a0 7b 80 54 be 27 7c fd 3f 44 71 3c be 17 84 1a 40
       -0.20752136 1.9803513 -0.18402582 2.4143121
0001b0 f7 68 f8 3d 95 27 08 bf 29 6a e7 3e 65 5a 29 bf
       0.121293955 -0.531854 0.4519818 -0.66153556
0001c0 f8 d2 45 bd ce 2e c5 be 62 8f 04 be cb 3f ec 3f
       -0.0482969 -0.38512272 -0.12945321 1.8456968
0001d0 f1 9d e7 3d 03 40 08 c0 84 c2 a2 3d f0 3b ca bf
       0.11309422 -2.128907 0.07947257 -1.5799541
0001e0 00 82 94 bd 83 42 15 3f 0c 59 5a ba c9 f5 48 bf
       -0.07251358 0.58304614 -0.0008329309 -0.7850004
0001f0 f3 10 a8 3d 6e ed 3c 3b ee fb 8f 3c d9 4b ac be
       0.08206358 0.0028828043 0.017576184 -0.33651617

bias f4 [64]
000000 23 07 e2 bb 7e 0f 85 3d ee 48 76 3d 4b 8b df 3d
       -0.0068978234 0.064970955 0.060128145 0.1091524
000010 56 32 47 be 18 12 22 3c 31 e3 bf bd 7f 6e c1 bd
       -0.19452795 0.009892009 -0.09369505 -0.094449036
000020 4d ee 9c bf b8 67 15 3d e9 f6 de bc 10 fe 13 bd
       -1.2260224 0.036475867 -0.027217345 -0.036130965
000030 d5 b2 a3 3c 25 c4 0e 3d 17 1c bc be ba d7 0e 3f
       0.019982735 0.034855027 -0.3674018 0.5579792
000040 08 fa 33 3d 0e 9b a1 3d d6 bd 49 3e 1a e2 35 be
       0.04393962 0.078909025 0.19701323 -0.17762032
000050 ea be 81 bd 1c ba 44 3d 62 99 fd 3d b8 09 bb 3c
       -0.06335242 0.04802905 0.12382771 0.022831783
000060 d1 a7 53 bd 7f 02 24 be e7 61 36 3e ea dc e7 3d
       -0.051673714 -0.16016577 0.17810784 0.11321433
000070 67 b8 22 3e aa fc 53 3f 58 ba e0 3b df da 3d bf
       0.15890656 0.8280741 0.0068581514 -0.74162096
000080 f7 e8 72 be c4 10 97 be 8b b2 db bd 86 41 74 bd
       -0.23721682 -0.2950498 -0.10727414 -0.0596328
000090 58 41 6e 3e 80 7a 25 be 2f 25 72 bd 2c c8 5a 3d
       0.23267114 -0.16160011 -0.059117492 0.053413555
0000a0 54 df 66 3e 23 c4 a3 3c 38 e9 d0 3e 80 e3 a1 bd
       0.2254613 0.019990986 0.40802932 -0.0790472
0000b0 1f 81 4d 3e 49 f1 76 bd 12 46 93 3d a9 c2 40 3c
       0.20068787 -0.0602887 0.07191099 0.011765161
0000c0 38 03 d3 3c e5 2a 5a bc fe 15 31 be 0a 0e 39 bd
       0.02575837 -0.013315891 -0.17293546 -0.045179404
0000d0 c1 c3 cb 3d 3a 1f 57 3e cd d1 b7 3d 75 ab 00 3f
       0.099494465 0.21008006 0.08975563 0.5026162
0000e0 ec 38 12 bd 38 9d 28 3e 22 29 2c bd 5c bb d3 bc
       -0.035698816 0.16466224 -0.042031415 -0.025846176
0000f0 b9 03 27 bd cc 3f 1d bd 30 63 9a 3d 81 9b d2 bc
       -0.040775035 -0.03839092 0.0753845 -0.025708916

weight f4 [64, 64]
000000 aa 9d bf bd 35 67 a5 3d 24 18 d2 3d 41 03 29 be
       -0.09356244 0.08076326 0.10258511 -0.16505148
000010 a4 3b 45 3d 7a e2 17 3e 25 89 5e bd 92 72 e3 bb
       0.04815258 0.14832488 -0.05433001 -0.006941148
000020 f2 44 38 be 6d 80 2d 3d 12 3b e1 bd 87 ca 78 bc
       -0.1799505 0.042358804 -0.10997595 -0.015185005
000030 dd 24 72 bd 73 0e 63 be 19 b1 9b bd 1b 28 96 bd
       -0.059117187 -0.2217348 -0.07602138 -0.07331868
000040 f4 09 15 3e 79 64 a9 3e 8d f4 38 3e ae 82 56 be
       0.14554578 0.33084467 0.18062039 -0.20948288
000050 6b e9 cf bd c5 74 32 be 40 db cf 3d 26 db 82 3e
       -0.10151943 -0.17427357 0.101492405 0.25557822
000060 4e 25 0b be af 33 09 3d 39 7a 17 3d b6 39 ad bd
       -0.1358845 0.033496555 0.036981795 -0.08458273
000070 da e1 8b be b7 0f a1 bd 05 60 96 be fc 7f 82 bd
       -0.2732075 -0.078643255 -0.29370132 -0.06372067
000080 2b 64 40 be 50 c5 f4 bd 54 e5 cb 3e 28 c4 d2 3b
       -0.18788211 -0.11951697 0.398234 0.006432075
000090 53 08 2f 3e cf 49 12 3e fe 0b 7c bd 8a d4 d5 bd
       0.17093019 0.14285968 -0.061534874 -0.10440929
0000a0 f5 b6 43 bc dd 55 c5 3d f0 32 74 bd b6 a3 37 be
       -0.011945476 0.09635518 -0.05961889 -0.17933545
0000b0 f4 1b 3c 3d f6 33 16 be d5 13 86 3e 18 15 59 bd
       0.045925096 -0.14668259 0.26187006 -0.052998632
0000c0 33 7f 6f 3d be 04 29 be 64 58 17 be 45 9b 2c bc
       0.058470916 -0.16505715 -0.14779812 -0.010535066
0000d0 90 ef 8b bd ed 13 ab 3c 72 ef f5 bd e1 ba 22 3e
       -0.06832802 0.020883525 -0.12008561 0.15891601
0000e0 4b 75 67 bd 5a 78 28 3e 44 ee f4 3d e6 be 24 bd
       -0.056508344 0.1645216 0.11959508 -0.040221117
0000f0 3e e6 30 bd 89 20 32 3e c5 9c 33 3d 47 34 de bd
       -0.043188326 0.17395224 0.04385068 -0.10849815
000100 62 a4 ba bd 59 f6 1c 3d fa 93 0f bc 9d ea 96 bc
       -0.09113385 0.038320873 -0.008763308 -0.01842242
000110 54 d8 05 3e 3d bb 1e 3d 82 f5 2c be 5a 34 29 3e
       0.13070804 0.038752783 -0.16890529 0.16523877
000120 80 3a e8 3a 39 d6 9c 3e 20 69 c7 bd f3 6d 34 bc
       0.001771763 0.3063219 -0.09736848 -0.011012542
000130 15 09 63 3e 96 b1 9c 3d 13 11 8f bd 65 7b 48 3e
       0.22171433 0.07651059 -0.069856785 0.19578321
000140 17 fa 6b be bf df a6 3e 06 7a 9c be f0 b4 3f be
       -0.2304462 0.3259258 -0.30561846 -0.18721366
000150 ff 32 c6 bd 5c 98 c8 bd d5 d0 ca bc 44 14 e7 bd
       -0.096776955 -0.09794685 -0.024757782 -0.11283162
000160 04 20 93 bc f3 75 dd bc 5b 84 a1 3e c8 ac cb 3d
       -0.017959602 -0.027033782 0.31546292 0.09945065
000170 fc 39 3c bd b8 c0 fa 3d 46 14 9c be 3e 24 15 be
       -0.045953736 0.122437894 -0.30484217 -0.14564607
000180 b5 5d 33 3e 53 a3 4b bd d3 fc 83 be 1f 77 8f bc
       0.17516215 -0.049716305 -0.25778827 -0.017512856
000190 08 20 8b 3e 7b ec b8 3d 83 b6 8e bd 1f 59 47 3d
       0.27172875 0.0902948 -0.06968405 0.048668977
0001a0 68 fa 5f 3d 61 3e 16 3e cd f1 54 3e c9 20 2b be
       0.054682165 0.14672233 0.20795365 -0.16711725
0001b0 46 14 74 3e 77 28 b8 bb 80 c4 58 3d 97 b8 f2 3d
       0.23835859 -0.005620058 0.052921772 0.11851614
0001c0 e1 28 b0 3d f0 5b 98 bc f9 4d 15 be f4 b0 6c be
       0.08601547 -0.018598527 -0.14580525 -0.23114377
0001d0 b2 00 56 b9 b4 69 01 bc c1 b3 d4 3d 8f a2 c2 3c
       -0.0002040889 -0.007898737 0.10385848 0.023759155
0001e0 69 dd 16 be 2d f0 62 bb 21 46 7a 3e 22 16 a6 bd
       -0.14732899 -0.003462802 0.24440815 -0.0810969
0001f0 df 5a 04 be 48 02 18 be a0 26 01 3e 30 48 ef bd
       -0.1292529 -0.1484462 0.1261239 -0.116836905
000200 21 e9 9e 3b a6 55 06 bd 1d 7e 82 3d 5c 78 58 be
       0.0048495685 -0.032796524 0.063717104 -0.21139663
000210 67 5c 92 3e cc 21 a2 bd f8 63 15 3d 36 79 80 3e
       0.28586122 -0.079166025 0.03647229 0.25092477
000220 90 c5 94 3f b6 67 0e 3e 0a f8 46 bd 4b 09 f8 bd
       1.1622791 0.1390675 -0.048576392 -0.121111475
000230 da b7 18 3d cf 8b 08 be d2 11 cf 3e 90 0c f9 be
       0.03728471 -0.13334583 0.40443283 -0.48642397
000240 29 8d e4 3d c4 cf a5 3d f4 93 84 be 51 90 90 3e
       0.11159737 0.08096269 -0.2589413 0.28235105
000250 d6 52 7a bc f9 85 33 3c 23 23 e0 be 26 26 9a bd
       -0.015278539 0.010957235 -0.43776807 -0.075268075
000260 5d d5 43 bc 98 31 f5 bc 90 dd d9 3d 99 5d f6 3d
       -0.011952725 -0.029930875 0.10637963 0.12029571
000270 05 6f 4d be f8 33 fe be 35 2e 11 3e 7b a4 c7 3e
       -0.20061882 -0.49649024 0.14177783 0.38992676
000280 c3 90 5b 3e 65 9d 32 3e 1f b3 de 3d bc fb 87 bd
       0.21441941 0.17442854 0.108740084 -0.066398114
000290 9b 1b 43 be 89 a3 a2 3e 72 2c 12 be 87 b0 bf bc
       -0.190535 0.31765392 -0.14274767 -0.023399604
0002a0 37 5c ed be 6f eb 70 bd a6 83 39 bf cb 6c c4 3c
       -0.46359417 -0.058818277 -0.72466505 0.023977658
0002b0 91 74 82 3d 1c 08 03 3e 4b 40 fe bd 75 ac 0a bd
       0.063698895 0.12796062 -0.12414607 -0.033855874
0002c0 10 89 d6 3a 86 bf 48 bd ad 29 02 3e 7f 04 d4 bd
       0.0016367752 -0.049010776 0.1271121 -0.1035242
0002d0 80 ba 9d be 01 9a b4 be e2 f9 0c 3d 0e 7e 3f be
       -0.3080635 -0.35273746 0.034417994 -0.1870043
0002e0 5b 3a a8 3d bf c8 72 be 1b f2 a8 bd 20 51 82 3c
       0.082142554 -0.23709391 -0.08249303 0.015907824
0002f0 fe 17 91 bb 6c 39 36 3e 2b e8 11 3d fe a4 83 bc
       -0.004427909 0.17795342 0.035621803 -0.016069885
000300 89 da 08 be c0 58 0c ba 7e fe 9c bd 89 bd bc 3e
       -0.13364615 -0.0005353801 -0.07665728 0.36863354
000310 a3 24 ac 3d 43 9c 04 be b1 e8 56 be 45 01 f5 3d
       0.084054254 -0.12950234 -0.20987202 0.11963133
000320 13 4a a6 3d 51 22 dd 3b 80 2e 93 3d 78 c5 a9 3d
       0.08119597 0.0067484756 0.071866035 0.08289617
000330 81 fe 25 3e 41 ff ae 3d 48 22 1f 3e 8a 11 85 be
       0.16210367 0.085447796 0.15540421 -0.25989944
000340 8c 1e 0e be 0b 80 0b 3e dd ff bb 3d 2d a2 cb 3d
       -0.1387884 0.13623063 0.091796614 0.09943042
000350 2c 62 01 3e d5 51 28 3e cf da 34 3e 97 f3 3b bd
       0.12635106 0.16437466 0.17661594 -0.045886602
000360 3f 62 fd 3d ed 80 14 be cf 5b 5a 3e d8 df 61 3e
       0.123722546 -0.14502306 0.21324085 0.22058046
000370 30 08 c3 3d a1 ef 37 3d f7 90 1f bc 41 8d e5 3d
       0.09523046 0.044906262 -0.009739152 0.11208583
000380 25 b9 77 be 25 ea 33 be 15 41 36 be 90 86 6e 3d
       -0.24191721 -0.17569788 -0.17798264 0.058233798
000390 fa af b2 3e 60 dc 15 3e 93 cc e6 3b b6 80 51 be
       0.34899884 0.14634848 0.00704343 -0.20459256
0003a0 51 07 df 3c ed 41 96 3e cf cd f3 bd 6f b6 5a 3d
       0.027225168 0.29347172 -0.11904489 0.05339664
0003b0 b5 da c0 3e 8e 75 fc bd d0 19 9a bd ea 95 29 bd
       0.3766686 -0.12327109 -0.075244546 -0.041402735
0003c0 13 f3 60 be d9 97 b9 3c 5a 6d 51 bc 38 cf 39 be
       -0.21967725 0.022655414 -0.012782419 -0.18145454
0003d0 e0 13 d6 3e bf ee 8d 3e 9d 5d e9 bd 45 0e ad 3d
       0.41812038 0.2772121 -0.113948084 0.08449987
0003e0 71 73 a3 bc 51 30 3c bd 4f 25 f6 3d 90 3f 25 3d
       -0.019952508 -0.045944516 0.12018835 0.04034382
0003f0 ff 09 0b bd c2 26 43 3d c5 3c c6 3d ed 9f db bc
       -0.03394508 0.047644384 0.096795596 -0.026809657

bias f4 [64]
000000 3d ff 06 be 1b 1e 54 be 86 7f 5d bf 96 e3 db 3d
       -0.13183303 -0.2071461 -0.8652271 0.10736768
000010 ec d5 5a 3c 6f aa 69 be 8e 16 ee 3e 55 d3 8c 3e
       0.013356667 -0.22818922 0.46501583 0.27504984
000020 0e d5 1d 3d 0e 09 c8 be 95 19 b7 be e4 bf 3a 3e
       0.038533263 -0.39069408 -0.35761705 0.18237263
000030 9b 3f e0 be 01 46 08 3e 1f d7 56 3e 5f e9 c7 3c
       -0.43798527 0.13307954 0.209805 0.024403272
000040 31 19 68 be f4 a4 9e 3e ee 3f 5e bf 36 7a 48 bc
       -0.2266586 0.30985224 -0.868163 -0.012236169
000050 09 77 91 ba 39 36 b9 3d a6 b2 d5 39 44 b8 37 be
       -0.0011098097 0.09043545 0.0004075963 -0.17941386
000060 13 11 cc be a2 fb 4d be e8 7f 80 bd d8 df 92 3e
       -0.39856777 -0.20115522 -0.06274396 0.28686404
000070 de b9 87 3b d8 98 52 3d be 6c ad be 26 ba 2c 3d
       0.00414203 0.051415294 -0.33872026 0.042169712
000080 d3 61 17 bc 8b 72 74 be 38 12 00 3d 51 60 cc be
       -0.009239632 -0.2387182 0.031267375 -0.39917234
000090 e8 76 b8 bd 6f c2 54 3e 24 4f c0 bd 43 b9 5c be
       -0.090070546 0.20777296 -0.09390095 -0.21555047
0000a0 51 a6 a7 3e a2 00 e0 bc f4 3b 42 3e 1e 66 f6 3c
       0.32744077 -0.027344052 0.18968183 0.03007799
0000b0 5d ad 10 3b 49 f4 42 bf 44 87 27 3e 04 d6 0f 3e
       0.0022075989 -0.76154 0.16360193 0.14046484
0000c0 c4 57 65 bd 76 41 d8 3c 72 b4 b3 be 26 06 bc 3e
       -0.055991903 0.026398402 -0.35098606 0.3672344
0000d0 90 72 14 be 8c f7 30 bd 55 bb a6 3e d4 10 cf be
       -0.14496827 -0.04320483 0.32564798 -0.40442526
0000e0 3b 75 18 3e b0 e3 8b be cd 9d 97 3d d0 86 22 be
       0.1488847 -0.2732215 0.07403145 -0.1587174
0000f0 34 99 e9 3e ee 12 f5 3d e2 33 02 3e 04 ce 8f be
       0.45624697 0.11966501 0.12715104 -0.28086865

weight f4 [64, 2]
000000 13 75 77 3f c9 9c 7c 40 ad 67 f2 bd 7d bf 19 c1
       0.96663016 3.9470694 -0.11836181 -9.60925
000010 81 8b 36 3f 12 28 ed c0 ad 97 9a 3e ef 5c 0c c1
       0.71306616 -7.4111414 0.30193844 -8.772689
000020 a3 9c e9 bd 9b 10 af 40 0c 88 e3 be a4 9f 37 40
       -0.11406829 5.470777 -0.44439733 2.8691187
000030 2b da 07 be cb c7 2f 41 ec 95 0c 3f 0a e8 c5 c0
       -0.13266818 10.986278 0.5491626 -6.184575
000040 2f 8f 7b 3e 30 f0 ae bf ad e9 1f bf a0 3a 28 40
       0.24566339 -1.366705 -0.62465936 2.6285782
000050 c8 c1 ae be 27 8e b1 bf 75 cf 99 3e a2 70 05 c1
       -0.34132218 -1.3871506 0.3004109 -8.339998
000060 23 3d 50 bf 95 44 bf be b3 b3 c2 bf 17 af e5 c0
       -0.8134329 -0.3735701 -1.521109 -7.1776233
000070 69 59 c5 3f a8 b1 da 40 aa 5a ee 3d bb a5 f9 c0
       1.5417911 6.8341866 0.116383865 -7.801481
000080 a8 93 81 be 5d 7d f9 3f 76 97 1e bf 0f 52 c3 40
       -0.25307965 1.9491383 -0.6194986 6.103767
000090 ad cb dd be f4 41 0c 40 78 37 8d 3e 51 42 1c bf
       -0.43319455 2.1915255 0.27581382 -0.6103869
0000a0 66 4d 14 bf d7 68 c7 40 1e bc 83 3f 46 5d cc bf
       -0.579306 6.231548 1.0291784 -1.5965965
0000b0 b7 71 e9 3d a1 e6 8a c0 07 87 be be c8 f8 59 3f
       0.113986425 -4.340653 -0.37212393 0.85145235
0000c0 30 a0 2c bf 49 8a 0b 40 96 4c 30 3e 8b de 15 3e
       -0.67431927 2.1803153 0.17216715 0.14635675
0000d0 2b 82 28 be 4a 60 ce 40 38 9a b6 bf f3 f9 f5 c0
       -0.16455905 6.449254 -1.4265814 -7.6867614
0000e0 b3 80 4f bf 65 e7 ab 3e 28 21 82 be c6 3b 33 3f
       -0.81055754 0.33574978 -0.2541592 0.7001308
0000f0 16 f9 07 c0 d7 c6 24 40 c0 c8 a2 3d 86 44 8d c0
       -2.124578 2.5746362 0.07948446 -4.4146147
000100 94 30 e6 bd 76 18 85 40 00 26 7d bf cd 31 63 c0
       -0.11239734 4.159236 -0.9888611 -3.5499146
000110 36 94 f7 3e 00 a1 cc c0 af c0 af 3e 93 2a 28 c0
       0.48355263 -6.3946533 0.34326693 -2.6275985
000120 51 22 0c be 63 4c 19 41 f2 23 4a bf 5a ab 07 41
       -0.13684966 9.581149 -0.789611 8.479334
000130 6d 87 45 bd 4b b7 94 40 76 98 37 bf 1e c4 31 c0
       -0.048224855 4.6473746 -0.7171701 -2.777595
000140 00 72 41 bf cd 2c 20 40 d6 eb a2 3e ff 80 ba 40
       -0.75564575 2.5027344 0.31820554 5.8282466
000150 85 5b c3 be 9d 63 45 be 29 a3 30 3e 82 b4 ac 3f
       -0.3815576 -0.1927628 0.1724974 1.3492587
000160 89 80 40 be 77 c8 c6 40 95 27 b2 3e 22 b8 d2 bf
       -0.18799032 6.211971 0.34795824 -1.6462443
000170 f1 ac 4d be d5 cb 7e 3f b0 d1 b1 be 28 f5 f5 3f
       -0.20085503 0.99529773 -0.3473029 1.9215441
000180 bc 86 1c bf 82 1f 75 c1 96 45 1e be 82 1f 2c 3e
       -0.6114309 -15.320192 -0.15456232 0.16808894
000190 68 29 33 bf 3d b5 87 c0 a8 b2 d0 be 0e fe 31 bf
       -0.69985056 -4.240874 -0.40761304 -0.6952828
0001a0 09 66 0c 3f 25 6a c9 40 3c 7a 30 bf e3 0e 04 41
       0.54843193 6.294207 -0.68936515 8.253634
0001b0 8c aa 52 bf dd 17 e7 c0 8f c6 aa be 6a 34 51 be
       -0.82291484 -7.221663 -0.33354613 -0.2043015
0001c0 cc 75 ad bd de 5a 9a 40 ff df 57 3f c3 73 1b bf
       -0.084697336 4.823592 0.84326166 -0.60723513
0001d0 7a 66 0b be 0c c5 07 c1 35 5f b3 be 67 7f 65 c1
       -0.1361331 -8.485607 -0.35033575 -14.343604
0001e0 8f 76 3e 3f 7d af 69 40 8c 80 9d 3e 6d 7a 80 bf
       0.74399656 3.651336 0.30762136 -1.0037361
0001f0 b9 e3 bd bd 62 7a 9f 40 8c cb 5b 3f a0 de 8d 41
       -0.0927195 4.9836893 0.8585746 17.733704

bias f4 [64]
000000 bb 26 f9 3f 39 71 14 3f 4f a2 2e 3f 7e 5c 40 bf
       1.9464945 0.57985264 0.68216413 -0.7514113
000010 ce 7d ae 3d 32 c9 88 be 39 b9 5a be d2 42 83 3f
       0.08520089 -0.26716 -0.2135972 1.0254767
000020 51 d8 94 3f 5e 1f d0 bf 8b 9f 0a c0 02 1d 2c bf
       1.1628515 -1.6259573 -2.1659877 -0.6723176
000030 d7 fe ea 3f 54 70 42 c0 6e 5e 46 40 76 21 04 bc
       1.8359021 -3.038106 3.0995135 -0.008064618
000040 57 00 b8 be c5 ce 9e bf 2c b6 0f bf 74 90 7d 3f
       -0.3593776 -1.2406851 -0.5613735 0.9904854
000050 4d 0c 62 bf 8e 34 09 40 90 ef 24 3d 53 0f 04 c0
       -0.8830002 2.1438327 0.040267527 -2.0634353
000060 79 97 cc bf 32 97 5f 3e e3 7b ce be 38 99 45 c0
       -1.5983726 0.2183502 -0.40328893 -3.0874767
000070 1c 05 fc 3f d3 93 f5 be 02 3b 5b 3f 4c 54 ae be
       1.9689059 -0.47964343 0.85636914 -0.34048688
000080 64 0f 29 3e 1a 42 06 c0 1c 48 ad bf 7c 37 31 3e
       0.16509777 -2.0977845 -1.3537631 0.17306322
000090 18 5a 92 be 34 d6 a5 bf fb 2e 8e 3e bc c7 ba 3e
       -0.2858436 -1.2955995 0.27770218 0.3648051
0000a0 02 ce b8 bf 6c 5f 5c bf 58 31 17 c0 90 79 8d 3e
       -1.4437869 -0.860831 -2.3623867 0.27631807
0000b0 39 fa 99 be 66 ca f1 3e 0e 5b 84 be 5c da c2 be
       -0.30073717 0.4722473 -0.2585072 -0.3805722
0000c0 c7 33 bb bf b6 e7 b8 bd d9 0e 1d bf 56 8b 73 bf
       -1.4625176 -0.0902857 -0.6135078 -0.95134485
0000d0 e2 dc fe bf 70 6b 72 bf b1 f7 23 bf 2e d6 09 bf
       -1.9911158 -0.94695187 -0.6404982 -0.5384244
0000e0 85 b6 80 3e 95 03 c2 3f 0c 70 f5 3e 7f 25 5d bf
       0.2513925 1.5157343 0.47937047 -0.8638534
0000f0 f7 ec ad 3e 77 3e 09 3f 24 88 22 3e 24 dd 17 40
       0.33969852 0.5361094 0.15872246 2.3728724

weight f4 [64, 64]
000000 50 01 f0 3f 23 dc 7c be c4 f7 e1 3e fe 76 72 3e
       1.87504 -0.2469335 0.44134343 0.23678204
000010 52 24 80 bd ac 23 4e be 98 01 d5 3d 0d e9 d5 3e
       -0.062569275 -0.20130795 0.104006946 0.41779366
000020 ad 20 75 3e d9 cd a4 bf 8e 54 1a bf 73 82 20 3e
       0.23938246 -1.287532 -0.6028527 0.15674762
000030 3b 93 c2 3e 65 1a 64 c0 87 d8 6b 40 27 ec 90 be
       0.38002953 -3.564111 3.6850908 -0.2830517
000040 ae 0c 09 bf ca f2 42 bf 66 59 20 bf 34 7f 06 3f
       -0.5353497 -0.76151717 -0.6263641 0.52537847
000050 87 a0 2e bf 71 2f 85 40 2a b0 b9 3c be 98 dc bf
       -0.68213695 4.162041 0.02266701 -1.7234113
000060 f3 40 f8 bf fd 9b 69 3e 6e c9 f0 bd 07 fd 1c c0
       -1.9394821 0.22813411 -0.1175717 -2.4529436
000070 04 95 c9 3e 52 8b 84 be 07 1b 80 bc 04 cb d5 bd
       0.39371502 -0.25887543 -0.015637888 -0.10439113
000080 72 00 96 bd 50 fc 11 c0 95 3c e2 bd 0f fc 89 3e
       -0.07324304 -2.281025 -0.11046711 0.26950118
000090 72 a9 ba 3e b9 fe 6a bf d2 9d 8f 3c 21 44 48 3e
       0.36457402 -0.91794926 0.01753131 0.19557239
0000a0 86 86 00 c0 d1 22 9a be 36 c5 a8 bf 9b 39 de 3e
       -2.0082107 -0.30104688 -1.3185184 0.43403324
0000b0 4a 3e 34 be 8a 2d 87 3e c6 03 46 be af 02 ad be
       -0.17601886 0.2640193 -0.19337377 -0.3379111
0000c0 ed 3f 56 3f b3 42 cb be 14 3e d1 bd 21 d4 3f bf
       0.83691293 -0.39699325 -0.102169186 -0.7493306
0000d0 f1 10 2c be af ec 12 bf 45 d2 c6 be a3 ca 02 bf
       -0.16803338 -0.573924 -0.38832298 -0.5109045
0000e0 cc a0 ef 3c ad 21 c5 3f 0c 4e d2 be 77 3b 91 3f
       0.029251479 1.5400902 -0.4107517 1.1346272
0000f0 e2 5f 23 3e 4c d5 e7 3e 5f 78 00 3e 58 94 dc bf
       0.15954545 0.4527992 0.12545918 -1.7232771
000100 84 7b 91 be eb 46 1d 40 4a f3 8d 3f b3 e5 89 3f
       -0.28414547 2.4574535 1.1089871 1.0773224
000110 0f 37 16 bf 05 3d 00 bd 7c 1a 8f bf 65 fe 15 3f
       -0.5867776 -0.031308193 -1.1179957 0.585913
000120 06 7c ff 3e 4c 00 2c bd 23 97 e6 be 93 a9 62 3f
       0.4989931 -0.04199247 -0.45037183 0.8854
000130 42 5d 36 be 0f fe 88 bf fc 82 49 3f 4b 3a 2f 3f
       -0.17809013 -1.0702533 0.7871549 0.68448323
000140 cc 3f 63 3d 01 86 f0 be 58 28 32 bc 4f bd ca 3d
       0.055480763 -0.46977237 -0.0108738765 0.09899389
000150 cb 82 2d bf a1 70 5b 3f cd b8 f4 3e 88 e6 f1 be
       -0.677777 0.85718733 0.47797242 -0.47246194
000160 a8 34 0f bf ab 8b a3 3d cd c8 6d bf 8a c8 b9 bf
       -0.5593972 0.07985624 -0.9288452 -1.4514325
000170 85 e0 b5 be 7f 0c 3b 3e 7d 47 70 be d1 f3 09 3f
       -0.35522857 0.18266486 -0.2346477 0.5388766
000180 c1 31 1d bf 2b d9 9b 3b cb de b9 3d 98 96 ec 3e
       -0.61404043 0.004756113 0.090756975 0.46208644
000190 90 1a 96 bf 6c 93 72 bf 3b ae e6 be 76 82 0b be
       -1.1726856 -0.947562 -0.45054802 -0.13623986
0001a0 74 22 ee be b7 7d f2 be fd d3 1e bd 2f 89 9d be
       -0.4651066 -0.47361538 -0.038776387 -0.30768725
0001b0 96 46 19 bf b4 f9 66 3e b6 e1 9b be ee f3 2b 3e
       -0.5987333 0.22556192 -0.3044564 0.1679227
0001c0 bf c2 c7 bd 3d d6 b0 be ba b7 58 3f af 51 00 3e
       -0.09753942 -0.3453845 0.84655344 0.1253116
0001d0 94 cb 10 bc 1a 21 8f bf 7d 4d 05 40 88 94 d9 bd
       -0.008837599 -1.1181977 2.0828545 -0.10624033
0001e0 59 9f ae be b5 b8 4c 3f 75 af ff 3f 9e 35 a8 3e
       -0.34105948 0.7996934 1.997542 0.32853407
0001f0 4c de f1 be 71 3a 45 bd 91 41 2d bf 1d 67 cc 3f
       -0.47239912 -0.048151437 -0.6767817 1.5968968
000200 8c 98 a8 3e f2 8e 3e be d8 30 8f 3d 5b df 90 3e
       0.32928884 -0.18609217 0.06991738 0.28295407
000210 b4 2b a0 3c bf 97 49 3e 6c 85 ba be 18 22 a6 3e
       0.01955209 0.19686793 -0.36429918 0.32447886
000220 0d 00 31 bf 0c 00 ae bc 93 b3 b2 3f 97 8a c0 3d
       -0.691407 -0.021240257 1.3961052 0.09401434
000230 38 d0 32 bf 3c 23 c5 be 70 a7 44 3e 04 82 e6 3e
       -0.69848967 -0.38503444 0.19204497 0.4502107
000240 55 a4 42 3e 7b 8f 29 be 5c 17 bd 3e 24 f1 15 bf
       0.19008 -0.1655864 0.36931884 -0.58571076
000250 4d f9 f8 bd 8b e8 da bf 97 fc 92 3e 28 93 1d 40
       -0.12156925 -1.7102216 0.28708336 2.4621067
000260 33 e0 e0 3f d8 6a 86 3b e3 db 3d bf 81 cb 19 bf
       1.756842 0.0041020922 -0.74163646 -0.6007615
000270 7d 3e 3b bf 05 90 4e 3e 3d 9c df be 03 66 b8 3e
       -0.73142225 0.20172127 -0.43673888 0.3601533
000280 48 b9 b7 be 3c 33 bc 3c 90 57 a5 3e 85 c8 5b 3d
       -0.35883546 0.02297365 0.32293367 0.053658027
000290 1f 3b 72 be 31 87 94 be 17 15 36 bf 54 c0 f9 be
       -0.23655365 -0.29009393 -0.7112593 -0.48779547
0002a0 0f 92 a9 3f d5 02 2b 3f c4 d8 39 40 29 da 60 be
       1.3247699 0.66801196 2.9038553 -0.21958221
0002b0 70 f6 8b be 24 f8 70 be fe b5 10 3e ac 2c 37 3e
       -0.27336454 -0.23532158 0.14131925 0.17888135
0002c0 d2 65 dc bf 52 fa 98 3d 3e 76 9c be 94 3b 61 be
       -1.7218573 0.0746962 -0.30558962 -0.21995384
0002d0 99 df 0d 3f 91 49 a1 be ce bc a7 be 07 16 ae 3e
       0.5541931 -0.3150144 -0.32761234 0.3400118
0002e0 54 28 4a bf c3 28 7e bf 56 b0 17 bf f3 07 71 bf
       -0.78967786 -0.9928095 -0.5925344 -0.94152755
0002f0 e5 f1 a3 3e 9b 45 fc be 79 98 18 bf 7e c2 0e 40
       0.32020488 -0.49271855 -0.59607655 2.2306209
000300 02 bc 00 bf 39 ab a9 3e c1 32 f3 be a5 70 3e bf
       -0.5028688 0.33138445 -0.4749966 -0.7439063
000310 42 59 18 3f 60 88 05 3e f7 54 81 3f ca 03 04 bf
       0.59511197 0.13040304 1.0104054 -0.5156828
000320 ef f5 42 3e 3d c2 85 3e df 62 9a bf 8c 5c a7 bf
       0.19039129 0.26124755 -1.2061423 -1.3075118
000330 cf 45 b7 3f 90 c8 fa 3e ed 6b 0f bf 9f b1 85 be
       1.4318179 0.48981142 -0.56024057 -0.26112077
000340 7b c7 45 3e ad af 47 3e 0d f0 8f 3e c8 7c d0 3d
       0.19314377 0.19500609 0.28112832 0.1018005
000350 b3 d0 bf 3e e5 d3 c9 3f ff 68 9a be ae 3b 1c c0
       0.37463912 1.576779 -0.3015823 -2.4411426
000360 8b b4 cd bf db 2c 78 be 69 db 21 3f e2 c6 81 3e
       -1.6070722 -0.24235861 0.6322542 0.25347048
000370 f6 95 c4 3f d2 57 86 3e 08 c8 13 3f bf 88 2c be
       1.5358264 0.26238877 0.577271 -0.1684904
000380 d0 24 f1 3e 33 65 9a 3e 39 2e 9e bf 6e 6f c1 be
       0.47098398 0.30155334 -1.2357856 -0.37780327
000390 2c af de 3e 65 22 78 3d 9b 9b 2a 3f f7 ac 76 3f
       0.4349302 0.060579676 0.66643685 0.96357673
0003a0 13 3a ac bf bc ad 68 bf 77 5d 19 c0 2d 05 06 be
       -1.3455223 -0.908901 -2.3963296 -0.13087912
0003b0 62 ff fc 3e 17 ef 01 bd ea 65 6a 3e db b0 ae 3e
       0.49413592 -0.031722154 0.2289044 0.34119305
0003c0 c2 b2 8f 3f 6d 09 e0 3e 8a 21 52 3f ad 1b 42 3e
       1.1226428 0.4375719 0.82082427 0.1895587
0003d0 b9 88 91 bf 39 06 fd 3d 69 de ed 3e 18 91 ca 3d
       -1.136985 0.123547025 0.46458748 0.09890956
0003e0 73 ec 15 3f a8 fd 03 40 2d 3c d2 3e 1f a1 88 3f
       0.5856392 2.062357 0.41061535 1.067417
0003f0 d8 2d 22 bf 4c 1a b1 3d f4 a8 36 3e 1c a2 8c bf
       -0.633512 0.08647594 0.17837888 -1.0986972

bias f4 [64]
000000 66 9f 11 3f 54 83 f3 be 5c db 8f bf 63 e2 a9 3f
       0.5688385 -0.47561133 -1.1238818 1.3272213
000010 bc ad 11 3f 0f ee 22 3f c1 c6 3e 3f e9 3c 52 3f
       0.5690572 0.636445 0.74522024 0.8212419
000020 b3 d1 4d bf e4 db 53 3f 1a 19 37 bf 24 28 ac bf
       -0.803981 0.827574 -0.71522677 -1.344975
000030 75 2a c6 bd 29 f2 02 3f 56 71 63 3f a9 41 0e bf
       -0.09676067 0.5115076 0.8884481 -0.5556894
000040 ff 62 3d 3f c2 08 4e 3f ec 61 a7 be 9f 5b 30 bf
       0.7397918 0.80482113 -0.32691896 -0.688898
000050 88 61 1d 3f 20 9b dd be 6f 4d 0a bf 29 7b 07 3f
       0.61476946 -0.43282413 -0.54024404 0.529223
000060 73 c2 32 bf 7e 65 62 3f 0f a7 f0 be e5 e0 ef 3e
       -0.69827956 0.88436115 -0.47002456 0.46851268
000070 5e f9 90 3f 83 d7 4e bf 36 5f 01 bf 11 17 3f 3f
       1.1326101 -0.80797595 -0.50535905 0.7464457
000080 e1 fb 21 3e d4 71 a7 3d 67 b3 26 bf a1 b5 cb 3d
       0.1581874 0.08176008 -0.65117496 0.09946752
000090 2c d8 37 3f 7b 5a 4c bf be 68 9f bf 04 d2 9a be
       0.7181423 -0.7982556 -1.245384 -0.30238354
0000a0 e4 32 fa be 6d 20 ee 3e 62 09 02 3f 13 94 cc 3e
       -0.4886695 0.46509114 0.5079557 0.39956722
0000b0 69 8a 01 bf 3d 88 0b 3d 1c 7e 7a 3f dc da 1e 3f
       -0.5060182 0.034065474 0.9784868 0.620527
0000c0 c7 f3 07 3f 23 d1 4f bd 20 35 5a 3f 8d 4d 67 3f
       0.5310635 -0.050736558 0.8523731 0.9035271
0000d0 6c 9a b6 bf 00 56 02 3f 97 94 4c bf d1 be 1c 3f
       -1.4265876 0.50912476 -0.7991423 0.6122866
0000e0 52 b2 f7 be f8 02 93 3f 9b ed 1e 3f ee 7c 8b 3e
       -0.48378235 1.1485281 0.6208131 0.2724375
0000f0 30 40 b9 be 80 12 95 bf 58 26 39 bf 85 31 31 bf
       -0.36181784 -1.1646271 -0.7232413 -0.69216186

weight f4 [1, 64]
000000 e8 ef ad bf 26 7f a0 3f b8 be f1 3f 76 81 cf bf
       -1.3588839 1.2538803 1.8886328 -1.6211383
000010 6a 3f 46 c0 d5 b6 b4 bf 6f 14 05 c0 4e d7 77 bf
       -3.0976205 -1.4118296 -2.0793722 -0.96812904
000020 ac 73 b2 3f ea 90 a3 bf 50 b2 b5 3f e8 90 dd 3f
       1.394155 -1.2778599 1.4195042 1.7309847
000030 24 cd e9 c0 f6 7d a2 bf af 6e 9e bf d8 15 4b 40
       -7.3062916 -1.269469 -1.2377528 3.1732082
000040 6a c7 99 bf 7f 1d a4 bf 9a c4 28 40 1f 1f fe 3f
       -1.2013981 -1.2821501 2.6369996 1.9853247
000050 38 59 02 c0 6a 83 13 40 68 fb 3b 40 14 f1 0b c0
       -2.0366955 2.3048959 2.9372196 -2.1865892
000060 d5 37 0a 40 15 27 77 bf ab f5 96 3f ef 83 e1 40
       2.1596577 -0.9654401 1.1793722 7.047355
000070 e0 66 0a c0 7e a9 a5 3f 8d 58 00 40 3c ca ed bf
       -2.162529 1.294235 2.0054047 -1.8577342
000080 c8 9c f0 3f 68 db b9 40 54 7d 0e 40 f9 98 e9 bf
       1.8797846 5.808033 2.2263994 -1.8249809
000090 70 53 c6 bf 7f 84 16 40 f2 af 02 40 b8 cd 43 40
       -1.5494213 2.351837 2.0419888 3.059431
0000a0 19 22 4a 40 d4 c1 53 bf ed 0c 0e c0 e4 bd cf 40
       3.1583312 -0.82717633 -2.219539 6.49193
0000b0 bb 1b b2 3f 58 3f ed c0 eb 0a 9b bf aa df 8e bf
       1.3914713 -7.4139824 -1.2112707 -1.1162007
0000c0 e5 a5 dd bf 21 f8 e9 c0 51 a1 a3 bf cc 4e a5 bf
       -1.7316252 -7.311539 -1.2783605 -1.2914672
0000d0 72 2b 71 40 ff 88 f2 40 47 b8 9b 3f 7a 3d 48 c0
       3.7682767 7.579223 1.2165612 -3.1287522
0000e0 32 b4 49 40 e2 ac 1f bf 74 0a be bf fb 87 e7 40
       3.1516232 -0.62373173 -1.484694 7.235349
0000f0 bb 7c 3e 40 02 e1 e4 3f de 89 14 40 67 87 06 40
       2.976363 1.7881167 2.3209147 2.1020143
