dir_save_test/we0_model_base_0.pth (torch, 41526 bytes, 9 tensors)

weight f4 [64, 2]
0	0x3ee2c7c4	0.44293034
1	0x3f9b545f	1.2135123
2	0x3e5c8135	0.21533664
3	0x3fd137f0	1.6345196
4	0xbe77c7fc	-0.24197382
5	0x40573593	3.362645
6	0x3eec9d93	0.4621397
7	0x3feb79ad	1.8396508
8	0x3dfaf66d	0.12254033
9	0xc08acb8b	-4.3373466
10	0x3f0eafac	0.55736804
11	0x3ed9f7be	0.42571825
12	0xbea9e692	-0.33183724
13	0xbfed7b7f	-1.8553313
14	0x3d40ad43	0.047040235
15	0xbfcace4e	-1.5844209
16	0x3fde5924	1.7370954
17	0x3f82e3b4	1.022574
18	0x3f17c003	0.5927736
19	0x3ec83943	0.39106187
20	0x3e7715fb	0.24129479
21	0xbd955441	-0.07291461
22	0x3e8386f9	0.25688913
23	0xc01b888c	-2.4302092
24	0xbe61874e	-0.22024271
25	0x3f72592e	0.9466733
26	0x3dd547f7	0.10414117
27	0x3fbd0648	1.4767542
28	0x3e848bce	0.25887913
29	0xbd9d2404	-0.07672885
30	0xbfb36ff3	-1.4018539
31	0xbf107fa6	-0.56444776
32	0x3df4e36c	0.1195744
33	0x403708f3	2.8599212
34	0x3ed2d5f8	0.4117887
35	0x3fa19ccf	1.2625979
36	0xbd4ee10f	-0.0505076
37	0x4084bfda	4.1484194
38	0x3dd1d179	0.10245032
39	0xc08acdf2	-4.33764
40	0xbf0e3e23	-0.55563563
41	0xc00e9105	-2.2276013
42	0x3efafaf3	0.49019584
43	0x3fd1754b	1.636392
44	0x3eac6ee2	0.33678347
45	0x3fa5761f	1.2926673
46	0xbe8f8f30	-0.2803893
47	0xbf0ea93e	-0.55726993
48	0xbd800078	-0.062500894
49	0xbf8de00f	-1.1084002
50	0x3e062b7f	0.1310253
51	0xc0a9a028	-5.3008003
52	0x3f1c1ecb	0.60984486
53	0xbd615adc	-0.05501829
54	0x3f1da115	0.61573917
55	0xbec7e7ae	-0.39043945
56	0x3ed93f4d	0.42431107
57	0x405ce466	3.4514403
58	0x3e8ec474	0.27884257
59	0xbf018e78	-0.50608015
60	0xbd3ed54e	-0.046590142
61	0x3ef5e3f9	0.48025492
62	0x3fc6dee7	1.5536774
63	0x3f7c799c	0.9862306
64	0xbd314a7a	-0.043283917
65	0xc0c1b780	-6.05365
66	0xbe0f100c	-0.13970965
67	0xbfa0324b	-1.2515348
68	0x3d3dc905	0.046334285
69	0xc07ab365	-3.9171994
70	0x3e8ca4e3	0.2746955
71	0xc00945c3	-2.144883
72	0xbda2df4b	-0.07952746
73	0x40c33048	6.0996437
74	0xbee93696	-0.45549458
75	0xbf7e6f32	-0.9938842
76	0xbe553819	-0.20822181
77	0xbfd4c4c0	-1.6622543
78	0x3e528f0d	0.20562382
79	0x3f90cb5f	1.1312064
80	0xbde03895	-0.10948292
81	0x4084aac7	4.145847
82	0xbea44c20	-0.3208933
83	0x3f328776	0.69737947
84	0xbf4a7a77	-0.79093117
85	0x3e2b7d2f	0.16746973
86	0xbf000007	-0.5000004
87	0xbf647cf3	-0.8925316
88	0xbd885f23	-0.06658771
89	0x40d1f0bc	6.5606365
90	0x3dece376	0.11566822
91	0xbfe06610	-1.7531147
92	0x3ea2b46a	0.3177827
93	0xbff93a6b	-1.9470953
94	0xbe876baa	-0.2644933
95	0xbf5ab0ce	-0.8542603
96	0xbe96b4e3	-0.2943488
97	0x3f7a4efd	0.97776777
98	0xbf2c92e9	-0.6741167
99	0xbfa5444d	-1.2911469
100	0xbdbe22cf	-0.09283983
101	0xc099b254	-4.8030186
102	0xbdbac93d	-0.091204144
103	0xc09382b1	-4.6097035
104	0xbc9d07b5	-0.019168714
105	0x4061aff9	3.5263655
106	0xbc1e2b69	-0.0096539045
107	0x407a0f02	3.907166
108	0x3e837547	0.25675413
109	0xbebb72d5	-0.36611047
110	0xbc5aae7c	-0.013347264
111	0xbef7e4c2	-0.48416716
112	0xbe8e7ea7	-0.27831003
113	0xbe806dca	-0.25083762
114	0x3e8e7b4f	0.27828452
115	0x400ea267	2.2286623
116	0xbee3671f	-0.44414613
117	0xc00e0a36	-2.2193732
118	0xbee7f922	-0.4530726
119	0xbfe10786	-1.7580421
120	0xbd07c9dc	-0.033151492
121	0x3f858ed5	1.0434214
122	0x3e872e68	0.26402593
123	0xbff47532	-1.9098265
124	0x3ed2fe73	0.41209754
125	0x3d403c51	0.046932522
126	0xbe5d3b23	-0.2160459
127	0xbf04b305	-0.5183566

bias f4 [64]
0	0xbd8e0d48	-0.06936127
1	0x3f019390	0.5061579
2	0x3eb74e48	0.3580191
3	0xbdbd9d56	-0.09258525
4	0xbeced3e8	-0.40396047
5	0x3e37806e	0.17920086
6	0x3e531762	0.20614389
7	0x3e37ae38	0.17937553
8	0xbf298f96	-0.6623472
9	0x3f2dcf93	0.6789486
10	0xbec469f0	-0.38362074
11	0xbee17bc9	-0.44039753
12	0x3f767eb2	0.9628707
13	0xbe602ddc	-0.21892494
14	0x3e1d3fed	0.15356417
15	0x3e05366d	0.13009043
16	0x3e11d6cf	0.14242099
17	0x3f1ce7bf	0.61291116
18	0xbdc8f35b	-0.09812041
19	0xbeaec6ca	-0.3413604
20	0xbdc2e86d	-0.09516988
21	0xbdfdea18	-0.123981655
22	0xbe051248	-0.12995255
23	0x3f148cce	0.5802735
24	0xbeb3eb15	-0.3514029
25	0xbe565e29	-0.20934357
26	0x3f2abd80	0.66695404
27	0x3eded495	0.43521562
28	0x3db7a89f	0.08967709
29	0x3fc310a2	1.5239451
30	0x3cb40040	0.021972775
31	0xbda50c82	-0.08059026
32	0xbda91de3	-0.082576536
33	0xbf44f4f2	-0.76936257
34	0x3d808f07	0.0627728
35	0xbedf4435	-0.43606725
36	0x3dca2ebd	0.09872196
37	0xbd5b0ef1	-0.053481046
38	0xbf52ef0c	-0.82396007
39	0x3f52a15f	0.8227748
40	0x3dbaec8b	0.09127148
41	0x3e121218	0.14264715
42	0xbe62a04b	-0.2213146
43	0xbebfbd23	-0.37448987
44	0x3db0eca7	0.08638888
45	0x3ea570e3	0.32312688
46	0xbf5696d3	-0.8382389
47	0x3ed2c6eb	0.41167387
48	0x3f630b2d	0.8868893
49	0xbf01e136	-0.5073427
50	0xbdfae432	-0.12250556
51	0x3df9c17b	0.121951066
52	0xbe8086db	-0.25102887
53	0x3d673b8f	0.056453284
54	0x3f5a7c98	0.85346365
55	0x3fa31395	1.2740351
56	0xbed6d9fd	-0.41963187
57	0x3e7dab4f	0.2477238
58	0xbe191cf3	-0.1495245
59	0xbf207d2d	-0.62691003
60	0x3dc0e2f4	0.09418288
61	0xbf0f11a5	-0.558863
62	0x3f144665	0.57919914
63	0xbf45f9b3	-0.77334136

weight f4 [64, 64]
0	0x3e5689c2	0.20950988
1	0xbee3b079	-0.44470575
2	0xbe9680db	-0.29395184
3	0xbc78ef78	-0.015193813
4	0x3f06808b	0.5253989
5	0xbebebbda	-0.37252694
6	0xbe5c7a32	-0.21530989
7	0xbeb9ee08	-0.36314416
8	0x3f151bb2	0.58245385
9	0xbf01a408	-0.50640917
10	0x3e318d5c	0.1733908
11	0x3e83e5ab	0.2576116
12	0xbf120af6	-0.57047975
13	0xbd7c3cde	-0.061581485
14	0x3e56d4da	0.20979634
15	0xbf4064ca	-0.7515379
16	0xbda5ba35	-0.08092157
17	0xbe236ecb	-0.15960233
18	0x3d414a83	0.0471902
19	0x3e784cfc	0.24248117
20	0x3e0a9853	0.1353467
21	0xbe2a567a	-0.1663455
22	0x3e84849d	0.25882426
23	0xbe9a953d	-0.30191985
24	0x3eda351c	0.42618644
25	0x3ec79766	0.38982695
26	0xbef74245	-0.48292747
27	0xbf00e17f	-0.5034408
28	0xbed43603	-0.41447458
29	0xbe83fcf5	-0.25778928
30	0xbe444793	-0.19167928
31	0x3f2a5b1b	0.66545266
32	0x3dab6471	0.08368767
33	0x3ed88d56	0.4229533
34	0x3eed4149	0.4633887
35	0x3e8caa7c	0.2747382
36	0xbe5caf27	-0.2155119
37	0xbb7d30ae	-0.0038633752
38	0x3f0b48f4	0.5440819
39	0xbf341be2	-0.70355046
40	0xbe8fa83c	-0.2805804
41	0xbe820f66	-0.25402373
42	0xbef0a369	-0.46999672
43	0x3ec7ee16	0.39048833
44	0xbeb677e6	-0.3563835
45	0xbec896a2	-0.39177424
46	0x3f114e1d	0.56759816
47	0xbeaa8607	-0.3330538
48	0xbf069920	-0.525774
49	0x3ea9b292	0.3314405
50	0x3c7dbea5	0.015487348
51	0x3e3a3080	0.18182564
52	0x3d60e073	0.05490155
53	0xbe84b53c	-0.2591952
54	0xbf102d4f	-0.56319135
55	0xbecb0105	-0.39649215
56	0x3ef3fe03	0.47654733
57	0xbc6aaff5	-0.014324178
58	0x3e283787	0.16427432
59	0x3ee00ce6	0.4375984
60	0x3d2b4afb	0.041819554
61	0x3f1397cd	0.57653505
62	0xbf10a005	-0.5649417
63	0x3ee269e3	0.4422141
64	0x3ea55c3d	0.32296935
65	0xbea3e67c	-0.32011783
66	0xbf937948	-1.1521387
67	0x3e57e8fa	0.21084967
68	0x3f31398e	0.69228446
69	0x3da47482	0.080300346
70	0xbed7908d	-0.4210247
71	0x3e1c6b33	0.15275268
72	0x3f15195f	0.5824184
73	0x3ea90eb6	0.33019036
74	0x3f08a4d3	0.533765
75	0x3f7472cb	0.9548766
76	0x3cb5fa26	0.022214007
77	0x3dac165a	0.08402701
78	0x3ed064f5	0.40702024
79	0xbeb1a88f	-0.34698913
80	0xbef2930c	-0.47377813
81	0x3e90c668	0.28276372
82	0xbf6cd6ea	-0.9251543
83	0x3ec91619	0.39274672
84	0xbe4d8da4	-0.20073563
85	0x3e6090b4	0.219302
86	0x3e52f58c	0.20601481
87	0xbf2332f3	-0.6374962
88	0x3d73092a	0.05933491
89	0x3f4430ae	0.7663678
90	0x3ebc411d	0.36768427
91	0x3e1f37ba	0.15548602
92	0x3cadd539	0.021219837
93	0x3cc74321	0.024324002
94	0xbdd5711c	-0.104219645
95	0x3ed72069	0.42016914
96	0x3f113779	0.5672527
97	0x3ee66f66	0.45006865
98	0x3ebe9fc5	0.3723127
99	0x3f777310	0.96659946
100	0xbf0882a1	-0.53324324
101	0xbe9cb227	-0.3060467
102	0xbd9ba3aa	-0.07599576
103	0xbeb84968	-0.35993505
104	0xbf332b53	-0.6998798
105	0xbee4b8f8	-0.4467237
106	0xbe9704ef	-0.29495952
107	0xbe557254	-0.20844394
108	0xbf0ba1c7	-0.5454373
109	0x3e8b2be7	0.27181932
110	0x3f17e523	0.5933401
111	0xbe387280	-0.18012428
112	0xbdddb24a	-0.108250216
113	0xbaa31f03	-0.0012445155
114	0x3e034963	0.12820964
115	0x3e8a673a	0.2703188
116	0xbef449fd	-0.477127
117	0xbef1e351	-0.4724374
118	0xbe17e318	-0.14832723
119	0xbec946d9	-0.39311865
120	0x3d5c3fda	0.05377183
121	0x3dc80d40	0.09768152
122	0x3d063361	0.032763842
123	0xbd2000ea	-0.03906337
124	0xbe732748	-0.23745453
125	0x3f1b97e4	0.6077864
126	0x3e8836e5	0.2660438
127	0x3e50bbaf	0.20384096
128	0x3f122f3c	0.57103324
129	0x3e1ac6d1	0.15114905
130	0x3e6a9dc4	0.22911745
131	0x3ebd1b6d	0.36934987
132	0xbbd8f75f	-0.006621286
133	0x3e72f18e	0.23724958
134	0xbef8bbbc	-0.4858073
135	0xbe34307a	-0.17596617
136	0x3ff1be75	1.8886248
137	0x3eaa0f1b	0.3321465
138	0x3e1af3a9	0.15132011
139	0xbe4ed885	-0.20199783
140	0x3e08b3de	0.13349864
141	0x3e92484b	0.2857078
142	0x3f44f6d2	0.7693912
143	0xbf96abe3	-1.1771206
144	0x3ecd414a	0.40088874
145	0x3ec199cc	0.3781265
146	0x3e122e5e	0.142755
147	0xbd3ad5c5	-0.045614023
148	0xbefdde47	-0.49583647
149	0x3ed7dbdb	0.42159924
150	0x3def0009	0.116699286
151	0xbec3e5d0	-0.3826127
152	0xbe5b9ddf	-0.21446942
153	0xbee563a9	-0.44802597
154	0x3e92aee4	0.28649056
155	0x3deb0d24	0.11477116
156	0x3e4c98f9	0.1998023
157	0xbee72362	-0.45144182
158	0xb907d960	-0.00012955582
159	0x3f8de465	1.1085325
160	0xbeb00c6f	-0.34384486
161	0x3dd8714f	0.10568487
162	0xbe843a75	-0.2582585
163	0xbe4c9561	-0.19978859
164	0x3eb9d7f6	0.36297578
165	0xbe3cfd72	-0.18456057
166	0xbed37191	-0.41297582
167	0x3cd879c5	0.026425252
168	0xbdc33179	-0.095309205
169	0xbeb45fdc	-0.35229385
170	0xbf8f5d80	-1.1200409
171	0xbe859b52	-0.26095062
172	0x3f20ddf3	0.6283867
173	0x3c972bf9	0.018453585
174	0xbe810958	-0.2520244
175	0xbec47433	-0.38369903
176	0x3e16fccb	0.1474487
177	0xbea5a054	-0.32348883
178	0xbe9ade9b	-0.3024796
179	0xbf211499	-0.62922055
180	0xbd553f0e	-0.052062087
181	0x3e0919bd	0.13388725
182	0xbdc96dc1	-0.09835387
183	0xbe34167a	-0.17586699
184	0x3d480f18	0.04884252
185	0x3e279be1	0.16368057
186	0xbef9f6ce	-0.4882111
187	0xbe9f9a3c	-0.3117236
188	0x3de844cc	0.11341247
189	0x3e491456	0.19636664
190	0x3e2ad18c	0.16681498
191	0xbbc02c04	-0.005864622
192	0x3e7567ff	0.23965453
193	0xbeb5676b	-0.35430464
194	0xbf1148a4	-0.56751466
195	0x3f1e0609	0.6172796
196	0x3ef0f34b	0.47060618
197	0x3e0a5f18	0.13512838
198	0xbf04c61f	-0.5186481
199	0xbe35d50b	-0.1775705
200	0x3e8cda2d	0.27510205
201	0x3db06689	0.08613307
202	0x3ee2e2e1	0.4431372
203	0x3e4fd558	0.20296228
204	0x3e947462	0.28995043
205	0x3ebab816	0.3646857
206	0x3e9acfc5	0.3023664
207	0xbed9cc7f	-0.4253883
208	0xbee302da	-0.44338113
209	0x3e6570c3	0.22406296
210	0xbe0bf458	-0.13667428
211	0x3f05db11	0.52287394
212	0xbdb47a68	-0.0881241
213	0x3edf0f80	0.43566513
214	0x3edf5258	0.4361751
215	0xbf096d30	-0.5368223
216	0xbd8907e9	-0.06690962
217	0x3e40949d	0.18806691
218	0x3e8d78df	0.2763128
219	0x3e0ffde6	0.14061698
220	0x3ebb0698	0.36528468
221	0xbdadb142	-0.08481075
222	0xbe479b98	-0.19492948
223	0x3e864999	0.26228026
224	0xbed857cf	-0.42254493
225	0x3eca7f69	0.3955033
226	0x3dd0d55f	0.10196947
227	0x3ec8c8e2	0.3921576
228	0x3dc0b243	0.09409001
229	0xbd2bbf82	-0.041930683
230	0xbd39be6c	-0.045347616
231	0xbf0802ed	-0.53129464
232	0xbe9ad3ad	-0.3023962
233	0xbdb1876e	-0.08668409
234	0xbe87d524	-0.265298
235	0xbe420e26	-0.1895071
236	0x3dbed97b	0.09318825
237	0x3dc341ff	0.09534072
238	0x3eab70e5	0.3348457
239	0xbecdf222	-0.40223795
240	0xbd5c3cca	-0.05376891
241	0xbe19b6f7	-0.15011202
242	0xbd1a2e19	-0.03764162
243	0xbc664226	-0.014053857
244	0x3e8a5ecd	0.27025452
245	0x3cea9c1b	0.02863889
246	0xbf07512b	-0.5285823
247	0xbed62c6e	-0.41830772
248	0x3e8887de	0.26666158
249	0x3d36a5ea	0.04459182
250	0xbe1ad168	-0.15118945
251	0xbdf01d8d	-0.11724386
252	0xbe5a715b	-0.21332304
253	0x3ef4e4f5	0.4783093
254	0x3e6692b6	0.22516903
255	0x3ea6fa73	0.32612953

bias f4 [64]
0	0xbf29ab9a	-0.6627747
1	0xbee7af21	-0.452508
2	0xbf57b9e3	-0.84268016
3	0xbe82855e	-0.25492376
4	0xbea6f029	-0.32605103
5	0x3e8bf422	0.27334696
6	0x3ea29361	0.31753066
7	0x3e995257	0.29945633
8	0x3f1ae26e	0.60501754
9	0xbf08317e	-0.5320052
10	0xbf208770	-0.6270666
11	0xbe8b971b	-0.27263722
12	0xbdc0fb79	-0.094229646
13	0x3eeae801	0.4588013
14	0x3f0d7b17	0.55265945
15	0xbe079ad5	-0.13242657
16	0xbed8b044	-0.4232198
17	0x3f677ac1	0.9042168
18	0xbf4baa4f	-0.79556745
19	0x3f0703f5	0.5274041
20	0xbf0280e5	-0.5097793
21	0xbefed360	-0.4977064
22	0xbee51786	-0.4474451
23	0x3edb0796	0.42779225
24	0xbe071033	-0.13189773
25	0xbedade20	-0.42747593
26	0x3ebb5d34	0.36594546
27	0x3f6ac8d2	0.9171268
28	0x3f16fb1f	0.5897693
29	0xbe8acd8d	-0.27109948
30	0x3f05f70a	0.52330077
31	0x3f6325af	0.88729376
32	0x3e4f2ee9	0.20232739
33	0x3d019de9	0.031644735
34	0xbedf1a7c	-0.43574893
35	0xbf40fe8e	-0.7538842
36	0xbf29d3b7	-0.66338676
37	0xbe8d9e4b	-0.2765983
38	0xbf44a8d2	-0.768201
39	0xbef8e1f7	-0.48609897
40	0x3f76b8f6	0.9637598
41	0xbf154385	-0.5830615
42	0x3d2efa16	0.04271897
43	0xbf0d73ed	-0.55255014
44	0x3f26e96d	0.6519993
45	0xbeac27d5	-0.3362414
46	0xbd0eef14	-0.03489597
47	0x3f04b857	0.5184378
48	0x3eaf876d	0.3428301
49	0x3f4efe75	0.8085702
50	0xbf016600	-0.50546265
51	0x3f33eb64	0.7028105
52	0x3ec02989	0.3753169
53	0xbe62bdc7	-0.22142707
54	0x3f3d67bd	0.7398642
55	0xbdb36f80	-0.08761501
56	0x3df52f4d	0.119719125
57	0xbf86ad22	-1.0521586
58	0xbf28747c	-0.6580274
59	0xbf65b84f	-0.8973436
60	0x3f0ed008	0.5578618
61	0xbcf6d584	-0.030131109
62	0xbec64949	-0.38727787
63	0xbe0555d5	-0.13021024

weight f4 [64, 2]
0	0x3ee8fe76	0.45506638
1	0x4164e280	14.305298
2	0x3f2e4655	0.6807607
3	0xc11b41d6	-9.703573
4	0xbe88100a	-0.26574737
5	0xc19d9891	-19.699495
6	0x3c8c9b01	0.017163755
7	0xc0fff81b	-7.9990363
8	0xbf25fef6	-0.64842165
9	0x41163a06	9.389166
10	0x3edcc56e	0.43119377
11	0x40db880d	6.8603578
12	0xbf1d2ea1	-0.61399275
13	0x418f1fd1	17.890535
14	0x3f01f068	0.50757456
15	0xbf17f687	-0.59360546
16	0x3f22a058	0.63525915
17	0x40a16347	5.043369
18	0x3c2bb6f8	0.010480635
19	0x401e7cfb	2.4763782
20	0xbf462a6b	-0.77408475
21	0xc11513ea	-9.317362
22	0x3d46028f	0.048342284
23	0xc0ef9527	-7.486957
24	0xbcff5ba3	-0.031171625
25	0x3ee2052c	0.4414457
26	0xbfa46c4a	-1.2845547
27	0xc0f61013	-7.689462
28	0x3fa6f48f	1.3043383
29	0x40e02da5	7.005572
30	0x3e205555	0.15657552
31	0xc181d6db	-16.22991
32	0x3f267628	0.6502404
33	0x3e9b1157	0.30286667
34	0xc0431648	-3.048235
35	0x401e91e3	2.4776542
36	0x3f81339d	1.0093876
37	0xbf52f921	-0.8241139
38	0x3f26cb1b	0.65153664
39	0x40cac54e	6.336585
40	0x3f08d99d	0.5345705
41	0x418c63a3	17.54865
42	0x3f17f69d	0.59360677
43	0xc09b5c70	-4.855034
44	0x3e9a4716	0.3013236
45	0xc18f6204	-17.92286
46	0xbfa9c78b	-1.3264021
47	0xc08ec1c3	-4.4611526
48	0xbf2d4ae9	-0.6769243
49	0x3f1c1a49	0.6097761
50	0xbe8c73db	-0.2743214
51	0x3e1de000	0.1541748
52	0xbe9f6f7c	-0.31139743
53	0x410737de	8.451139
54	0xbf4f99c5	-0.8109401
55	0xc1c20d96	-24.256634
56	0x3f0bff2e	0.5468625
57	0x401ecd5a	2.4812837
58	0xbe9ccf85	-0.30627075
59	0xc0f5fed2	-7.687356
60	0xbf2731fe	-0.6531066
61	0x3f022c2b	0.50848645
62	0x3fafe446	1.3741539
63	0xc116b8e9	-9.420144
64	0xbeb4129b	-0.35170445
65	0xbf6daf85	-0.92845947
66	0xbf0331f8	-0.5124812
67	0xc18569be	-16.676632
68	0xbef0ff05	-0.47069564
69	0xc162ed33	-14.18291
70	0xbedca6bc	-0.43095958
71	0xc06371cf	-3.5538213
72	0xbf2dab34	-0.6783936
73	0x413fb399	11.981347
74	0xc0407323	-3.0070274
75	0x408ed3ed	4.46337
76	0xbfccdc38	-1.6004705
77	0x419adee7	19.358839
78	0xbeb865c4	-0.3601514
79	0xc0ab695e	-5.356612
80	0xbeb5e0b5	-0.35523
81	0x408ad324	4.338274
82	0xbf82d7c0	-1.0222092
83	0x3fb83b01	1.4393007
84	0xbfa9897a	-1.324508
85	0xc0ad46eb	-5.414907
86	0x3efc0298	0.4922073
87	0x40977159	4.7325864
88	0x3efe9d96	0.49729604
89	0x4134cb9d	11.29971
90	0xbec332a1	-0.38124564
91	0x40aded34	5.4352055
92	0x3f6955ab	0.91146344
93	0x3ff38f76	1.9028156
94	0x3ee1d177	0.44105121
95	0xbf54fa36	-0.8319429
96	0x3f1a16b3	0.60190886
97	0xc1cb78b3	-25.433935
98	0x3f67a052	0.90479004
99	0x408b6726	4.3563414
100	0x3c87dff9	0.01658629
101	0xc054ebd7	-3.3268945
102	0x3f1b52f3	0.60673445
103	0xbbc1ad18	-0.005910527
104	0xbe592ed7	-0.21209274
105	0x40b05e1d	5.5114884
106	0xbfe0852b	-1.754064
107	0x3e10f59d	0.14156194
108	0xbf543880	-0.8289871
109	0xc13169b9	-11.088311
110	0x3f026946	0.50941885
111	0x3e313d39	0.17308511
112	0xc03a090f	-2.906803
113	0x412476df	10.279021
114	0x3f84be7a	1.0370629
115	0x3ec211ef	0.37904307
116	0xbc92d768	-0.01792498
117	0xc1917685	-18.18287
118	0x3cb290a4	0.021797486
119	0xc153cea6	-13.237951
120	0xbeaeba73	-0.34126624
121	0xbeaf59b7	-0.34248134
122	0xbec61cfd	-0.3869399
123	0x40823eba	4.070157
124	0xbf2781dc	-0.65432525
125	0x416dec8c	14.870251
126	0xbdb0cab8	-0.086324155
127	0x41af85d9	21.940355

bias f4 [64]
0	0x40124e16	2.286016
1	0x3fb082b6	1.378989
2	0x3fe0a48b	1.7550215
3	0xc0511943	-3.2671669
4	0xbf8539a1	-1.0408212
5	0x40166bd9	2.3503325
6	0xbfbd80fb	-1.4804987
7	0xc02b00ac	-2.671916
8	0x40146f8b	2.319308
9	0xc03342dd	-2.800956
10	0xc010bcd0	-2.2615242
11	0xc0564944	-3.3482218
12	0x404c5a1e	3.1930003
13	0xc08f9d7f	-4.4879756
14	0x40922af5	4.567744
15	0x40029d22	2.0408406
16	0x3fd9693e	1.6985242
17	0xbdd9e8e8	-0.106401265
18	0xbf61a133	-0.88136595
19	0x4001ddd0	2.0291634
20	0xc03e8ba8	-2.977274
21	0x405ec77c	3.4809256
22	0x3f9c8f9a	1.2231324
23	0xc018e06d	-2.3886979
24	0xc044c055	-3.074239
25	0xbfd7d28d	-1.686113
26	0xc01ca9d2	-2.447865
27	0xc01e61d3	-2.4747207
28	0x404cd479	3.2004683
29	0xbf09a34d	-0.537648
30	0x40599c72	3.4001737
31	0x3ecb0986	0.39655703
32	0x3ff4d9ce	1.9128969
33	0xbfac8be0	-1.3480186
34	0xc02a8f7e	-2.665008
35	0xc00f54e2	-2.2395558
36	0xbffebe4c	-1.9901824
37	0xbe5a68f0	-0.21329093
38	0x3e9111bd	0.28333846
39	0x3ff5ae90	1.9193897
40	0xbfa00cef	-1.2503947
41	0xbffec59f	-1.9904059
42	0xc01a1152	-2.4073071
43	0x3f997232	1.1987975
44	0xc02be1e7	-2.685663
45	0xbe986a2a	-0.29768497
46	0x3ffbbe2a	1.9667408
47	0x3fb6fd86	1.4296119
48	0xbf289363	-0.65849894
49	0x3fecbca5	1.849507
50	0xc02f2bfa	-2.737059
51	0xc04aa7b8	-3.1664867
52	0xc03c03fc	-2.9377432
53	0xbdf2b618	-0.11851138
54	0xc02865d7	-2.6312158
55	0xc02c631b	-2.693549
56	0xbec31293	-0.38100109
57	0xbeb115ec	-0.34587038
58	0x3f7d2699	0.9888702
59	0xc054628c	-3.3185148
60	0x3fedc683	1.8576206
61	0xbf709b2c	-0.93986773
62	0xbfa82ff2	-1.3139632
63	0x407cfd57	3.9529626

weight f4 [64, 64]
0	0x3eb33e86	0.3500864
1	0x3e167ad7	0.14695297
2	0xbf906073	-1.1279434
3	0x40096d3f	2.1472929
4	0x3f9235ff	1.1422728
5	0xc0109747	-2.2592332
6	0x3f032cf8	0.5124049
7	0x3fc7ba13	1.560366
8	0xc039ef79	-2.9052413
9	0x3f06f20f	0.527131
10	0x3fa070d3	1.2534431
11	0x400496ff	2.071716
12	0xbfbcfd40	-1.4764786
13	0xc050f00c	-3.2646513
14	0x405cf391	3.452366
15	0xbfb23163	-1.3921322
16	0xc027841b	-2.617438
17	0xbfc3357b	-1.5250696
18	0xc0300892	-2.750523
19	0xc005cce0	-2.0906296
20	0x3f6e95b4	0.9319718
21	0x40703e2b	3.7537944
22	0x3f7a3603	0.97738665
23	0x3de387d6	0.11109893
24	0xbe490aa3	-0.19632964
25	0x400c3c1d	2.191169
26	0x3fdb4f76	1.7133625
27	0xbfdfed81	-1.7494355
28	0xbfbb4413	-1.463015
29	0x3f464ecd	0.7746399
30	0xbfeff9e7	-1.8748139
31	0x3fb2018f	1.3906726
32	0xc003c3c1	-2.0588229
33	0xbf7570c2	-0.9587518
34	0x3fe2dbf1	1.7723371
35	0x40132bff	2.2995603
36	0x3fc786a9	1.558797
37	0xbfe2018b	-1.7656721
38	0xc01eda62	-2.482079
39	0xbfc6a5cf	-1.5519351
40	0xbf8b374a	-1.0876248
41	0x3fa58a0f	1.2932757
42	0x3f05bfe3	0.5224592
43	0xbf9a461d	-1.2052647
44	0x3fe03077	1.751479
45	0x3fe673b8	1.8004065
46	0xc00b1db7	-2.1736887
47	0xc017bcbe	-2.370895
48	0x40109102	2.2588506
49	0xbffec93f	-1.9905165
50	0x3fea1b95	1.8289667
51	0x3fa37709	1.2770702
52	0x3fd5e7de	1.6711385
53	0xbfcd4bf8	-1.6038809
54	0x3f9e1eee	1.2353189
55	0x3fd54eeb	1.6664709
56	0xc03f57ef	-2.989742
57	0x3fa3fcb1	1.281149
58	0xbfc0aeec	-1.5053382
59	0x4040e3fd	3.0139153
60	0xbef087ed	-0.46978703
61	0x3ffdd876	1.9831684
62	0xbf550b42	-0.83220303
63	0xc055804f	-3.3359563
64	0x3f162432	0.5864898
65	0x40654b69	3.5827277
66	0x3f88e93e	1.069618
67	0x3e556e21	0.20842792
68	0xbf861d22	-1.0477641
69	0x3f3baa64	0.7330687
70	0xbf51dabf	-0.81974405
71	0xbdce8241	-0.10083438
72	0x3e0d6e7a	0.13811675
73	0xbf139077	-0.5764231
74	0xbfbc490d	-1.4709793
75	0x3ca242fb	0.01980733
76	0x3f312a22	0.69204915
77	0x3f47050c	0.77742076
78	0xbf8e703d	-1.1128002
79	0x400ff7dc	2.2495031
80	0x3f4cbd59	0.7997642
81	0x3e80b486	0.25137728
82	0x3e8d1ea2	0.27562433
83	0xbe3b4a7f	-0.18290137
84	0xbf495a2e	-0.7865323
85	0xbd393a64	-0.0452217
86	0xbf536085	-0.8256915
87	0xbf67ae5a	-0.90500414
88	0xbf4028e9	-0.75062424
89	0xbf4d7427	-0.8025536
90	0xc00ca2ab	-2.1974285
91	0x3ea1ce5a	0.31602746
92	0x3f046b4f	0.5172624
93	0x3f1af56f	0.6053075
94	0x3f1c7420	0.6111469
95	0xbf0c7680	-0.54868317
96	0x3ebac90e	0.36481518
97	0x3f4ebbf3	0.8075554
98	0xbf46869d	-0.77549154
99	0xbe7e32b6	-0.24824032
100	0xc02f72eb	-2.741389
101	0xbe8bb1cf	-0.27284095
102	0x3f771383	0.9651415
103	0x3f47e83a	0.78088725
104	0x3d83326d	0.06406102
105	0xbf8c7479	-1.0973045
106	0xbeb26b84	-0.34847653
107	0xbf6ecaf6	-0.93278444
108	0xc0025e30	-2.0369987
109	0xbe845e70	-0.258533
110	0x3e1132a4	0.14179474
111	0x3f72862f	0.94736
112	0xbf4a3684	-0.78989434
113	0xbfb7ae78	-1.4350119
114	0xbf01a33d	-0.50639707
115	0xbf32c7cb	-0.6983611
116	0xbf631cbc	-0.8871572
117	0xbf028d36	-0.5099672
118	0x4076cb33	3.8561523
119	0xbe4e28e1	-0.20132782
120	0x3f6ab6e5	0.91685325
121	0xbf19d79a	-0.60094607
122	0x407865f0	3.8812218
123	0xbf1179dd	-0.56826574
124	0xbf854bb3	-1.0413727
125	0xbf0d14e4	-0.5511
126	0x3f0501df	0.5195598
127	0x40601936	3.5015388
128	0x3f58aad6	0.84635675
129	0x3fcf328b	1.61873
130	0x3fe85697	1.8151425
131	0xbfc5ef3c	-1.5463634
132	0xbfe770e0	-1.8081322
133	0x3f54a4a3	0.83063716
134	0xc01152cd	-2.2706788
135	0x3f0f0c5d	0.5587824
136	0xbe98233d	-0.29714385
137	0xbf8cbf4b	-1.0995878
138	0x3eee186c	0.46503007
139	0xbfdca0df	-1.7236594
140	0x3f91eca2	1.140034
141	0xbed20fcb	-0.41027674
142	0x3e741742	0.23836997
143	0x404290c8	3.0400867
144	0x3f26f01b	0.6521012
145	0xbf1624bc	-0.586498
146	0x3dcc8edf	0.09988188
147	0xbe073714	-0.13204604
148	0xbff78162	-1.933636
149	0xbf9e79df	-1.2380942
150	0x3f4dbc79	0.8036571
151	0x3fc25a68	1.518384
152	0x3f7fbabd	0.99894315
153	0xbf9fe49a	-1.2491639
154	0xc01bed70	-2.436367
155	0xbf679617	-0.90463394
156	0x3f7f71c7	0.99782985
157	0xbe17a3d6	-0.14808592
158	0x3f76edb9	0.96456486
159	0x3e9623bf	0.29324147
160	0x3f23c3de	0.63970745
161	0xbecde0b5	-0.402105
162	0xbfb32142	-1.3994524
163	0xbf9c1540	-1.2193985
164	0xc045b12c	-3.0889387
165	0xbf2610db	-0.6486947
166	0xbf2d05b0	-0.67586803
167	0x3f9d2dc8	1.2279596
168	0x3f400275	0.7500375
169	0xbf7fd423	-0.9993307
170	0x3ffdf74e	1.9841096
171	0xbe6d7595	-0.23189385
172	0xbff96196	-1.9482906
173	0x3df25e15	0.11834351
174	0x3f94b930	1.1619015
175	0x3f328484	0.6973345
176	0xbf945632	-1.1588805
177	0x3f85e6d2	1.0461066
178	0xbf52e428	-0.8237939
179	0xbf8c17f7	-1.0944813
180	0xbf9cdb29	-1.2254382
181	0xbf2eaf6d	-0.6823643
182	0xbe92299e	-0.28547376
183	0xbef84765	-0.4849197
184	0xbed22d0b	-0.4104999
185	0xbf4031cc	-0.75075984
186	0x3fe9df82	1.8271334
187	0xc002f20c	-2.0460234
188	0xbf42d471	-0.7610541
189	0xbe2a2dc2	-0.16619018
190	0xbf402e37	-0.7507052
191	0x4031db0d	2.7789948
192	0xbf338786	-0.7012867
193	0x400e3d95	2.2225087
194	0xbea604f4	-0.32425654
195	0xbe0acc0d	-0.13554402
196	0xbe0e403d	-0.13891692
197	0xbedd237b	-0.43191132
198	0x3ea8f4eb	0.32999358
199	0x3e6b1855	0.229585
200	0x3fa00b6e	1.2503488
201	0x3ef25d3a	0.4733675
202	0xc051af60	-3.276329
203	0xbf3ef140	-0.7458687
204	0x4017486a	2.3637948
205	0xbfc1d6e9	-1.514371
206	0x3fb9488b	1.4475263
207	0xbf49b5f8	-0.7879329
208	0x3f0a65c6	0.54061544
209	0xbf1b7df7	-0.6073908
210	0x3f613787	0.87975353
211	0x3f8bac48	1.0911951
212	0x3e233aab	0.15940349
213	0x4052c4f4	3.293271
214	0x3f971dd9	1.1805984
215	0xc073c9eb	-3.809199
216	0xc02e8962	-2.7271352
217	0x3f07d673	0.530616
218	0x3f960d5f	1.172283
219	0x3a49fc04	0.0007705095
220	0x402069e8	2.506464
221	0xbdfdc993	-0.12391963
222	0xbce87513	-0.028376138
223	0x3fd258f5	1.6433398
224	0xbd87cde6	-0.06631069
225	0xbf1c85e1	-0.61141783
226	0xbf8c6417	-1.0968045
227	0x3e34232c	0.17591542
228	0xbe504cae	-0.20341751
229	0xbf4c52cc	-0.7981384
230	0xbfd35a83	-1.6511997
231	0x3ebe2811	0.37139943
232	0xbffe3b50	-1.9861851
233	0xc07734da	-3.8626008
234	0xc0a04f29	-5.009663
235	0x3f7e1530	0.9925108
236	0x3f864e9e	1.0492742
237	0xbf18b0d7	-0.59644836
238	0x3fc706ca	1.5548947
239	0x3f21d743	0.6321909
240	0x3fa81b51	1.3133336
241	0x40688533	3.6331298
242	0x3f891964	1.0710874
243	0x3ed441da	0.4145649
244	0xc0196cc0	-2.3972626
245	0xbf240297	-0.6406645
246	0xbecc8a52	-0.3994928
247	0x3eb42fce	0.35192722
248	0xbf6eaa95	-0.9322904
249	0x40386c27	2.881601
250	0x3f6f24b1	0.9341536
251	0x3fbff84e	1.4997652
252	0xbf30a9d8	-0.6900916
253	0xbf88c987	-1.0686501
254	0xbfe6cfa7	-1.803212
255	0xbf99fdef	-1.2030619

bias f4 [64]
0	0xbfa4cc53	-1.2874855
1	0x3ecb589d	0.39716044
2	0x3f43da37	0.76504844
3	0x3f8fd6da	1.1237442
4	0x3eb3f773	0.35149726
5	0xbf5567ec	-0.833617
6	0x3f5bae7e	0.8581313
7	0x3f7dca96	0.99137247
8	0xbfede233	-1.8584656
9	0x3ed0f1c2	0.40809447
10	0xbf5ac95b	-0.85463494
11	0xc00262d3	-2.0372818
12	0xbf9ecf72	-1.2407057
13	0x3d214b85	0.03937866
14	0x3fe82b1a	1.8138154
15	0x3e8142a0	0.25246143
16	0x3fb82b23	1.4388164
17	0x3fdf5be0	1.7449913
18	0x3f741ddb	0.95358056
19	0x3f7913aa	0.9729563
20	0x3f99c6b5	1.2013766
21	0x3e11ecd6	0.14250502
22	0x3f27ed17	0.65596145
23	0x3f180187	0.5937733
24	0xbf8f900b	-1.1215833
25	0xbf165ec7	-0.5873837
26	0xbf8b83a1	-1.0899545
27	0x3eaf9015	0.34289613
28	0xbf3a6772	-0.72814095
29	0xbfb04ac3	-1.3772815
30	0xc005f260	-2.0929184
31	0x3fb642a0	1.4239082
32	0xbf45d6b6	-0.7728075
33	0x3e907773	0.28216133
34	0x3fa38a43	1.2776569
35	0x3f95c623	1.1701092
36	0xbf82b3c1	-1.0211107
37	0xbf4c37a1	-0.7977238
38	0x3e931313	0.2872549
39	0xbf27dbe4	-0.655699
40	0xbf3853ee	-0.72003067
41	0xbf64d68d	-0.8938988
42	0xbee8013c	-0.45313442
43	0x3f442b69	0.7662874
44	0xc01b0eff	-2.4227903
45	0xbf159327	-0.5842766
46	0x3fb24e4c	1.3930144
47	0xbf2d8009	-0.6777349
48	0xbfa7841a	-1.3087189
49	0xbea53e25	-0.32273975
50	0x3fc16294	1.5108209
51	0x3f87f391	1.0621206
52	0xbfb46934	-1.4094605
53	0x3f899746	1.074929
54	0xbfc43621	-1.5329019
55	0x3f2f8bdd	0.6857279
56	0x3f76c21d	0.96389943
57	0x3fff2553	1.9933265
58	0x3fed7b3e	1.8553236
59	0x3f0a21a4	0.5395758
60	0x3f07602a	0.5288111
61	0xbfdba3d7	-1.7159375
62	0xbe5d288a	-0.21597496
63	0xbf5c7647	-0.86117977

weight f4 [1, 64]
0	0x4193b794	18.464638
1	0x42018266	32.377342
2	0xc193df8e	-18.484158
3	0xc1c2feab	-24.37435
4	0x41c001b9	24.000841
5	0x4193b7df	18.46478
6	0x41c8af2f	25.085539
7	0xc1c5a336	-24.704693
8	0x41844f9e	16.538876
9	0x41fde0d3	31.734777
10	0x41d25614	26.29203
11	0x41c93540	25.151001
12	0x40baa811	5.833016
13	0x41d343d3	26.408117
14	0xc1c3b388	-24.462662
15	0xc1c148d8	-24.160568
16	0xc1cd0df6	-25.631817
17	0xc1c3e6e5	-24.487741
18	0xc13111d2	-11.066851
19	0xc1933a35	-18.403421
20	0x41ca594c	25.293602
21	0xc1c75c70	-24.920135
22	0x420f5ea0	35.842407
23	0x41c86502	25.04932
24	0xc1ceb8e2	-25.840275
25	0xc205cd13	-33.450268
26	0x41d18aab	26.192709
27	0x422a8c38	42.636932
28	0x418e1c0c	17.763695
29	0x41d4798f	26.559355
30	0x41bfc98e	23.973415
31	0x41c9a30f	25.204618
32	0x41cdcd3a	25.725208
33	0x421fc45c	39.941757
34	0xc18c15d9	-17.510668
35	0xc1bb643f	-23.423948
36	0x41928d62	18.319035
37	0x41ccf71f	25.620665
38	0xc18b21d3	-17.391516
39	0x41e84e06	29.038097
40	0xc1bf60ce	-23.922268
41	0x41cfa19d	25.953913
42	0x41c967e1	25.175722
43	0x422707e1	41.757694
44	0x41b9a4aa	23.205402
45	0x40afa2ef	5.4886394
46	0x41fc68dc	31.5512
47	0xc2073636	-33.80294
48	0x4191d6b2	18.229832
49	0xc229c96a	-42.446693
50	0xc1d435d3	-26.526281
51	0xc1d17c95	-26.185831
52	0x41d08788	26.066177
53	0xc0c67095	-6.201243
54	0xc1f48321	-30.564028
55	0x41bfbb65	23.966501
56	0xc1d1c52e	-26.22128
57	0x420e86cb	35.631634
58	0x41df3dff	27.905272
59	0x4221792d	40.368336
60	0xc1c24ec1	-24.288454
61	0x41d74de4	26.913033
62	0xc1c82e3c	-25.022575
63	0xc1c8745c	-25.056816
