dir_save_test/we0_critic_pre_train.pth (torch, 19576 bytes, 4 tensors)

0.weight f4 [64, 2]
00000000: 76b9 083f 54fa 7f41 9b6b 503f b37b 18c1
00000010: 6d5e 46bf 5c99 a0c1 210d 38be b1c3 69c1
00000020: 688c 12bf b4ec 1741 d44b 153f 7181 1c41
00000030: ad27 9dbf ecad 8c41 f067 dc3e a187 02c0
00000040: 2e3e 073f 0e59 1141 a951 ce3d 214c 3240
00000050: f4c3 58bf 13b1 69c1 b3b7 eabd afc2 4dc1
00000060: 1df6 debd 1aad 363f d5ae 89bf 8e63 33c1
00000070: bba8 893f 4531 1f41 7763 2b3e 57e7 a7c1
00000080: 9423 dd3e 0f60 2d3f 28bf e4c0 deaa 9540
00000090: 4f2e 9b3f ae86 f6bd e74d 973f bf12 e340
000000a0: ddb1 023e f123 8141 c553 c13e f93e f6c0
000000b0: c307 493e 2d9b cbc1 1682 c6bf abfa 97c0
000000c0: 5fb0 45bf 8fcd 9abf fc6b a4be a389 fb3f
000000d0: 61de 6ebe d56b 3341 9dac 4ebf 41cb d7c1
000000e0: dc9c 4a3f 8341 4d40 46ac 8fbd a49d 1bc1
000000f0: 72d6 40bf f124 0d40 3af9 0340 82be 1ac1
00000100: eaa8 ddbd 0535 ffbb bcf2 bdbe a6eb abc1
00000110: a239 f3be 6f7e 91c1 83de f8be 95ba a8c0
00000120: 5a42 8fbf d491 2541 3df2 d9c0 49e3 d340
00000130: b81f eabf e0fa 9d41 9a23 92bd b872 85c0
00000140: 0bf7 34be 8046 9a40 579f 91bf 1c1a 913f
00000150: 0cb0 c5bf 40fb b4c0 5e23 f03e 6863 bb40
00000160: 02a6 dc3d 088a 2041 0244 e1be 6c01 aa40
00000170: d14c 8c3f fb87 e93f 8a79 bc3e 89ca 0ebe
00000180: 4218 be3e 99a8 c8c1 47eb 923f 0b24 9140
00000190: af9c 913d 0d1c 4ac0 1a03 263f 39c7 d2bf
000001a0: bfe6 9e3d 80ca b640 931e d1bf deac 93bf
000001b0: dccd 4dbf 8a3c 45c1 daa4 9d3e 9ae3 83bf
000001c0: 3af4 89c0 9a7d 3041 23a1 3c3f dfce c4bc
000001d0: f529 953c 5e02 a7c1 deb7 fd3b 531e 53c1
000001e0: 5210 0fbe 7112 d83e 8b8f bebe d859 8340
000001f0: bb11 23bf 7d42 7b41 0604 083f b46a d041
0.5340799 15.998615 0.8141419 -9.5302 -0.7748783 -20.074883 -0.17973758 -14.610276
-0.5724549 9.495289 0.5831883 9.781602 -1.2277733 17.584923 0.43048048 -2.0395281
0.52829254 9.084242 0.10074169 2.7858965 -0.84674 -14.605731 -0.11460819 -12.86003
-0.10886786 0.7135788 -1.075648 -11.211805 1.0754617 9.949529 0.16737162 -20.987959
0.43191206 0.677247 -7.1483345 4.677108 1.2123507 -0.12037407 1.1820649 7.0960383
0.12763162 16.14255 0.37759224 -7.695187 0.19631867 -25.45077 -1.5508449 -4.749349
-0.77222246 -1.2093982 -0.32113636 1.9651378 -0.23327018 11.213826 -0.80732137 -26.974245
0.791456 3.2071235 -0.070152804 -9.7259865 -0.7532722 2.2053797 2.0620866 -9.671511
-0.108232334 -0.007788303 -0.37099254 -21.490063 -0.47504908 -18.186735 -0.48607263 -5.272776
-1.1192124 10.348103 -6.81082 6.621495 -1.829093 19.747498 -0.07135697 -4.1702538
-0.17672364 4.821106 -1.1376752 1.1336093 -1.544435 -5.65567 0.46901983 5.8558846
0.10773851 10.033699 -0.43997198 5.3126736 1.0960943 1.8244623 0.36811477 -0.13944449
0.37127882 -25.082323 1.1478051 4.53565 0.07109963 -3.157962 0.6484848 -1.6467048
0.07758855 5.712219 -1.6337456 -1.153713 -0.8039224 -12.32728 0.30789834 -1.0303833
-4.311063 11.030664 0.73683375 -0.024024425 0.018208483 -20.876156 0.007742866 -13.194903
-0.1397107 0.4220157 -0.3721889 4.1047173 -0.6369893 15.7037325 0.5313114 26.052101

0.bias f4 [64]
00000000: 7f0b 3340 c835 e63f 37d2 923f dd3c 45c0
00000010: b845 65bf 9e0a 3940 7301 afbf 3e84 3cc0
00000020: 345a 0640 6104 2cc0 b164 3bc0 d4ad 44c0
00000030: d087 5b40 c56c 96c0 07f9 9840 0e43 fa3f
00000040: 7995 ee3f 8af8 0d40 77e1 9fbe 28a1 e53f
00000050: 02a3 72c0 729d 6740 e2f0 5c3f 9e3c 29c0
00000060: 127e 3ac0 dfd5 10c0 cfaf 3fc0 ac4e fabf
00000070: 70df 7340 9d09 7bbe 580f 6640 1e88 373e
00000080: 8d9a 0c40 53af 85bf bf21 63c0 9591 27c0
00000090: 40f8 24c0 7561 ff3f 016b 0c3f 4243 1a40
000000a0: 506c c4bf 03bb 12c0 efce 29c0 8b4c 883f
000000b0: baf6 4dc0 38d7 b0be 89e3 0540 30c3 c23f
000000c0: 72e8 58bf ca7f fc3f 3a51 32c0 5e8a 5ac0
000000d0: 494e 4ac0 8822 9dbf c961 35c0 82ee 3fc0
000000e0: 53fe 193e 1251 18bf 8f87 893f af9e 54c0
000000f0: e339 f63f b90c 74bf a605 e4bf cbf9 8c40
2.7975767 1.7985163 1.1470402 -3.0818398 -0.8955951 2.891273 -1.3672317 -2.9455714
2.0992556 -2.6877673 -2.9280207 -3.0731096 3.4301643 -4.7007775 4.780399 1.9551713
1.8639365 2.2182946 -0.31226704 1.7939806 -3.7911992 3.6189847 0.8630506 -2.6443248
-2.9139447 -2.2630537 -2.9951055 -1.9555259 3.8105125 -0.24515386 3.5946865 0.17923018
2.196933 -1.044413 -3.5489347 -2.6182606 -2.577652 1.9951617 0.54850775 2.410355
-1.5345554 -2.2926643 -2.6532552 1.0648359 -3.218184 -0.345392 2.0920126 1.5215816
-0.84729683 1.9726498 -2.7862077 -3.4146953 -3.1610281 -1.2276163 -2.8340933 -2.9989324
0.15038423 -0.59498703 1.0744494 -3.3221853 1.9236416 -0.95331913 -1.7814224 4.4054923

2.weight f4 [64, 64]
00000000: 863e b33e d77a 163e 7360 90bf 3f6d 0940
00000010: ff35 923f 4797 10c0 f82c 033f 13ba c73f
00000020: 79ef 39c0 0ff2 063f d370 a03f ff96 0440
00000030: 40fd bcbf 0cf0 50c0 91f3 5c40 6331 b2bf
00000040: 1b84 27c0 7b35 c3bf 9208 30c0 e0cc 05c0
00000050: b495 6e3f 2b3e 7040 0336 7a3f d687 e33d
00000060: a30a 49be 1d3c 0c40 764f db3f 81ed dfbf
00000070: 1344 bbbf cd4e 463f e7f9 efbf 8f01 b23f
00000080: c1c3 03c0 c270 75bf f1db e23f ff2b 1340
00000090: a986 c73f 8b01 e2bf 62da 1ec0 cfa5 c6bf
000000a0: 4a37 8bbf 0f8a a53f e3bf 053f 1d46 9abf
000000b0: 7730 e03f b873 e63f b71d 0bc0 bebc 17c0
000000c0: 0291 1040 3fc9 febf 951b ea3f 0977 a33f
000000d0: dee7 d53f f84b cdbf ee1e 9e3f eb4e d53f
000000e0: ef57 3fc0 b1fc a33f ecae c0bf fde3 4040
000000f0: ed87 f0be 76d8 fd3f 420b 55bf 4f80 55c0
00000100: 524b 433f d308 5c40 db6a 9b3f f77f 7c3d
00000110: 6b24 67bf adb8 633f 9b30 2dbf 35a5 7bbe
00000120: b3c7 f73c ffa7 38bf 84a4 abbf 3ed6 00be
00000130: 6443 563f d342 553f bde4 95bf db32 0640
00000140: 1bd8 2a3f 95e6 ca3e 81d7 053e 4195 8bbe
00000150: f76a 6ebf 5ded 24be 6e52 78bf 53a5 42bf
00000160: 1405 26bf 9237 61bf 3052 07c0 c197 ba3e
00000170: e6f7 e33e 4a9d df3e e78d 413f b690 31bf
00000180: 877a 023f c2d7 553f d467 7bbf 5d18 87be
00000190: 6836 26c0 89ff 02be 9e16 8e3f eff3 6c3f
000001a0: 5efb 0e3e 70d5 73bf 5a8a 50be 68e2 76bf
000001b0: 24a5 0bc0 3b44 e9bd a7d6 bfba e054 533f
000001c0: 9050 6fbf c90e cabf 97bc 26bf a7e1 57bf
000001d0: 4c16 84bf ece6 babe aa89 7c40 ad46 b1be
000001e0: 53e8 873f e9f1 3ebf dd13 6e40 8494 36bf
000001f0: 5980 65bf dd2c d4be d007 2a3f 9279 6940
00000200: ceba 533f 9d96 c93f 53eb ed3f 01be cbbf
00000210: 4aa4 e1bf 50ed 4d3f 7381 0ec0 d1a0 033f
00000220: 3f95 adbe 7444 92bf 1506 023f 773d e2bf
00000230: 1571 973f caf5 bbbe d7e5 473e c19f 4140
00000240: 7e3f 1b3f 4fdb 0abf eb3d 5e3d 79ef 33be
00000250: 1211 fdbf abb8 a2bf 6680 403f 27e0 c73f
00000260: 9d64 853f 5c9c 9dbf 6c1e 1bc0 16da 5cbf
00000270: 1287 753f af43 08be 8320 813f a480 7c3e
00000280: bb76 2f3f c561 bbbe 3403 b3bf b402 98bf
00000290: 52db 42c0 44cb 1abf 8532 21bf 4bd7 a23f
000002a0: ab76 463f d6aa 74bf 44be 0140 a55f 8ebe
000002b0: 2732 ffbf 4488 273e 06d6 8e3f 4026 273f
000002c0: 4b36 9abf bc1a 803f ba19 5ebf 59a3 91bf
000002d0: 9026 a2bf 3551 23bf b0d5 76be 6d4e 07bf
000002e0: ff5c babe 506b 4bbf 8153 e93f bac5 05c0
000002f0: 69f4 36bf 1ae5 f8bd 7442 34bf 9b02 3540
00000300: 27b0 13bf 5f09 2940 3d70 9abe b09d 81be
00000310: 27d5 6bbe cda1 98be 2d80 803e 6177 e63d
00000320: 8e97 ba3f 28e0 b63e 9c0b 5fc0 3b04 5dbf
00000330: 91c7 1e40 f1c5 d2bf fd95 ca3f 8f2c cdbe
00000340: 35d7 8a3f d3b2 fabe 8e5d 463f 757f f13f
00000350: 3d60 313d 2b62 5d40 cd4a b63f 7b8e b6c0
00000360: d5c8 3ec0 0d67 b73e 944f 803f 067f 09be
00000370: e1d4 2840 e19f 61be 6cab b63d ae15 c43f
00000380: a6fc 413d ee04 46bf 37b7 9bbf 4c1e b93c
00000390: 2aca 9dbf 242f 2ebf 2940 c4bf afb1 f73e
000003a0: a6cb 11c0 80d6 b6c0 29f7 04c1 801e bf3f
000003b0: 72e1 6e3f 9d50 3bbf fd73 a740 d032 a13f
000003c0: 378d 9a3f 2e01 c540 8024 743f 4d1c 983e
000003d0: 5ff4 20c0 9ac3 15bf f0f7 14bf 3c87 703e
000003e0: c98a 50bf 13a8 3240 d231 953f 4be5 b03f
000003f0: 03ad 13bf 82d6 f9bf 34d0 14c0 8cf0 8abf
0.3500864 0.14695297 -1.1279434 2.1472929 1.1422728 -2.2592332 0.5124049 1.560366
-2.9052413 0.527131 1.2534431 2.071716 -1.4764786 -3.2646513 3.452366 -1.3921322
-2.617438 -1.5250696 -2.750523 -2.0906296 0.9319718 3.7537944 0.97738665 0.11109893
-0.19632964 2.191169 1.7133625 -1.7494355 -1.463015 0.7746399 -1.8748139 1.3906726
-2.0588229 -0.9587518 1.7723371 2.2995603 1.558797 -1.7656721 -2.482079 -1.5519351
-1.0876248 1.2932757 0.5224592 -1.2052647 1.751479 1.8004065 -2.1736887 -2.370895
2.2588506 -1.9905165 1.8289667 1.2770702 1.6711385 -1.6038809 1.2353189 1.6664709
-2.989742 1.281149 -1.5053382 3.0139153 -0.46978703 1.9831684 -0.83220303 -3.3359563
0.76286805 3.4380386 1.2141985 0.061645474 -0.90289944 0.8895367 -0.6765229 -0.2457474
0.030246591 -0.7213134 -1.3409581 -0.12581727 0.8369658 0.8330509 -1.171043 2.096854
0.66736 0.39629045 0.1307049 -0.2726231 -0.93131965 -0.16106172 -0.9700078 -0.76033515
-0.648515 -0.8797542 -2.1143913 0.36443904 0.4452507 0.4367469 0.7560715 -0.69361436
0.5096821 0.83532345 -0.98205304 -0.26385775 -2.5970707 -0.12792791 1.1100652 0.92559713
0.13963076 -0.95247555 -0.20365277 -0.9643922 -2.1819544 -0.11389967 -0.0014636115 0.82551384
-0.93482304 -1.5785762 -0.65131515 -0.84328693 -1.0319304 -0.36504304 3.9459023 -0.34624234
1.0617775 -0.74587876 3.7199624 -0.71320367 -0.8964897 -0.41440478 0.6641817 3.648045
0.82706916 1.5749089 1.858744 -1.591736 -1.7628262 0.80440235 -2.226651 0.5141726
-0.33902928 -1.142714 0.5079053 -1.7675008 1.1831385 -0.3671096 0.1952127 3.0253756
0.60643756 -0.5424089 0.05425827 -0.1757182 -1.9770834 -1.2712606 0.7519592 1.5615281
1.042133 -1.2313342 -2.4237318 -0.8627027 0.95909226 -0.13307069 1.0088047 0.24658448
0.68540543 -0.3659803 -1.3985353 -1.1875825 -3.0446362 -0.6046641 -0.6296771 1.2721952
0.7752482 -0.95573175 2.027238 -0.27807346 -1.993718 0.16360575 1.1159065 0.6529274
-1.2047819 1.0008159 -0.86758006 -1.1377975 -1.2668018 -0.6379579 -0.24104953 -0.52854043
-0.36399075 -0.7946062 1.8228608 -2.0901933 -0.7146669 -0.12153073 -0.704139 2.828284
-0.5769066 2.641197 -0.30163756 -0.2531562 -0.2303053 -0.29810944 0.2509779 0.112532385
1.4577501 0.35717893 -3.4850836 -0.8633458 2.4809306 -1.6466657 1.5827023 -0.40073058
1.0846926 -0.48964557 0.77486503 1.8867022 0.04330467 3.4591167 1.4241577 -5.7048926
-2.9810078 0.3582081 1.0024285 -0.13427362 2.637993 -0.22033645 0.08919415 1.5319116
0.047360085 -0.7735127 -1.2165288 0.022597454 -1.232732 -0.6804068 -1.533208 0.4837775
-2.2780547 -5.713684 -8.310342 1.4931183 0.9331275 -0.7316988 5.2329087 1.2593632
1.2074345 6.156394 0.95368195 0.29709092 -2.5149152 -0.5850159 -0.5819082 0.23489088
-0.8146177 2.7915084 1.1655829 1.3819975 -0.5768587 -1.9518588 -2.3252077 -1.0854659

2.bias f4 [64]
00000000: 53cc a4bf 4dc5 0a3f 99e2 4e3f dbe4 9e3f
00000010: 645b ab3e ec67 55bf ff43 863f 13bf 673f
00000020: ae11 e8bf e055 093f 72d1 79bf cb77 03c0
00000030: 40f6 b0bf 3086 7dbd 3e25 eb3f 1910 983e
00000040: 8d79 c63f 5b16 e33f 84e1 743f 2cc2 823f
00000050: 2069 9f3f 7509 783e ddef 283f 6f9a 3c3f
00000060: 0acc 85bf c75e 16bf ec31 87bf b690 af3e
00000070: 0324 74bf 2f3d c2bf 02df 07c0 fe3f a73f
00000080: 086b 61bf cbdd 903e 57a0 bc3f 00cb 973f
00000090: c1b3 82bf ab19 4fbf c78b cc3e eb13 f2be
000000a0: 78c4 4bbf ee9d 76bf 2447 00bf 692b 443f
000000b0: e3aa 1cc0 5e7d 28bf 4c4e b23f 0980 2dbf
000000c0: 1a84 a7bf 4358 abbe 9600 bd3f 40f3 863f
000000d0: f6cf bebf f39c 9b3f 884c c4bf d338 2f3f
000000e0: 4bb4 633f c052 0840 3e7b ed3f a443 413f
000000f0: 8413 2e3f 9fcc ecbf 132b 45be 56d0 79bf
-1.2874855 0.5420731 0.8081451 1.2413591 0.33468163 -0.833617 1.0489501 0.9052593
-1.8130395 0.5364666 -0.97585213 -2.0541866 -1.382515 -0.06189555 1.837074 0.29699782
1.5505844 1.7741197 0.9565661 1.0215507 1.2453957 0.24222358 0.65991 0.73673147
-1.0452893 -0.5873837 -1.056211 0.34290093 -0.9536745 -1.5174922 -2.1229863 1.3066404
-0.8805394 0.28294215 1.4736432 1.1858826 -1.0211107 -0.8089854 0.39950392 -0.4728082
-0.7959666 -0.9633473 -0.5010855 0.7662874 -2.44793 -0.65816295 1.3930144 -0.6777349
-1.3087189 -0.33465776 1.4765804 1.0542984 -1.4907215 1.2157272 -1.5335855 0.6844608
0.8894698 2.1300507 1.8553236 0.75493836 0.6799853 -1.8499945 -0.19254713 -0.9758352
