dir_save_test/we0_actor_-100.pth (torch, 19528 bytes, 4 tensors)

0.weight f4 [64, 2]
0	0xbe3dc02c	-0.18530339
1	0x3fc34d93	1.5258049
2	0x3d2a9c6a	0.041653074
3	0x3f8e59e5	1.1121184
4	0x3d203ff8	0.039123505
5	0x3fcb3b4e	1.5877473
6	0xbe2c504c	-0.16827506
7	0x3fe9e159	1.8271896
8	0x3e1d7f8c	0.15380687
9	0xc02df0a0	-2.7178116
10	0xbd6ec2fa	-0.058291413
11	0x3f2aa20c	0.66653514
12	0x3e13d63b	0.14437191
13	0xbff95e54	-1.9481912
14	0x3e179ad6	0.14805159
15	0xbf9df7b0	-1.2341213
16	0x3f86ddcb	1.0536436
17	0x3ee8b84a	0.454531
18	0x3da78c8e	0.081811056
19	0x3f0d2562	0.55135167
20	0xbd5603a1	-0.052249555
21	0x3f340fc3	0.7033655
22	0x3da4360b	0.080181204
23	0xbf8a8937	-1.0823125
24	0xbd468e88	-0.048475772
25	0x3f20fe8c	0.6288841
26	0xbdfd9386	-0.123816535
27	0x3fa94976	1.3225543
28	0x3f25de9b	0.64792794
29	0x3c9a75d3	0.018855011
30	0xbf49e80b	-0.78869694
31	0xbe8a28f7	-0.2698438
32	0xbd6c9de9	-0.057767782
33	0x3ff5ad95	1.9193598
34	0x3d8e09ed	0.06935487
35	0x3f925185	1.1431128
36	0xbe3a8e34	-0.18218309
37	0x401585fa	2.3363023
38	0x3dbb41b8	0.09143394
39	0xc017808f	-2.3672216
40	0x3d79580e	0.06087499
41	0xbfef59fa	-1.8699334
42	0xbddb7731	-0.10716093
43	0x3fbe042b	1.4845022
44	0xbe1d738f	-0.15376113
45	0x3faec853	1.3654884
46	0x3df34a8c	0.11879453
47	0xbf95f5ab	-1.1715597
48	0x3b74a949	0.0037332347
49	0xbf74158b	-0.9534537
50	0x3e2e9697	0.17049633
51	0xc046cf08	-3.1063862
52	0x3e06bbd3	0.13157587
53	0xbc348f72	-0.011020528
54	0x3e2b8335	0.1674927
55	0xbe9acbba	-0.30233556
56	0xbe2a3ec6	-0.16625509
57	0x40299431	2.64967
58	0x3f2418a0	0.64100075
59	0xbf103898	-0.56336355
60	0xbbd7301b	-0.006567014
61	0x3eb175a3	0.34660062
62	0x3f6644c2	0.89948666
63	0x3ef2c455	0.47415414
64	0x3e2737ea	0.16329923
65	0xc077b7db	-3.8705966
66	0xbe5c6d04	-0.21525961
67	0xbee309f2	-0.44343525
68	0x3e18baf9	0.14915074
69	0xc010df15	-2.2636158
70	0xbd6bdcf3	-0.05758376
71	0xbf5a9dae	-0.8539685
72	0xbe3ead02	-0.18620685
73	0x406c727a	3.694487
74	0x3e268dd0	0.16265035
75	0xbfa16592	-1.2609122
76	0xbcd95e0b	-0.026534101
77	0xbfa35930	-1.2761593
78	0x3cef34cc	0.02919998
79	0x3f4bb926	0.7957939
80	0xbe53447e	-0.20631596
81	0x40209b08	2.5094624
82	0x3da6ecf7	0.08150666
83	0xbc71c849	-0.014757224
84	0xbf3c0180	-0.7343979
85	0x3e4eb65c	0.20186752
86	0x3d42af6e	0.047530584
87	0xbf684001	-0.9072266
88	0xbe3328ba	-0.17496005
89	0x407e6970	3.9751854
90	0x3db105cb	0.08643683
91	0xbf853797	-1.040759
92	0xbf0d2aff	-0.5514373
93	0xbeba31a9	-0.36366013
94	0x3dbc2462	0.09186627
95	0xbf851aff	-1.0398864
96	0x3d642427	0.05569854
97	0x3f732646	0.94980276
98	0xbd45ba13	-0.048273157
99	0xbf8d28fa	-1.102813
100	0x3df01b17	0.11723917
101	0xc0365ec7	-2.8495347
102	0x3e00bae7	0.12571298
103	0xc02f04f1	-2.7346766
104	0xbe54807b	-0.20752136
105	0x3ffd7c27	1.9803513
106	0xbe3c7144	-0.18402582
107	0x401a8417	2.4143121
108	0x3df868f7	0.121293955
109	0xbf082795	-0.531854
110	0x3ee76a29	0.4519818
111	0xbf295a65	-0.66153556
112	0xbd45d2f8	-0.0482969
113	0xbec52ece	-0.38512272
114	0xbe048f62	-0.12945321
115	0x3fec3fcb	1.8456968
116	0x3de79df1	0.11309422
117	0xc0084003	-2.128907
118	0x3da2c284	0.07947257
119	0xbfca3bf0	-1.5799541
120	0xbd948200	-0.07251358
121	0x3f154283	0.58304614
122	0xba5a590c	-0.0008329309
123	0xbf48f5c9	-0.7850004
124	0x3da810f3	0.08206358
125	0x3b3ced6e	0.0028828043
126	0x3c8ffbee	0.017576184
127	0xbeac4bd9	-0.33651617

0.bias f4 [64]
0	0xbbe20723	-0.0068978234
1	0x3d850f7e	0.064970955
2	0x3d7648ee	0.060128145
3	0x3ddf8b4b	0.1091524
4	0xbe473256	-0.19452795
5	0x3c221218	0.009892009
6	0xbdbfe331	-0.09369505
7	0xbdc16e7f	-0.094449036
8	0xbf9cee4d	-1.2260224
9	0x3d1567b8	0.036475867
10	0xbcdef6e9	-0.027217345
11	0xbd13fe10	-0.036130965
12	0x3ca3b2d5	0.019982735
13	0x3d0ec425	0.034855027
14	0xbebc1c17	-0.3674018
15	0x3f0ed7ba	0.5579792
16	0x3d33fa08	0.04393962
17	0x3da19b0e	0.078909025
18	0x3e49bdd6	0.19701323
19	0xbe35e21a	-0.17762032
20	0xbd81beea	-0.06335242
21	0x3d44ba1c	0.04802905
22	0x3dfd9962	0.12382771
23	0x3cbb09b8	0.022831783
24	0xbd53a7d1	-0.051673714
25	0xbe24027f	-0.16016577
26	0x3e3661e7	0.17810784
27	0x3de7dcea	0.11321433
28	0x3e22b867	0.15890656
29	0x3f53fcaa	0.8280741
30	0x3be0ba58	0.0068581514
31	0xbf3ddadf	-0.74162096
32	0xbe72e8f7	-0.23721682
33	0xbe9710c4	-0.2950498
34	0xbddbb28b	-0.10727414
35	0xbd744186	-0.0596328
36	0x3e6e4158	0.23267114
37	0xbe257a80	-0.16160011
38	0xbd72252f	-0.059117492
39	0x3d5ac82c	0.053413555
40	0x3e66df54	0.2254613
41	0x3ca3c423	0.019990986
42	0x3ed0e938	0.40802932
43	0xbda1e380	-0.0790472
44	0x3e4d811f	0.20068787
45	0xbd76f149	-0.0602887
46	0x3d934612	0.07191099
47	0x3c40c2a9	0.011765161
48	0x3cd30338	0.02575837
49	0xbc5a2ae5	-0.013315891
50	0xbe3115fe	-0.17293546
51	0xbd390e0a	-0.045179404
52	0x3dcbc3c1	0.099494465
53	0x3e571f3a	0.21008006
54	0x3db7d1cd	0.08975563
55	0x3f00ab75	0.5026162
56	0xbd1238ec	-0.035698816
57	0x3e289d38	0.16466224
58	0xbd2c2922	-0.042031415
59	0xbcd3bb5c	-0.025846176
60	0xbd2703b9	-0.040775035
61	0xbd1d3fcc	-0.03839092
62	0x3d9a6330	0.0753845
63	0xbcd29b81	-0.025708916

2.weight f4 [64, 64]
0	0xbdbf9daa	-0.09356244
1	0x3da56735	0.08076326
2	0x3dd21824	0.10258511
3	0xbe290341	-0.16505148
4	0x3d453ba4	0.04815258
5	0x3e17e27a	0.14832488
6	0xbd5e8925	-0.05433001
7	0xbbe37292	-0.006941148
8	0xbe3844f2	-0.1799505
9	0x3d2d806d	0.042358804
10	0xbde13b12	-0.10997595
11	0xbc78ca87	-0.015185005
12	0xbd7224dd	-0.059117187
13	0xbe630e73	-0.2217348
14	0xbd9bb119	-0.07602138
15	0xbd96281b	-0.07331868
16	0x3e1509f4	0.14554578
17	0x3ea96479	0.33084467
18	0x3e38f48d	0.18062039
19	0xbe5682ae	-0.20948288
20	0xbdcfe96b	-0.10151943
21	0xbe3274c5	-0.17427357
22	0x3dcfdb40	0.101492405
23	0x3e82db26	0.25557822
24	0xbe0b254e	-0.1358845
25	0x3d0933af	0.033496555
26	0x3d177a39	0.036981795
27	0xbdad39b6	-0.08458273
28	0xbe8be1da	-0.2732075
29	0xbda10fb7	-0.078643255
30	0xbe966005	-0.29370132
31	0xbd827ffc	-0.06372067
32	0xbe40642b	-0.18788211
33	0xbdf4c550	-0.11951697
34	0x3ecbe554	0.398234
35	0x3bd2c428	0.006432075
36	0x3e2f0853	0.17093019
37	0x3e1249cf	0.14285968
38	0xbd7c0bfe	-0.061534874
39	0xbdd5d48a	-0.10440929
40	0xbc43b6f5	-0.011945476
41	0x3dc555dd	0.09635518
42	0xbd7432f0	-0.05961889
43	0xbe37a3b6	-0.17933545
44	0x3d3c1bf4	0.045925096
45	0xbe1633f6	-0.14668259
46	0x3e8613d5	0.26187006
47	0xbd591518	-0.052998632
48	0x3d6f7f33	0.058470916
49	0xbe2904be	-0.16505715
50	0xbe175864	-0.14779812
51	0xbc2c9b45	-0.010535066
52	0xbd8bef90	-0.06832802
53	0x3cab13ed	0.020883525
54	0xbdf5ef72	-0.12008561
55	0x3e22bae1	0.15891601
56	0xbd67754b	-0.056508344
57	0x3e28785a	0.1645216
58	0x3df4ee44	0.11959508
59	0xbd24bee6	-0.040221117
60	0xbd30e63e	-0.043188326
61	0x3e322089	0.17395224
62	0x3d339cc5	0.04385068
63	0xbdde3447	-0.10849815
64	0xbdbaa462	-0.09113385
65	0x3d1cf659	0.038320873
66	0xbc0f93fa	-0.008763308
67	0xbc96ea9d	-0.01842242
68	0x3e05d854	0.13070804
69	0x3d1ebb3d	0.038752783
70	0xbe2cf582	-0.16890529
71	0x3e29345a	0.16523877
72	0x3ae83a80	0.001771763
73	0x3e9cd639	0.3063219
74	0xbdc76920	-0.09736848
75	0xbc346df3	-0.011012542
76	0x3e630915	0.22171433
77	0x3d9cb196	0.07651059
78	0xbd8f1113	-0.069856785
79	0x3e487b65	0.19578321
80	0xbe6bfa17	-0.2304462
81	0x3ea6dfbf	0.3259258
82	0xbe9c7a06	-0.30561846
83	0xbe3fb4f0	-0.18721366
84	0xbdc632ff	-0.096776955
85	0xbdc8985c	-0.09794685
86	0xbccad0d5	-0.024757782
87	0xbde71444	-0.11283162
88	0xbc932004	-0.017959602
89	0xbcdd75f3	-0.027033782
90	0x3ea1845b	0.31546292
91	0x3dcbacc8	0.09945065
92	0xbd3c39fc	-0.045953736
93	0x3dfac0b8	0.122437894
94	0xbe9c1446	-0.30484217
95	0xbe15243e	-0.14564607
96	0x3e335db5	0.17516215
97	0xbd4ba353	-0.049716305
98	0xbe83fcd3	-0.25778827
99	0xbc8f771f	-0.017512856
100	0x3e8b2008	0.27172875
101	0x3db8ec7b	0.0902948
102	0xbd8eb683	-0.06968405
103	0x3d47591f	0.048668977
104	0x3d5ffa68	0.054682165
105	0x3e163e61	0.14672233
106	0x3e54f1cd	0.20795365
107	0xbe2b20c9	-0.16711725
108	0x3e741446	0.23835859
109	0xbbb82877	-0.005620058
110	0x3d58c480	0.052921772
111	0x3df2b897	0.11851614
112	0x3db028e1	0.08601547
113	0xbc985bf0	-0.018598527
114	0xbe154df9	-0.14580525
115	0xbe6cb0f4	-0.23114377
116	0xb95600b2	-0.0002040889
117	0xbc0169b4	-0.007898737
118	0x3dd4b3c1	0.10385848
119	0x3cc2a28f	0.023759155
120	0xbe16dd69	-0.14732899
121	0xbb62f02d	-0.003462802
122	0x3e7a4621	0.24440815
123	0xbda61622	-0.0810969
124	0xbe045adf	-0.1292529
125	0xbe180248	-0.1484462
126	0x3e0126a0	0.1261239
127	0xbdef4830	-0.116836905
128	0x3b9ee921	0.0048495685
129	0xbd0655a6	-0.032796524
130	0x3d827e1d	0.063717104
131	0xbe58785c	-0.21139663
132	0x3e925c67	0.28586122
133	0xbda221cc	-0.079166025
134	0x3d1563f8	0.03647229
135	0x3e807936	0.25092477
136	0x3f94c590	1.1622791
137	0x3e0e67b6	0.1390675
138	0xbd46f80a	-0.048576392
139	0xbdf8094b	-0.121111475
140	0x3d18b7da	0.03728471
141	0xbe088bcf	-0.13334583
142	0x3ecf11d2	0.40443283
143	0xbef90c90	-0.48642397
144	0x3de48d29	0.11159737
145	0x3da5cfc4	0.08096269
146	0xbe8493f4	-0.2589413
147	0x3e909051	0.28235105
148	0xbc7a52d6	-0.015278539
149	0x3c3385f9	0.010957235
150	0xbee02323	-0.43776807
151	0xbd9a2626	-0.075268075
152	0xbc43d55d	-0.011952725
153	0xbcf53198	-0.029930875
154	0x3dd9dd90	0.10637963
155	0x3df65d99	0.12029571
156	0xbe4d6f05	-0.20061882
157	0xbefe33f8	-0.49649024
158	0x3e112e35	0.14177783
159	0x3ec7a47b	0.38992676
160	0x3e5b90c3	0.21441941
161	0x3e329d65	0.17442854
162	0x3ddeb31f	0.108740084
163	0xbd87fbbc	-0.066398114
164	0xbe431b9b	-0.190535
165	0x3ea2a389	0.31765392
166	0xbe122c72	-0.14274767
167	0xbcbfb087	-0.023399604
168	0xbeed5c37	-0.46359417
169	0xbd70eb6f	-0.058818277
170	0xbf3983a6	-0.72466505
171	0x3cc46ccb	0.023977658
172	0x3d827491	0.063698895
173	0x3e03081c	0.12796062
174	0xbdfe404b	-0.12414607
175	0xbd0aac75	-0.033855874
176	0x3ad68910	0.0016367752
177	0xbd48bf86	-0.049010776
178	0x3e0229ad	0.1271121
179	0xbdd4047f	-0.1035242
180	0xbe9dba80	-0.3080635
181	0xbeb49a01	-0.35273746
182	0x3d0cf9e2	0.034417994
183	0xbe3f7e0e	-0.1870043
184	0x3da83a5b	0.082142554
185	0xbe72c8bf	-0.23709391
186	0xbda8f21b	-0.08249303
187	0x3c825120	0.015907824
188	0xbb9117fe	-0.004427909
189	0x3e36396c	0.17795342
190	0x3d11e82b	0.035621803
191	0xbc83a4fe	-0.016069885
192	0xbe08da89	-0.13364615
193	0xba0c58c0	-0.0005353801
194	0xbd9cfe7e	-0.07665728
195	0x3ebcbd89	0.36863354
196	0x3dac24a3	0.084054254
197	0xbe049c43	-0.12950234
198	0xbe56e8b1	-0.20987202
199	0x3df50145	0.11963133
200	0x3da64a13	0.08119597
201	0x3bdd2251	0.0067484756
202	0x3d932e80	0.071866035
203	0x3da9c578	0.08289617
204	0x3e25fe81	0.16210367
205	0x3daeff41	0.085447796
206	0x3e1f2248	0.15540421
207	0xbe85118a	-0.25989944
208	0xbe0e1e8c	-0.1387884
209	0x3e0b800b	0.13623063
210	0x3dbbffdd	0.091796614
211	0x3dcba22d	0.09943042
212	0x3e01622c	0.12635106
213	0x3e2851d5	0.16437466
214	0x3e34dacf	0.17661594
215	0xbd3bf397	-0.045886602
216	0x3dfd623f	0.123722546
217	0xbe1480ed	-0.14502306
218	0x3e5a5bcf	0.21324085
219	0x3e61dfd8	0.22058046
220	0x3dc30830	0.09523046
221	0x3d37efa1	0.044906262
222	0xbc1f90f7	-0.009739152
223	0x3de58d41	0.11208583
224	0xbe77b925	-0.24191721
225	0xbe33ea25	-0.17569788
226	0xbe364115	-0.17798264
227	0x3d6e8690	0.058233798
228	0x3eb2affa	0.34899884
229	0x3e15dc60	0.14634848
230	0x3be6cc93	0.00704343
231	0xbe5180b6	-0.20459256
232	0x3cdf0751	0.027225168
233	0x3e9641ed	0.29347172
234	0xbdf3cdcf	-0.11904489
235	0x3d5ab66f	0.05339664
236	0x3ec0dab5	0.3766686
237	0xbdfc758e	-0.12327109
238	0xbd9a19d0	-0.075244546
239	0xbd2995ea	-0.041402735
240	0xbe60f313	-0.21967725
241	0x3cb997d9	0.022655414
242	0xbc516d5a	-0.012782419
243	0xbe39cf38	-0.18145454
244	0x3ed613e0	0.41812038
245	0x3e8deebf	0.2772121
246	0xbde95d9d	-0.113948084
247	0x3dad0e45	0.08449987
248	0xbca37371	-0.019952508
249	0xbd3c3051	-0.045944516
250	0x3df6254f	0.12018835
251	0x3d253f90	0.04034382
252	0xbd0b09ff	-0.03394508
253	0x3d4326c2	0.047644384
254	0x3dc63cc5	0.096795596
255	0xbcdb9fed	-0.026809657

2.bias f4 [64]
0	0xbe06ff3d	-0.13183303
1	0xbe541e1b	-0.2071461
2	0xbf5d7f86	-0.8652271
3	0x3ddbe396	0.10736768
4	0x3c5ad5ec	0.013356667
5	0xbe69aa6f	-0.22818922
6	0x3eee168e	0.46501583
7	0x3e8cd355	0.27504984
8	0x3d1dd50e	0.038533263
9	0xbec8090e	-0.39069408
10	0xbeb71995	-0.35761705
11	0x3e3abfe4	0.18237263
12	0xbee03f9b	-0.43798527
13	0x3e084601	0.13307954
14	0x3e56d71f	0.209805
15	0x3cc7e95f	0.024403272
16	0xbe681931	-0.2266586
17	0x3e9ea4f4	0.30985224
18	0xbf5e3fee	-0.868163
19	0xbc487a36	-0.012236169
20	0xba917709	-0.0011098097
21	0x3db93639	0.09043545
22	0x39d5b2a6	0.0004075963
23	0xbe37b844	-0.17941386
24	0xbecc1113	-0.39856777
25	0xbe4dfba2	-0.20115522
26	0xbd807fe8	-0.06274396
27	0x3e92dfd8	0.28686404
28	0x3b87b9de	0.00414203
29	0x3d5298d8	0.051415294
30	0xbead6cbe	-0.33872026
31	0x3d2cba26	0.042169712
32	0xbc1761d3	-0.009239632
33	0xbe74728b	-0.2387182
34	0x3d001238	0.031267375
35	0xbecc6051	-0.39917234
36	0xbdb876e8	-0.090070546
37	0x3e54c26f	0.20777296
38	0xbdc04f24	-0.09390095
39	0xbe5cb943	-0.21555047
40	0x3ea7a651	0.32744077
41	0xbce000a2	-0.027344052
42	0x3e423bf4	0.18968183
43	0x3cf6661e	0.03007799
44	0x3b10ad5d	0.0022075989
45	0xbf42f449	-0.76154
46	0x3e278744	0.16360193
47	0x3e0fd604	0.14046484
48	0xbd6557c4	-0.055991903
49	0x3cd84176	0.026398402
50	0xbeb3b472	-0.35098606
51	0x3ebc0626	0.3672344
52	0xbe147290	-0.14496827
53	0xbd30f78c	-0.04320483
54	0x3ea6bb55	0.32564798
55	0xbecf10d4	-0.40442526
56	0x3e18753b	0.1488847
57	0xbe8be3b0	-0.2732215
58	0x3d979dcd	0.07403145
59	0xbe2286d0	-0.1587174
60	0x3ee99934	0.45624697
61	0x3df512ee	0.11966501
62	0x3e0233e2	0.12715104
63	0xbe8fce04	-0.28086865
