dir_save_test/we0_model_dist_-100.pth (torch, 3112 bytes, 1 tensors)

weight f4 [1, 64]
000000 68 ee 63 3c 64 8d 8c 3c e7 db 46 3e bd 1f f5 ba
       0.013911821 0.017157264 0.19419824 -0.0018701475
000010 40 c9 5d bc 19 64 93 3d 59 0d 53 bd 88 9e a3 bd
       -0.013536751 0.071968265 -0.0515264 -0.07989222
000020 b2 1e 9f bb 45 87 c5 3d 47 9b 96 3d 90 f0 82 3b
       -0.004855954 0.09644941 0.073538356 0.0039959624
000030 63 11 23 3e ac 11 40 3c 0d 83 39 3a c2 e2 f6 bb
       0.15924601 0.011722963 0.0007076718 -0.007534356
000040 ae 3e 41 bc 2d 6f c8 bd d3 64 2a be a5 92 e5 ba
       -0.011794729 -0.0978683 -0.16640024 -0.0017515017
000050 5f e4 65 bc 99 e4 9f ba 7e fb 3b 3c 9b 59 df 3b
       -0.014031499 -0.0012198865 0.011473535 0.0068161017
000060 a8 d3 8a 3d 53 59 89 3d e7 2c 02 be 21 4b 53 3a
       0.067786515 0.0670649 -0.12712441 0.00080602063
000070 12 81 97 3c 74 47 0e bc d5 fb 79 3c 10 ad 36 bc
       0.018494163 -0.008684028 0.015257795 -0.01114966
000080 b4 dd 46 3c a9 57 a3 39 14 aa 42 3b 98 4b de 3d
       0.012137819 0.00031155095 0.0029703425 0.10854262
000090 16 03 9a 3b e9 e9 00 bb a0 e9 30 3e 3a 5a c3 bb
       0.004700075 -0.0019670671 0.17276621 -0.0059616836
0000a0 3c 14 9b 3d 35 11 89 3a 68 b2 11 bc 3b 84 02 bc
       0.07572219 0.0010457399 -0.008892633 -0.0079660965
0000b0 34 36 23 bc 67 b3 11 be 75 91 b6 3b 5a c3 f2 bb
       -0.0099616535 -0.14228593 0.005571539 -0.0074085416
0000c0 c8 b0 c3 bb 73 4c 92 b9 9d 51 ac 3d 10 40 05 be
       -0.0059720017 -0.0002790425 0.08414004 -0.13012719
0000d0 5c 76 00 3b 61 a7 39 3c ec 08 a1 bd ad 15 8b 3d
       0.0019601798 0.01133141 -0.0786303 0.06791244
0000e0 c2 3a a9 3b e6 8d d9 3d 57 59 75 bc 96 49 f1 3b
       0.005164475 0.10622768 -0.014974914 0.0073635085
0000f0 a5 97 9b bd 7d db c2 3e 94 33 0b 3c ee 3b a2 3d
       -0.07597283 0.3805808 0.008496184 0.07921587
