dir_save_test/we0_model_dist_-160.pth (torch, 3112 bytes, 1 tensors)

weight f4 [1, 64]
0	0xbd0bcc8f	-0.03413063
1	0x3d367b62	0.04455126
2	0x3e8aeb72	0.27132756
3	0x3d5881ca	0.05285815
4	0xbccdf181	-0.025139572
5	0x3ded734a	0.11594255
6	0xbe0299d9	-0.12754
7	0xbdfe0911	-0.12404073
8	0xbc440758	-0.0119646415
9	0x3e24b9a8	0.16086447
10	0x3e10dc44	0.14146525
11	0x3cec2c0e	0.0288296
12	0x3e70185a	0.2344679
13	0xbd8deafc	-0.06929585
14	0xbc9ef988	-0.019406095
15	0xbcbf8ae6	-0.023381662
16	0x3c9ecc89	0.01938464
17	0xbe145df5	-0.14488967
18	0x3a3109c7	0.0006753471
19	0x3d4430a1	0.04789794
20	0xbcd12148	-0.025528565
21	0x3caaa717	0.020831628
22	0xbd4de9bf	-0.050271746
23	0x3d588e1b	0.052869897
24	0x3e12cadb	0.14335196
25	0x3dceb744	0.10093549
26	0xbe3174b6	-0.17329678
27	0xb8bec40a	-9.096421e-05
28	0x3d066d16	0.032818876
29	0x3c23d04f	0.009998395
30	0x3dbe0c67	0.09279709
31	0x3d76d081	0.06025744
32	0x3c37011d	0.011169699
33	0x3caed510	0.02134183
34	0x3dc337ce	0.09532128
35	0x3e27a306	0.16370782
36	0x3d3bedcd	0.04588108
37	0xbd86659e	-0.06562351
38	0x3e5dbf02	0.21654895
39	0xbcbd7fc5	-0.023132214
40	0xbd88d71e	-0.06681655
41	0xbcab635b	-0.0209214
42	0x3ced28e6	0.028950166
43	0x3b25ef26	0.0025319546
44	0x3d462576	0.04837557
45	0xbd5098ad	-0.050926853
46	0x3dba2d3b	0.09090658
47	0xbcb25688	-0.021769777
48	0xbd416545	-0.04721572
49	0xbd721295	-0.059099752
50	0x3e15f903	0.14645772
51	0xbe1a601b	-0.15075724
52	0x3d98c562	0.07459523
53	0x3cd74395	0.026277343
54	0xbdf02194	-0.117251545
55	0x3e174b81	0.14774896
56	0x3d332fe4	0.043746844
57	0x3e0c528b	0.13703363
58	0xbdb9000b	-0.09033211
59	0x3d1b869a	0.037970163
60	0xbe0e0e07	-0.13872539
61	0x3eabf2a1	0.3358355
62	0x3d14b611	0.036306445
63	0x3ded2117	0.11578577
