dir_save_test/we0_model_dist_150.pth (torch, 3105 bytes, 1 tensors)

weight f4 [1, 64]
0	0xbc08f4b6	-0.008359125
1	0x3b02f84e	0.0019984427
2	0x3ea1d58b	0.31608233
3	0x3e8fa811	0.28057912
4	0xbc1fd122	-0.009754451
5	0xbdd73b06	-0.10509305
6	0x3c2c7097	0.01052489
7	0xba8c3be1	-0.0010698998
8	0x3bc1e952	0.0059177065
9	0x3c4c5412	0.012471216
10	0x3c8b38c7	0.016994847
11	0xb9a72228	-0.0003187817
12	0x3e852da9	0.26011398
13	0xbc1885bf	-0.009309231
14	0xbdd2b908	-0.10289198
15	0x3db0c591	0.08631433
16	0x3c445b11	0.011984603
17	0x3d840f6e	0.064482555
18	0xbe28d1b2	-0.16486242
19	0xbb279a37	-0.0025574097
20	0x3c8bcaee	0.017064538
21	0x3c883c9e	0.016630467
22	0x3bc2c922	0.005944387
23	0x3c21eff1	0.009883867
24	0x3c2433bd	0.010022101
25	0x3a627661	0.00086388557
26	0xbd6d339f	-0.057910558
27	0xbb2335d9	-0.0024903922
28	0xbbcf887a	-0.006333408
29	0x3b82bfd3	0.0039901524
30	0xbb1e1f8b	-0.0024127688
31	0x3bbb815a	0.005722207
32	0x3e84a00d	0.2590336
33	0xbae7012b	-0.001762425
34	0xbbd069b0	-0.006360255
35	0x3e1a13df	0.15046643
36	0xbdf97046	-0.121796176
37	0xbcaebcf9	-0.021330344
38	0x3de66640	0.112499714
39	0xbd206610	-0.039159834
40	0xbc83f218	-0.01610665
41	0x39f2b183	0.00046290093
42	0xbbeaee6d	-0.007169536
43	0xbc1d81a6	-0.00961343
44	0x3aecf493	0.001807826
45	0xbc02f1f4	-0.007992256
46	0xbbee88eb	-0.0072795055
47	0xbb5c8627	-0.0033649297
48	0x3d9c732b	0.07639154
49	0xbbc0bb68	-0.0058817156
50	0xbc8c570d	-0.017131353
51	0xbd1e099c	-0.038583383
52	0x3b29359b	0.0025819305
53	0xbb6281f7	-0.0034562328
54	0xbc0c227a	-0.008553142
55	0xbc6c303e	-0.014415799
56	0xba877e77	-0.0010337372
57	0x3b2c8f5c	0.0026330566
58	0xbbaff616	-0.005369912
59	0xbc22195e	-0.009893743
60	0x3c8001e5	0.015625903
61	0x3e4146a9	0.18874611
62	0x3bfb69c1	0.007672519
63	0x3de9defe	0.114194855
