dir_save_test/we0_model_dist_-70.pth (torch, 3361 bytes, 1 tensors)

weight f4 [1, 128]
0	0x3b752f12	0.003741209
1	0xbb5c9790	-0.0033659674
2	0x3b86e1f0	0.0041162893
3	0xba8aec15	-0.0010598922
4	0xbad5fd83	-0.0016326163
5	0x3b883123	0.004156248
6	0x3af3d57f	0.0018603056
7	0x3ba78b48	0.005113039
8	0x3b53ecbe	0.0032337154
9	0x3b9590f9	0.004564401
10	0xba22d983	-0.00062122213
11	0x38b80e1e	8.776433e-05
12	0x3bb6cf28	0.005578894
13	0xbbb57e61	-0.005538747
14	0xbb46ffae	-0.00303648
15	0xbdf9479f	-0.12171864
16	0xb93d324b	-0.0001804318
17	0x3b96eaf9	0.0046056476
18	0x3bd23621	0.006415144
19	0x3c07abd3	0.008280712
20	0xbb49cd9e	-0.0030792723
21	0x3a9e0fbf	0.0012059136
22	0xbd0b06b5	-0.033941943
23	0x3bb89c39	0.0056338576
24	0x3e31a463	0.17347865
25	0xbabb4cbe	-0.0014289839
26	0xbb9b88f9	-0.004746553
27	0x3da95dbc	0.082698315
28	0xb9c4923d	-0.0003749299
29	0xba95af8d	-0.0011420116
30	0xba0ff0e4	-0.00054909126
31	0x3890d224	6.905597e-05
32	0xba92add8	-0.0011190725
33	0xbb468d48	-0.0030296613
34	0x3b83498e	0.004006571
35	0xb94ad6d6	-0.00019344254
36	0x3a4659be	0.0007566473
37	0xbab83057	-0.0014052492
38	0xbb5fced3	-0.0034150376
39	0xbd30481a	-0.04303751
40	0x3a38e872	0.000705368
41	0x3db2ad5d	0.08724473
42	0x3dbfc239	0.09363217
43	0xba7a7cef	-0.000955536
44	0x3b81bcc9	0.0039592725
45	0x3d2b53d1	0.04182798
46	0xbad3ed45	-0.0016168734
47	0xbb2e7160	-0.002661787
48	0xb9b7730c	-0.00034990197
49	0x3addf15f	0.0016932896
50	0x3bcf577e	0.0063275686
51	0xbd3f51da	-0.04670892
52	0xbb9aef72	-0.004728251
53	0x3a425567	0.00074132386
54	0xbb1ef232	-0.0024253246
55	0x3b197aff	0.0023419259
56	0x3cd1d1e1	0.025612773
57	0xbe85a6bb	-0.26103768
58	0xbd31125d	-0.043230403
59	0x3ab82e90	0.0014051963
60	0x3ba871f2	0.0051405365
61	0xb97c651c	-0.00024070259
62	0x3da4b920	0.08043122
63	0x3ab1246f	0.0013514886
64	0xbae84348	-0.0017720247
65	0x3b5df32c	0.0033866866
66	0xbb134baf	-0.002247553
67	0xbb9079a2	-0.004409031
68	0x3a9045ba	0.0011007108
69	0x3a0077ab	0.00049006444
70	0xbd8c8725	-0.06861714
71	0xbc6dfbbf	-0.014525353
72	0x3ae6b40c	0.0017601266
73	0x396f4833	0.00022819712
74	0x3ed9d171	0.42542604
75	0x3c4a1616	0.012334367
76	0xbad10e54	-0.0015949705
77	0xbd805058	-0.06265324
78	0x3a34db2f	0.0006899116
79	0x3c3004fa	0.010743374
80	0xb91e5a0f	-0.00015101604
81	0xbc0a0d7c	-0.0084260665
82	0x3c2e2501	0.01062894
83	0xbdb05dec	-0.08611664
84	0xbb7cdaac	-0.0038582487
85	0xba7bc256	-0.00096038484
86	0x3b7b151f	0.003831215
87	0x39f4468e	0.00046591874
88	0x3d75048c	0.05981879
89	0x3ad32ae9	0.0016110811
90	0x3cf2c695	0.029635707
91	0xbb595c3a	-0.0033166544
92	0xbbcd900a	-0.0062732743
93	0x3bcf436e	0.006325177
94	0x3ad8acc7	0.0016530984
95	0x38a31e66	7.778108e-05
96	0x3b2e1b1f	0.0026566458
97	0xba2b7804	-0.0006541016
98	0xbd8f8d13	-0.0700933
99	0x3ce01eaf	0.027358381
100	0xbb1459ea	-0.00226366
101	0x3c383b15	0.011244555
102	0xbba2dad9	-0.0049699363
103	0x3b131ec5	0.002244876
104	0x3b9aa86c	0.0047197845
105	0xbbb16e28	-0.005414743
106	0x3b683ba9	0.003543595
107	0x3a7ae678	0.00095710857
108	0xba31189f	-0.0006755683
109	0x3babcf2d	0.005243203
110	0xbb4e4575	-0.0031474505
111	0xbb9b324d	-0.004736221
112	0x3ba1fdff	0.004943609
113	0x3add5c7a	0.0016888522
114	0x39bb449f	0.00035718546
115	0xbb9646e1	-0.004586086
116	0x3b8bf224	0.004270809
117	0xbb1b1ad2	-0.002366711
118	0x3b16c568	0.0023005847
119	0x398d0174	0.00026894698
120	0xbe67df6d	-0.22643824
121	0xbaff0279	-0.0019455693
122	0xbc9da87e	-0.019245382
123	0xbb624caa	-0.0034530559
124	0x3b6d6ee5	0.0036229428
125	0xbb4eb2c7	-0.0031539665
126	0x3b3e15ba	0.002900465
127	0xbb65e941	-0.0035081657
