dir_save_test/we0_critic_150.pth (torch, 19528 bytes, 4 tensors)

0.weight f4 [64, 2]
000000 a3 3d d6 3f 38 4c fe 40 83 6a 42 3f eb 73 9b c0
       1.673756 7.946804 0.75943774 -4.8579
000010 73 f0 52 3f 3d 43 9e c0 d5 80 56 be c1 fb 01 c1
       0.82398146 -4.945708 -0.20947583 -8.123963
000020 fc 90 fc bd 93 64 c0 40 24 39 5d 3e bd 63 7d 41
       -0.12332341 6.012277 0.21603829 15.83685
000030 42 eb d2 be ca 42 9d 41 93 cc 2a be be c8 0d c1
       -0.41195112 19.657612 -0.16679601 -8.861509
000040 6d 90 75 3e 37 8e 77 c1 63 31 9e be ed 17 a4 40
       0.23980875 -15.47222 -0.30897054 5.1279206
000050 ff 08 70 bf b1 5a 5f bf be 86 da 3e 44 43 bf bf
       -0.93763727 -0.8724776 0.42680925 -1.4942403
000060 42 cd 15 bf 21 92 0b 3f b7 e8 96 3e 50 95 ac 40
       -0.58516324 0.5451985 0.29474422 5.3932266
000070 e6 53 7c 3f 5a a1 d3 40 88 83 35 3f 6d 6d b4 c0
       0.9856552 6.613446 0.70903826 -5.6383576
000080 bd 4c e9 be 9a d8 2a 41 af b3 60 bf 1a 3b 4f 40
       -0.4556636 10.677881 -0.87774175 3.2379823
000090 51 8c 44 bf 83 8e 31 40 15 f1 30 3f cb 9d f3 bf
       -0.76776606 2.7743232 0.6911786 -1.903253
0000a0 12 05 b8 be a0 4e 9c 40 02 01 a3 3f ad 4d 64 3f
       -0.35941368 4.884598 1.2734683 0.89181024
0000b0 a3 d3 4a 3f 61 62 04 c0 b3 36 9a bf cc aa 0d bf
       0.7922918 -2.0685046 -1.2047943 -0.5533874
0000c0 74 ab b4 bf 9f 80 a5 bf ac e4 a2 bf 83 2c 87 c1
       -1.4114823 -1.2929877 -1.2726035 -16.896734
0000d0 bb fd b3 bd 60 4d c6 40 f1 84 09 bf 9e 5b 53 41
       -0.087886296 6.196945 -0.5371848 13.2098675
0000e0 ce 80 01 3f fb ac 21 41 0b ac ab 3e b2 03 7a 41
       0.50587165 10.104732 0.33529696 15.625902
0000f0 ec ef 73 bf 96 a4 86 40 f0 dd 77 be 00 92 b1 c0
       -0.95287967 4.207591 -0.24205756 -5.5490723
000100 9f 95 dc 3e 62 9c b4 c1 4f e8 82 bf 92 6d 39 40
       0.43082902 -22.576359 -1.0227145 2.8973126
000110 9a 88 cb be f9 13 9e c0 d4 6b 2f bf 17 c0 77 c1
       -0.39752656 -4.939938 -0.6852391 -15.484397
000120 74 51 2f bf 6d 6c ab 40 ed 47 59 be c0 c2 a7 40
       -0.6848366 5.3569856 -0.21218844 5.242523
000130 2f ea 70 bf 8f df 6b 40 9e 68 53 bf 11 17 62 bf
       -0.94107336 3.68552 -0.8258151 -0.88316447
000140 b2 24 af bf c5 83 9d bf c1 60 8c 3e 5a e3 24 41
       -1.3683074 -1.2305838 0.27417567 10.305506
000150 65 3c 6c bf 4a 2d be 3f 9c 29 3a 3f 5d 29 07 c1
       -0.92279655 1.4857571 0.7271974 -8.447598
000160 0c a7 5c bf 94 95 74 40 df e6 9a 3e bb 0f 11 c0
       -0.86192393 3.8216295 0.30254266 -2.266585
000170 ea 27 c2 3e 30 3c 82 40 08 77 31 3f f2 3e 9f 41
       0.37921077 4.069847 0.6932225 19.905735
000180 79 19 b1 bf f6 ed 9b c1 24 6e 5d 3d 54 65 80 41
       -1.3835899 -19.491192 0.054060116 16.049477
000190 5e 9a f7 3e ee ac 43 40 c4 7a 2d bf 6b af 05 41
       0.4835996 3.0574298 -0.6776545 8.355327
0001a0 26 f7 f4 be c9 71 ff 40 0e 72 96 bf 49 1c ab 40
       -0.4784481 7.98264 -1.1753557 5.347203
0001b0 52 cd 62 bf 28 95 c1 c0 03 79 03 bf 86 08 2d 40
       -0.88594544 -6.0494576 -0.51356524 2.7036452
0001c0 3d 80 43 bf 4a f4 8b 40 60 97 e1 3e 50 10 eb 3f
       -0.7636755 4.3735704 0.44060802 1.8364353
0001d0 ae 4c 8f 3f eb 87 9b c0 e5 1e 7b bf 46 5a b7 c1
       1.1195276 -4.8603415 -0.98094016 -22.919079
0001e0 7e 17 31 3f 8d 33 65 40 62 7a 09 3d 12 cf 45 c1
       0.6917647 3.5812714 0.03356398 -12.363054
0001f0 99 94 42 3b d5 41 ae 41 61 62 41 3e 40 0e 00 41
       0.0029690622 21.782145 0.18885185 8.003479

0.bias f4 [64]
000000 29 f2 44 40 9f f1 03 3f a9 19 4d 3f 59 f0 90 3e
       3.0772803 0.5154056 0.8011728 0.2830837
000010 d7 d4 e2 3f ba 41 a8 3e fe 6f 69 bf f3 97 51 3e
       1.7721204 0.32862645 -0.9118651 0.2046812
000020 ec ab f9 bf c3 96 9f bf 41 67 fc bf d6 f5 a8 3e
       -1.9505591 -1.2467884 -1.971901 0.33000058
000030 07 44 ad 3f c7 1c 25 bf 49 6e 8c 3f d2 59 a0 bf
       1.3536385 -0.64497036 1.0971156 -1.2527411
000040 39 f9 ba bf 30 50 b6 be d2 72 45 bf 52 b7 19 3f
       -1.4607307 -0.35608053 -0.77128327 0.6004535
000050 4c 79 73 bf 60 48 1a 40 02 04 cf bf 90 15 0f c0
       -0.9510696 2.4106674 -1.6173098 -2.235691
000060 32 de 32 c0 e8 0c 58 c0 9c f5 06 40 f4 92 62 bf
       -2.7948117 -3.3757877 2.1087408 -0.8850548
000070 73 93 69 40 a0 dd 20 3f 61 62 ae 3f 9c 9a 06 3f
       3.6496246 0.6283817 1.3623773 0.52579665
000080 41 f6 86 3f 88 d9 e8 bf 5a 52 11 c0 ee 16 c0 bf
       1.0543901 -1.8191385 -2.2706513 -1.5006998
000090 99 ad ac 3f d5 c7 c8 bf 89 e9 ee 3f 0e d7 e3 3f
       1.3490478 -1.5685984 1.8665019 1.7800004
0000a0 06 06 2d c0 3d df 93 bf 3b 53 ed bf 10 40 12 bd
       -2.7034926 -1.1552502 -1.8541025 -0.035705626
0000b0 2a e7 ee 3f 19 72 a0 3c 12 be d8 be 97 48 f2 3f
       1.8664296 0.019585656 -0.42332512 1.8928403
0000c0 59 87 70 c0 a5 e4 30 bf 9e 84 4d 40 96 87 bd bb
       -3.758261 -0.69098884 3.2112193 -0.0057839854
0000d0 88 4d 01 c0 62 f4 8b bf 25 84 90 3d a1 ad 5c be
       -2.0203571 -1.0933955 0.070564546 -0.21550609
0000e0 c6 9b e9 3f 0c ca 1e 40 b5 33 59 3f fb 77 2d c0
       1.8250663 2.481082 0.84844524 -2.710448
0000f0 da bd 9b be 7d c2 14 3f a9 15 81 bf f3 f0 4c be
       -0.30418283 0.58109266 -1.0084735 -0.2001379

2.weight f4 [64, 64]
000000 f0 90 9f 40 3c fa 85 3f 98 94 7e 3f 1c 5c 8f 3e
       4.9864426 1.046699 0.99445486 0.2799996
000010 39 c5 81 be 1e 74 8d 3f c8 fa 1d be 32 57 33 3c
       -0.2534578 1.1051061 -0.15427697 0.010946082
000020 95 46 ea bd e8 1f b7 bf 64 d5 03 c0 fd e9 a1 3f
       -0.11439244 -1.4306612 -2.0598993 1.2649533
000030 f1 47 a8 3e cb e1 a6 bd 2a f4 3a 3f 88 e1 66 be
       0.32867387 -0.08148535 0.73028815 -0.22546971
000040 1f 5c d0 bf 3a 89 e8 be 4e e8 bc bf a6 be 0e 40
       -1.6278113 -0.45417196 -1.4758394 2.2303863
000050 a8 84 92 bf 95 0f d4 40 95 db cd 3c df f6 d1 c0
       -1.1446733 6.626902 0.025129119 -6.5613856
000060 5e 4f 02 c1 5d 3c dc bf 13 42 fd 3d b9 ef 12 c0
       -8.144377 -1.7205921 0.12366118 -2.2958815
000070 3c 7d 21 40 20 85 a9 3f 1a 29 ed 3c 9d 7c cc 3e
       2.5232687 1.3243752 0.028950263 0.39938822
000080 e3 33 4d be e2 85 38 c0 0b 00 d0 bf 33 03 b6 bf
       -0.20039324 -2.8831716 -1.6250013 -1.4219726
000090 72 57 5a 3e de 80 96 3e 9e c4 04 3e ef bb 90 3e
       0.2132242 0.29395193 0.12965629 0.28268382
0000a0 6d f2 f0 c0 9b be 27 be 7a f6 42 c0 f9 e6 ce 3e
       -7.529593 -0.16381304 -3.0462937 0.40410593
0000b0 22 b3 7a 3c c4 82 6e 3f ed 9e 06 bf 66 67 e4 3e
       0.015301498 0.9316828 -0.5258625 0.44610137
0000c0 d6 d7 a8 bf a6 29 50 bf 8f af 01 40 07 a7 24 bf
       -1.3190868 -0.8131355 2.0263402 -0.64317364
0000d0 be f2 ce bf 29 0c 16 be 8b 52 a7 be 49 32 93 bf
       -1.6167829 -0.14653076 -0.32680163 -1.1499721
0000e0 6a 7f f8 3d aa de 3a 40 03 87 94 3e 2b 6b 48 3e
       0.12133677 2.9198403 0.29009256 0.19572131
0000f0 03 95 86 3e 03 16 0c bf 74 dd 8a be 18 38 74 3d
       0.26285562 -0.5472109 -0.2712208 0.059623808
000100 73 3c 84 3f 49 ea b8 bd f2 15 c7 bd 53 fb d0 bf
       1.0330948 -0.09029061 -0.097209826 -1.6326698
000110 13 01 8d 3f 83 7e 35 40 9a 9a 91 40 ff c2 b4 bf
       1.1015953 2.8358467 4.5501223 -1.4122008
000120 f4 2a 48 c0 20 ad 01 3f 76 08 ac 3f ed 15 40 bf
       -3.1276217 0.5065479 1.3440082 -0.75033456
000130 bf 85 a1 3e 42 ef 71 3e 6b db d4 bf 63 57 51 be
       0.31547353 0.23626426 -1.6629461 -0.20443492
000140 bd d5 d9 3f 23 ad 77 be f4 df 9c 3e 0d e5 f2 be
       1.7018353 -0.2418714 0.30639613 -0.47440377
000150 bd f3 cf 3e 96 50 91 3f f9 be 89 be f7 e4 47 bf
       0.40615645 1.1352718 -0.26903513 -0.7808375
000160 d9 30 90 bf b9 46 1c c0 b4 e0 6a 3e f9 09 6d 40
       -1.1264907 -2.4418166 0.2293728 3.7037337
000170 68 a5 8d be 5e 38 2a 40 82 af c5 3e 3d 0a 4e be
       -0.27665257 2.6596904 0.38610464 -0.20121093
000180 5a 1a b6 bf 04 50 c9 be 02 34 b6 3f 37 92 0e c0
       -1.4226792 -0.3931886 1.4234622 -2.2276742
000190 fc 19 09 3e 28 e9 01 bf 68 0f 97 3e 03 95 60 3e
       0.13388819 -0.50746393 0.29503942 0.21931843
0001a0 b7 06 8f bf 97 cb 88 3e 07 9d a4 3f 1e 36 6d bf
       -1.1173924 0.26717827 1.2860421 -0.926607
0001b0 80 f9 c5 3e 1c 8d ff be d4 d8 b4 bd c5 ca 20 40
       0.38666916 -0.49912345 -0.08830419 2.512376
0001c0 95 38 17 c0 b4 3d 51 40 3f 41 b4 bf 42 d4 f5 3f
       -2.3628285 3.269391 -1.4082412 1.9205401
0001d0 7f 77 89 3f 85 b2 4c be 31 07 5f 3f 22 ad d1 3e
       1.0739592 -0.19989975 0.8712035 0.40952402
0001e0 dc 29 ad 3e 93 28 55 bf 4f 87 30 3e 2b 54 12 c0
       0.33821 -0.83265036 0.17239116 -2.2863872
0001f0 21 d0 d2 be a6 96 c2 3f 07 0a 8f 40 08 89 47 3f
       -0.41174415 1.5202224 4.469974 0.7794347
000200 93 c8 bc bf 05 d3 28 be 53 f5 f3 be 94 b5 1b 3f
       -1.474871 -0.16486748 -0.47648105 0.6082394
000210 b6 d0 00 3f 62 d4 2e bd 26 80 aa be 88 49 0b 3f
       0.5031847 -0.042683013 -0.33300894 0.54409075
000220 70 09 88 bf b8 31 ed 3d c0 fe da 3f a8 dd f6 be
       -1.062788 0.11581749 1.7108994 -0.48215985
000230 1a 53 39 3d 9d 86 2d be 67 6a 44 bf 47 ec a7 bd
       0.045245267 -0.16945882 -0.7672486 -0.08199363
000240 8b 86 45 bd be 82 fd 3e 9b 07 35 3f e7 d7 ef be
       -0.048224013 0.4951381 0.7071473 -0.46844408
000250 01 6c 9e 3e 7e 0f 06 c0 8e 13 5d be 4c b7 de 3f
       0.30941775 -2.0946956 -0.21589491 1.7399688
000260 3e 29 28 40 11 23 e8 bf 8b 8e 31 be 42 16 75 bf
       2.6275172 -1.8135701 -0.17339532 -0.9573709
000270 9c 7c 59 c0 4b 00 3d bd 49 8c 9b 3e fb 60 d3 3e
       -3.3982306 -0.046142858 0.30380467 0.41284928
000280 01 2f 0a 3f cd cb de 3e dc 80 8b 3f ef c3 8e bd
       0.5397797 0.43514863 1.08987 -0.06970965
000290 30 a2 9a 3e 53 40 fa be 7d ac 2c 3c 89 cd 75 3e
       0.30201864 -0.488772 0.010539171 0.24004187
0002a0 11 07 18 40 8f d5 c9 3d 83 6b 1c 40 90 53 e9 3e
       2.3754313 0.09855186 2.444062 0.45571566
0002b0 49 43 4a 3e 04 58 f6 be e9 77 03 bf a7 7c a6 3f
       0.1975223 -0.48114026 -0.51354843 1.3006791
0002c0 87 35 1d c0 20 db 88 bf ce 00 ff bf a8 f9 a1 bd
       -2.456392 -1.0691872 -1.992212 -0.07908946
0002d0 77 59 61 be b6 5e b5 3e b1 d0 1f 3f df 16 08 3f
       -0.22006784 0.3542382 0.6242781 0.531599
0002e0 76 3a c1 bd 87 de 2f c0 b9 19 2e bf d9 0a 2a c0
       -0.09434979 -2.747957 -0.68008 -2.656912
0002f0 5e 80 01 bf e5 82 eb 3e b1 4f aa bf a7 de b7 be
       -0.505865 0.45998302 -1.330557 -0.35912058
000300 e2 9d 3c 40 d0 41 b9 3e 41 66 8c 3e a0 4c b3 3e
       2.9471364 0.36183023 0.27421764 0.35019398
000310 8e a3 c2 3e 0c dc 42 be cb b9 f0 bd 7f d4 b4 bd
       0.38015407 -0.19029254 -0.11754187 -0.08829593
000320 98 26 ab 3f c1 60 07 bf b4 75 f9 bf d4 13 83 3e
       1.3371153 -0.5288201 -1.9489045 0.25601065
000330 99 71 dc 3e 16 0b 8e bb f1 c4 00 3f 2f fe 80 bd
       0.43055418 -0.0043348176 0.5030051 -0.06298482
000340 b5 6d 26 bf 22 46 70 be 36 9f 0c bf 90 10 59 3f
       -0.6501115 -0.23464254 -0.54930437 0.847909
000350 08 e6 a6 be 72 82 74 40 a2 0a 0e be b0 bb 78 c0
       -0.32597375 3.8204618 -0.13871244 -3.8864555
000360 4b 12 92 c0 db ec 86 3e 0d 3a 64 3e ea a3 31 3d
       -4.564733 0.2635258 0.2228777 0.04336921
000370 31 10 fd 3f 11 1f 6a 3e a0 ce 28 3e 40 86 e3 3e
       1.9770566 0.22863413 0.16485071 0.44438362
000380 06 6d 5c be 70 15 80 bf 72 9c b0 bf 02 f5 5b be
       -0.21525964 -1.0006542 -1.3797743 -0.21480182
000390 21 e4 2f 3e 53 31 aa be cf 72 af 3e 2f 75 cb 3e
       0.17176868 -0.33240756 0.3426728 0.3973784
0003a0 ba 02 8a c0 76 eb f8 be 5b 38 39 c0 b8 a4 82 be
       -4.312833 -0.48617142 -2.8940647 -0.25516295
0003b0 42 a6 38 3e 88 7f 1b 3f 65 ad c0 be ef ca 82 bf
       0.18032172 0.6074147 -0.3763229 -1.021818
0003c0 6f 1e 34 3f 66 eb d9 3e 14 36 b0 3f d0 05 76 bd
       0.7035894 0.42562407 1.3766503 -0.060064137
0003d0 e6 6f 88 bf 09 e3 a4 be 6d 3b 58 be 7b 96 03 bf
       -1.0659149 -0.32204464 -0.21116419 -0.5140149
0003e0 d0 45 99 3e a6 dc 09 40 88 ab ff 3d 22 10 ce 3f
       0.29936075 2.1540923 0.12483889 1.6098673
0003f0 f0 62 27 3b 9e a2 e2 bd 9e 62 f2 3e fe 99 b5 3e
       0.002554115 -0.11066173 0.47340864 0.3546905

2.bias f4 [64]
000000 c8 01 12 3f 08 01 bb 3e a1 74 46 bf 12 eb 3a 3f
       0.5703397 0.36524224 -0.7752171 0.7301494
000010 08 08 1e 3f 1c 9b 2a 3f ea d0 99 3f 7c 44 16 3f
       0.61731005 0.6664293 1.201688 0.5869825
000020 63 db 22 bf 43 c7 d6 3e 8e 47 2a 3f 6a dd b5 bf
       -0.6361601 0.419489 0.66515434 -1.4208195
000030 20 a3 a9 3e 2a cd a1 bf c0 23 3f 3f f2 40 3e bf
       0.33132267 -1.2640736 0.74663925 -0.7431785
000040 e9 6e 05 bf 76 68 8e 3e 80 e9 30 bf ac 19 05 c0
       -0.5212236 0.27814072 -0.6910629 -2.079692
000050 89 2e 94 3e 07 b7 90 3f 19 9a 14 bf c9 e7 ae 3f
       0.28941754 1.1305856 -0.58047634 1.3664485
000060 31 41 34 bf 89 b6 f4 be 2f 3d 33 bf 7a ca 71 3f
       -0.70411974 -0.47795513 -0.70015234 0.9444958
000070 c6 3f 3a 3f 0e d5 40 bf 5e 6b 02 bf 50 d5 35 3f
       0.7275356 -0.75325096 -0.5094508 0.71028614
000080 1c 53 71 3e 39 d8 4d 3e 59 41 4c bf 69 f8 db 3f
       0.2356686 0.20102014 -0.7978721 1.7185184
000090 e7 f3 34 3f 35 0c 87 3f e8 ad 39 bf cb 00 0c bf
       0.70684665 1.05506 -0.72530985 -0.5468871
0000a0 61 48 31 bf 90 b5 4d bf 64 ed a8 3e 61 7a cc bf
       -0.69251066 -0.8035517 0.32993615 -1.5974847
0000b0 8c b9 0d bf 6c 30 c4 3e 1b f8 18 40 ff 66 42 3f
       -0.5536125 0.38318193 2.3901432 0.7593841
0000c0 55 ab 13 3f fc 50 8c 3f da 79 ca 3f 70 3b 47 3f
       0.57683307 1.0962214 1.5818436 0.7782507
0000d0 0d bd 92 bf 29 5f e7 be c7 8a 14 3f 71 9c 34 3f
       -1.1463944 -0.4518979 0.5802426 0.7055121
0000e0 46 35 b0 be 2b 16 33 3f 27 33 19 3f aa 3e 2f 3d
       -0.34415644 0.699557 0.5984368 0.04278437
0000f0 3a 09 f7 be ff c6 22 bf 74 a4 31 bf 16 b2 1b bf
       -0.48249227 -0.63584894 -0.6939156 -0.6081861
